best_models/cow_mesh_mip_nerf/cow_mesh_mip_nerf_best.pt (torch, 745293 bytes, 11 tensors)

pos_encoding.frequencies f4 [10]
00000000: db0f 4940 db0f c940 db0f 4941 db0f c941
00000010: db0f 4942 db0f c942 db0f 4943 db0f c943
00000020: db0f 4944 db0f c944
3.1415927 6.2831855 12.566371 25.132742 50.265484 100.53097 201.06194 402.12387
804.24774 1608.4955

dir_encoding.frequencies f4 [24]
00000000: cdcc cc3d cdcc 4c3e cdcc cc3e cdcc 4c3f
00000010: cdcc cc3f cdcc 4c40 cdcc cc40 cdcc 4c41
00000020: cdcc cc41 cdcc 4c42 cdcc cc42 cdcc 4c43
00000030: cdcc cc43 cdcc 4c44 cdcc cc44 cdcc 4c45
00000040: cdcc cc45 cdcc 4c46 cdcc cc46 cdcc 4c47
00000050: cdcc cc47 cdcc 4c48 cdcc cc48 cdcc 4c49
0.1 0.2 0.4 0.8 1.6 3.2 6.4 12.8
25.6 51.2 102.4 204.8 409.6 819.2 1638.4 3276.8
6553.6 13107.2 26214.4 52428.8 104857.6 209715.2 419430.4 838860.8

mlp.0.weight f4 [256, 60]
00000000: 0686 19bd 3f5b 91bb ead9 523c 1c02 023e
00000010: a2be 5b3c 4429 08bd 428d 5a3d 9987 a8bb
00000020: d5a2 53bc 8e66 90bd 4526 8cbc 6e89 a63c
00000030: 85a6 b63b c2b7 b2bc ae77 06bd 7ef4 ea3c
00000040: eee0 10bb f256 123c f9b0 623c f3b4 553c
00000050: 3449 83bb cac4 073d c736 e73c 630c 1e3d
00000060: 62ab d4be 2305 29bf 7fa8 413d 7b44 e3bd
00000070: 766a f83e 2065 083e 3871 8dbd efb0 193d
00000080: c81c 64bd 8730 6abd b436 733c 912b 053d
00000090: dec7 1cbe 1818 5d3d 882e 393d c3bd 643d
000000a0: 12ae 39bd ebc3 49bc 9bed 073e 404d 09be
000000b0: 8b9c d1bd f9b1 95bc fbb6 09be a52d b03c
000000c0: 2565 87bc afb5 afbd 61e8 b2bc 2d97 153e
000000d0: 4a2f 663d feec 0d3d 5011 933c a661 a13b
000000e0: 856e 8cbd fa5a 6fbd b36d bcbc dec4 bcbd
000000f0: 72e6 d7bb c9f2 2cbe cf42 abbd 3020 e93d
00000100: 82f3 d43c 9bd7 883e 5b69 f2bd e57c 0fbe
00000110: 4138 78be 965f 363e 797c dabd 12b6 32be
00000120: ff31 f5bd 9e8f 273d 4a76 ccbd 0697 03be
00000130: 6e5b 773e 74c7 36be 0284 833d f5ca d5ba
00000140: d5bf 003c ce88 0d3b 3de5 24bd f8f3 f93d
00000150: e925 8bbd 870b 4f3d ff01 6bbd 3f42 a23d
00000160: 1996 a8bb 60d2 803d df1e c7bd b59d fa3b
00000170: a6f1 413d d075 bf3d 7d66 c53c 49a3 d13d
00000180: fdc7 903d e2bf 243d 3a4f e2bc c033 3f3d
00000190: 8db7 e7bd 259a 0ebd ecf5 8bbd 71db 3dbd
000001a0: 3adf a8bd a29c 10be 43d4 e7bd 810f 913d
000001b0: a8d2 11bb 5fb7 a23d 1a2b 70bd 83f1 aabb
000001c0: 85fc e5bd 53da 2bbe 89b9 cf3d c041 44bc
000001d0: c461 a7bd 53b5 40be 0125 7b3c ea83 0a3e
000001e0: d567 073e 60a9 14be 0102 a93d bfdb 263e
000001f0: 18ab 44bd cafe 3fbd 262b 383e 1cde 21bd
00000200: 2f61 15be 58cc a33d c0ec 3ebe 4a57 4fbe
00000210: 08b1 dc3d 4ac2 d8bd 7bf0 6fbd 8e34 703d
00000220: 0168 4b3d c0c6 87be c2e5 63be cba1 0c3e
00000230: 1490 84be 1fe4 f5bd dd9f cabd b519 29be
00000240: 137e 803d 90e9 8abd 4a8d ad3d a974 9ebd
00000250: e3d6 9c3d 5647 dfbb ec21 01bd 431c ab3d
00000260: a025 eabd f697 d63d 610a 9dbd ce39 33bd
00000270: c82e a23d 52d9 e2bc 1cc8 03bd b60e 33bd
00000280: 1d9f f1bc ec6f 57bc 1935 923d afaa a23c
00000290: 24c6 ed3d 6106 bd3d 04cd f23d dd20 023c
000002a0: 3b0d a5bc 01df e0bd 56f2 0dbd 1e7a b5bd
000002b0: f6e8 dfbd deee fbbd de32 c63d d7b0 7c3b
000002c0: ae5a bebc e023 203c 9620 35bc 1f41 91bd
000002d0: fc8c 30bd a5f7 2abe 853b 43be 0d73 75bd
000002e0: 5b00 043c 995f be3b 28e6 753d 7d1c 1a3e
000002f0: eb4a 58be d823 243d bf41 0b3d da55 49bd
00000300: 3964 f8bc 1e0d 6abd bd55 833d a0d0 603d
00000310: 0538 073e ecf9 bc3d e575 033d 04ab 79bc
00000320: f099 bfbd 1eef d3bc 310a a43d a49a 72bd
00000330: 6e3c 1e3d d5e8 0ebd 5ae8 623d f6ab aa3c
00000340: 69f7 083b cce8 65bc 1b3d a1bd 53dd d03c
00000350: 5dfb d53e 86c5 283e 5249 ebbe 0fe6 d23e
00000360: 0ffe f83d 3f0c 51be ab4c 653e aa7b bdbd
00000370: a866 783e c716 443e d2a8 39bd b1f9 143d
00000380: 58a0 0c3e a6b5 2e3e 43e8 35bd 8294 4abe
00000390: 080f fd3b 3300 b63d a92d 233d aec2 943d
000003a0: 6cae 29bc 903c 3f3d 9b10 11bd 522a 01bc
000003b0: 7c8f 1dbc 26d7 9ebc cdc2 2b3d c333 6fbd
000003c0: a227 873b 980c c4bd 036a 343e f7e3 cd3d
000003d0: 9394 9e3d cdab 413e 59bb f43c 5d13 7fbd
000003e0: b94d 323c c938 e73d ba69 183e 62df b93d
000003f0: 55bd debc 9373 e9bd 7187 1f3e 93ab 983d
-0.03748133 -0.004435926 0.012869338 0.12696117 0.01341215 -0.03324248 0.05335737 -0.0051431176
-0.01291724 -0.07050811 -0.017108092 0.020329203 0.00557405 -0.021816138 -0.03282898 0.028681036
-0.0022106725 0.008931862 0.013836139 0.01304363 -0.004006529 0.033146657 0.028224362 0.03858603
-0.41537005 -0.66023463 0.04727983 -0.11097046 0.48518723 0.13319826 -0.069063604 0.037522253
-0.05569151 -0.057175186 0.014844585 0.03251225 -0.15310618 0.053978056 0.04521039 0.055845033
-0.045332022 -0.012314777 0.13274233 -0.13408375 -0.10234936 -0.01827334 -0.13448708 0.02150614
-0.016527722 -0.08579575 -0.021839323 0.1460845 0.056197442 0.03464984 0.017952591 0.0049249707
-0.068570174 -0.05843637 -0.023001527 -0.09217237 -0.0065887505 -0.1688949 -0.08362352 0.113830924
0.02599502 0.26726994 -0.11836501 -0.14012487 -0.24240209 0.178099 -0.106682725 -0.17452267
-0.119724266 0.04090845 -0.09983499 -0.1285058 0.24155971 -0.17849523 0.06421663 -0.0016311096
0.007858236 0.0021596435 -0.04025768 0.122047365 -0.0679434 0.050548103 -0.05737495 0.07922792
-0.005144846 0.06290126 -0.09722685 0.0076481947 0.047349595 0.09348643 0.024096722 0.10236222
0.07069395 0.040222056 -0.027625669 0.046680212 -0.113143064 -0.034814972 -0.06834015 -0.046351854
-0.08245702 -0.1412225 -0.113197826 0.07083035 -0.0022250805 0.079451315 -0.058634855 -0.0052167787
-0.11229805 -0.16782503 0.1014281 -0.011978567 -0.08172944 -0.1881917 0.015328647 0.13526884
0.13223203 -0.14517736 0.08252335 0.16294764 -0.04801473 -0.046873845 0.1798521 -0.03951846
-0.14587854 0.0799796 -0.18645 -0.20248142 0.107759535 -0.10583933 -0.05857895 0.05864387
0.049659733 -0.26518822 -0.22255614 0.13733594 -0.25891173 -0.12006401 -0.09893773 -0.16513713
0.06274047 -0.0678283 0.084742144 -0.07737095 0.07658174 -0.006813924 -0.03152649 0.08355
-0.11432958 0.10478203 -0.07667995 -0.0437563 0.07919079 -0.027691517 -0.03217326 -0.0437152
-0.029494816 -0.013149243 0.07139034 0.019856779 0.11610058 0.09229732 0.1185551 0.0079424055
-0.02014791 -0.109800346 -0.034654938 -0.08861183 -0.10933106 -0.1230142 0.09677671 0.0038557553
-0.023236599 0.009774178 -0.011055132 -0.07092499 -0.043103203 -0.16696031 -0.19065674 -0.059924174
0.008056725 0.005809736 0.060033947 0.1504993 -0.21122329 0.040073246 0.033998247 -0.04915414
-0.030321227 -0.057141416 0.06412838 0.05488646 0.13204964 0.09227356 0.032094855 -0.015238527
-0.09355533 -0.025870856 0.08009756 -0.059229508 0.03863185 -0.034890015 0.05539737 0.02083395
0.002089942 -0.014032554 -0.07872983 0.02549616 0.41793337 0.16481599 -0.45954376 0.41191146
0.12157833 -0.20414828 0.22392528 -0.09252103 0.2425791 0.19149314 -0.045327015 0.036370937
0.13733041 0.17061481 -0.044410955 -0.19783214 0.007722739 0.08886757 0.039838467 0.07263695
-0.010356527 0.046688616 -0.035416227 -0.007883625 -0.009616729 -0.0193897 0.041933823 -0.058398973
0.0041245976 -0.095727146 0.17618565 0.100532465 0.07743182 0.18913193 0.02987449 -0.062274326
0.010882788 0.11290128 0.14884081 0.0907581 -0.02718989 -0.11398997 0.1557901 0.074546

mlp.0.bias f4 [256]
00000000: 8cf8 c9bd 735c 4d3e 65a4 023e b2ed fabd
00000010: 1861 5e3d 9448 90bd 3230 1ebe 5c17 fdbd
00000020: 2a2b 23bd 8932 193d 0f31 013e cd25 c73d
00000030: 4ca7 37bd 9bc5 2d3d 8161 90bd 51bc b63d
00000040: ac2d c8bd ec86 6abd 2782 9e3c a2ee 29bd
00000050: 1ce7 633d 8666 8a3d 8ca5 68bd 8712 07bd
00000060: fa0f 36bd e9d0 9abd 0e3a 8d3d 0a85 8c3d
00000070: 8aa2 cc3d c4f6 073e 6d71 253d aab3 483d
00000080: 774e 1e3d eae2 f7bd bbb0 12be 1f89 1bbe
00000090: 295c 9a3c b290 873d a7de 343e bf27 1a3d
000000a0: ed59 633e 8194 3a3d 5393 fd3c 50b1 45bd
000000b0: 8095 51bd 8a61 9b3d 617c 2d3e e17a 1c3e
000000c0: cebf 56bd ff23 a0bd 8038 2e3e 13ec c3bd
000000d0: d900 053c 198f 09bd 1d5e 1c3e fb40 793d
000000e0: cb0b 593d b2b0 eabc 95bf 963d 48ea 903d
000000f0: 1e20 083d 8c3d 8d3d 6a03 b53d bf00 0ebe
00000100: 6584 60bd 23f4 5a3c a24c d5bd f645 1bbe
00000110: 29b7 4f3d 82c8 c1bd e4b6 983d 4155 44bd
00000120: fcdb 7cbd c1f3 103e 75ff ca3d 0adf a3bd
00000130: f4b4 b53d 5d78 1cbe 228d 15bd 0bc5 fabc
00000140: a5fd 7a3c 2f62 e9bb 1a46 9abd 142a a1bd
00000150: b216 b6bc de04 c93d 3cdc 0ebe d609 573d
00000160: 090f b83d 1069 d73d aeaa 54bc 4120 eebd
00000170: b274 e33d ed86 703d 553a 9dbc e14c 2abd
00000180: 086b b9bd bb0b 74bd b614 e83c 7e5b e9bd
00000190: 2180 10bc c756 963b 8a47 31bd 4593 593d
000001a0: bc76 febc d67f 03be a4af a3bd 4933 d2bd
000001b0: a1fc 11be 5ab2 e33c 56a6 afbd 474e e83d
000001c0: 338f 0c3e 662f 5f3d ec59 053d d00b 353e
000001d0: 60b6 b5bd b453 cbbc 2c5a 133e a2f6 7ebd
000001e0: 7fef c7bb f9c4 0d3e 123d 54bc 0363 7c3c
000001f0: 13c3 71bd de9f 263e 86ba a73d 7e91 563d
00000200: b606 8ebd a5a1 cfbd 47bc d63d 6f71 27bd
00000210: 5dec 84bc b2b9 50bd f526 303e 7fdd d2bc
00000220: 1233 4fbd 9613 9abc f61e 77bd 35cf 0d3e
00000230: 210a d73d 5676 aebd bacf 2b3d 6501 ea3c
00000240: 8b12 99bc 2a9e 083e 240b cfbd 6872 873b
00000250: 976f a93d cfa2 83bc b8f7 36bd 4959 113e
00000260: edda c33c 288e b93d 424d b3bc 8d80 b73b
00000270: f1f3 0bbd 2332 5cbd 8162 f43c 2fc7 2c3e
00000280: e07a 5c3c 0c1e 5dbd f4f8 703d 818d 03be
00000290: a2dc e6bd 1c00 cdbd 7b65 d53d 9955 5e3d
000002a0: c67a 993b 496d 33b9 e44f cbbc c6ce f83d
000002b0: bf09 563d 1d30 e7bd fa21 c8bd 3646 603d
000002c0: c70a 633d c362 8b3c 02dc 5f3c f8f6 d53d
000002d0: d738 c53d 48a3 b03d 4671 85bd f8c7 03be
000002e0: cfc1 b2bd 9e1f 0dbe 88b5 bb3d 81a6 2fbc
000002f0: 127b acbc 3b5d ab3d 525c 08be ce99 79bd
00000300: 4181 babd 4ae1 7f3c 6e03 c83c 865b 1b3e
00000310: 4bfb c63d ce11 283e b3e8 c0bd 08f3 c4bc
00000320: c414 b33d dadb 82bc 437f 9abc d9c3 3cbc
00000330: d7d0 e0bd 5282 89bd f36c 09be b331 babd
00000340: ebd5 2dbc a7f8 bf3c aac7 403c 2d05 18bc
00000350: 4b66 31bc 9977 f7bd 6a9c b63d df1d 1a3e
00000360: 4cca 1abd 9a9f 763d 36c5 b6bd c667 eb3d
00000370: acea 88bd c750 f3bd 66b1 933d 5c0b 39bd
00000380: 0e15 debc cfc4 91bc 33e8 8abd 87f0 6ebd
00000390: 9020 1fbd 5c9a 1b3d 8622 abbd 5b54 30bd
000003a0: b710 383d 1b50 17bc 33a8 7d3c 3a13 bd3d
000003b0: 205f 34be 9619 ba3c c4ee 163e 220c d9bd
000003c0: a311 ecbd 7e21 be3d 9539 293d a40e c53c
000003d0: 4612 0c3e 63f4 63bd 02a1 043e 2c81 83bd
000003e0: 34fa 453d 0b43 87bd 0383 073c 63a1 08be
000003f0: 04de d83b 99f8 bc3d 310d c2bc 6a19 4e3d
-0.0986186 0.20054798 0.12758024 -0.12252368 0.054291815 -0.07045093 -0.15448073 -0.12357971
-0.039836086 0.03740171 0.1261637 0.09724007 -0.04483728 0.04242478 -0.070498474 0.08922637
-0.09774336 -0.057257578 0.01934917 -0.041487344 0.055640325 0.06757836 -0.056798503 -0.032976653
-0.04444883 -0.07559378 0.06895839 0.06861313 0.09991939 0.13277727 0.040391374 0.048999466
0.03864905 -0.12103827 -0.1432523 -0.15189026 0.018842774 0.06619395 0.1766306 0.03763556
0.22202273 0.04555178 0.030954039 -0.0482648 -0.051167965 0.075869635 0.16941978 0.1528125
-0.052429013 -0.07819366 0.1701374 -0.09566512 0.008117878 -0.033583734 0.15270276 0.060852986
0.052989762 -0.028648708 0.0736076 0.070759356 0.033233754 0.06896505 0.08838542 -0.13867472
-0.05481376 0.013363871 -0.10415007 -0.15163407 0.050711785 -0.09462072 0.074567586 -0.047932867
-0.06173323 0.14155485 0.09912006 -0.08001526 0.08872405 -0.1528029 -0.036511548 -0.030611536
0.015319263 -0.0071223 -0.07532902 -0.07869354 -0.022227619 0.098153815 -0.139512 0.052499615
0.08987243 0.10518086 -0.012980146 -0.11627246 0.11106242 0.058722425 -0.019192854 -0.041577224
-0.09053618 -0.0595815 0.028330188 -0.11394404 -0.008819611 0.0045879814 -0.043281116 0.053118963
-0.031062476 -0.12841734 -0.07992485 -0.10263688 -0.14256527 0.027795006 -0.08576648 0.11343055
0.13726501 0.054488562 0.03255646 0.17680287 -0.08872676 -0.024820186 0.14389867 -0.062246926
-0.006101548 0.1384467 -0.012954013 0.015404466 -0.059023928 0.16271922 0.081898734 0.052384846
-0.06934874 -0.10138253 0.1048513 -0.040879663 -0.016225988 -0.050958343 0.17202361 -0.025740383
-0.050585814 -0.018808167 -0.06033226 0.13848574 0.10499979 -0.085186645 0.04194615 0.028565118
-0.0186856 0.13341585 -0.10109547 0.0041335113 0.08273237 -0.016068844 -0.044669837 0.14194216
0.023908103 0.09060317 -0.021887425 0.0056000412 -0.034168188 -0.05375875 0.029832127 0.16872858
0.01345703 -0.053983733 0.05883117 -0.12846948 -0.11272551 -0.100097865 0.104197465 0.05428085
0.004683825 -0.00017111482 -0.024818368 0.12148814 0.05225539 -0.11288474 -0.097721055 0.05475446
0.0554302 0.017014867 0.013663294 0.10447496 0.09629982 0.086248934 -0.06515746 -0.12869251
-0.08728372 -0.13781592 0.09165484 -0.01072085 -0.021054778 0.08367392 -0.13316467 -0.060937695
-0.091066845 0.015617678 0.024415698 0.15171632 0.09715899 0.16413042 -0.09419384 -0.024041668
0.08744195 -0.015973974 -0.018859511 -0.011521303 -0.10977333 -0.0671431 -0.13420467 -0.090915106
-0.010610084 0.023433996 0.011766354 -0.009278578 -0.010827611 -0.12083358 0.08916552 0.15050457
-0.03779058 0.0602108 -0.08924334 0.114944026 -0.06685385 -0.118806414 0.072115704 -0.04517685
-0.027109649 -0.017794041 -0.0678257 -0.058334854 -0.038849413 0.037989005 -0.08356194 -0.043049198
0.044937816 -0.009235407 0.015481996 0.09232183 -0.17614412 0.022717278 0.1473952 -0.10598017
-0.115268014 0.09283732 0.04131468 0.024054833 0.13678846 -0.055652987 0.12952045 -0.06421122
0.048334315 -0.06604584 0.008270982 -0.13342814 0.006618263 0.09227104 -0.02368793 0.050317205

mlp.2.weight f4 [256, 256]
00000000: 5dba 0abe 944f 963d 3be9 9c3c 193d 213e
00000010: 2407 773a 8b5c 233d 28c5 623e 31c7 18bd
00000020: dc50 393d ffc3 90bc 0904 1c3d ebd5 c0bd
00000030: 4c98 43bd 9228 d8bd 993a 253e ceb2 25bd
00000040: 14f0 683e 6867 5c3e eda5 503d 8eaa 9fba
00000050: 9d67 f3bc a775 a1bd 5be1 97bd c123 a1bd
00000060: 06e2 c43d 9370 f43d 772f 4fbc d251 bfbc
00000070: 41e7 3e3d 7464 c0bc e310 ec3c 5785 ebbc
00000080: 8b48 f2bc f0b6 8c3c 7177 863d 89d0 0fbc
00000090: fba7 223e 883d f2bd 11fa 4ebc 9d69 02bd
000000a0: bfe6 553b 2e23 9f3b 3cf0 93bd f7e0 313e
000000b0: 491b b03c c630 adbc e5f0 5b3d 714c 0a3d
000000c0: 183c 443e 086b 023e 8fef 373d a4fd e7bd
000000d0: 782b 1e3c 7a2e 40bc 3902 b0bc 9e46 acbc
000000e0: 29e8 bb3d e23e 963c d254 c63c 640c d7bc
000000f0: 706a 303d 2820 903d 5529 d03c 3b9a dfbc
00000100: f948 433d 710b e33d 1d3d 6cbd 059a cabc
00000110: e5cb e73c db6c f5bc b281 b13c d858 87bd
00000120: 9dbd 41bd df14 033d 39ca 07bd 0599 2abd
00000130: d16d 7abc 519c ecbd a75f ba3d cf47 893d
00000140: fda5 7cbd 34e0 cf3d 31b5 673e 8039 793e
00000150: c977 85bc 0447 9c3d a1d5 c0bd 4988 59bc
00000160: 953a c7bc 54b7 583d c1dc 883d bce3 3dbc
00000170: 47ca 4e3d 2128 223d b032 113d 8fa5 a2bd
00000180: c5bc af3d 2176 4e3c 38db c6bc c274 073e
00000190: 140e 08bd 8b43 bd3d 0a72 9cbd 16b2 8b3d
000001a0: d8b2 06bc bd04 ccbd dce3 673c 3004 27be
000001b0: ca27 89bd 5b0b bf3d 2ca3 72bd b4af 0c3e
000001c0: ff85 b7bc e834 0ebd 8035 56be 5bb3 ba3c
000001d0: c079 f43d 082d 9cbc 1e3f 16bd 6bdf c2bd
000001e0: e72d b1bd 8ae2 fe3d 8820 6dbc 5e35 6d3d
000001f0: 7f52 643d 1458 943d e786 6dbd 483d 15bc
00000200: d1f9 c5bc fbe3 a93c d9f3 153d 93a9 b7bd
00000210: dad6 5cbd e50c 5b3d ec98 f9bc 5d2f 1d3e
00000220: 7e4b 753d 7e91 863c 674d f13d f2cc b9bd
00000230: a7d0 fb3c 25d5 69bd cd77 82bd 6185 403c
00000240: 4c61 0d3e c369 37bd b990 623e b6eb 223d
00000250: 87f6 9e3b a378 f5bc 7213 643e 5da2 87bc
00000260: eb4a 983b 1786 5fbc 520e 263e 0aaf 303e
00000270: 0346 af3d 97ce 11bd 62dc ebbc 2392 ec3b
00000280: 4637 b03d 40c6 91bd b065 b23c be8b 9ebc
00000290: 6bad 7c3d 169a 023e d715 f03d 9888 6c3c
000002a0: 4e7a 40bc 593b dabd f7a1 3abd 3ce3 513c
000002b0: 6391 933d 459f 663e 705f fbbd 10d8 fbbd
000002c0: 0787 85bd f587 7bbd e9b6 34bd f500 4dbd
000002d0: bc38 6fbc 5c4b 01bd 01ef 323d 166c b63d
000002e0: 3a42 afbd 8522 2c3d 1755 133e 6634 1f3d
000002f0: 5456 1e3d 4a9d 973d 886b 71bc d6ef e1bd
00000300: 3397 c2bb ad96 1b3e a0b5 2d3d 70df 78bd
00000310: de6d d6bc ca5c 6fbc 6f34 f4bc a5fa 37bd
00000320: 9786 9ebd f9c5 babd a27f 04be dadf 9cbc
00000330: 03ea 66bd b75a 98bd 91e0 38bc 22ef 0d3d
00000340: b6c8 f33c dfa0 1a3d b8a4 c53d 069c 263d
00000350: c346 d23d bc7a 313e 8c1a d5bc 680a 7abd
00000360: e51a 23be 9695 c7bd 1db8 89bd afb6 ce3d
00000370: cdfc 183e 115e 88bd 111f 41bd eaf7 a63d
00000380: 2389 3a3c 65c6 07be 709a b1bc 5c48 083e
00000390: d6aa fd3d 2603 ffbc 8613 a8bd 2cd3 313c
000003a0: 418a 7c3d 9d61 243d 2e98 3a3e 799b 093d
000003b0: cfa7 253e dbbd 103e 4f05 b7bc 0558 be3c
000003c0: 6c24 073e ad70 833c cea0 ccbd 5fed a0bd
000003d0: 4186 b53c edf3 0f3e f1ea 9f3d 3a9d 923d
000003e0: be62 923c 9329 383e 98b2 e43d 4d0f 4dbb
000003f0: 8f93 ba3c b1e8 1dbd b603 40bd 498d 9fbb
-0.13547654 0.07339397 0.019154182 0.15745963 0.0009423366 0.039883178 0.22145522 -0.03729934
0.04524313 -0.017671583 0.038089786 -0.094158016 -0.047752663 -0.10554613 0.16135634 -0.040453725
0.22747833 0.21523821 0.05093949 -0.0012181567 -0.029712493 -0.078837685 -0.0741603 -0.07868148
0.09613423 0.11935534 -0.012645594 -0.023354445 0.04660726 -0.0234854 0.028816646 -0.028750105
-0.029575607 0.017177075 0.065657504 -0.008777746 0.15884392 -0.118281424 -0.012632863 -0.031839002
0.0032638756 0.0048564887 -0.072235554 0.17370974 0.021497386 -0.021141421 0.05369653 0.033764306
0.19163549 0.12736142 0.044906195 -0.11327675 0.009653918 -0.011729831 -0.021485435 -0.021029767
0.091751404 0.018340532 0.024210367 -0.026251025 0.043070257 0.07037383 0.025410334 -0.027295223
0.047677014 0.11086167 -0.05767547 -0.024731645 0.028295467 -0.029959133 0.021668289 -0.066087425
-0.04729997 0.032002326 -0.03315184 -0.041649837 -0.015284971 -0.115532525 0.091002755 0.067031495
-0.061681736 0.10150185 0.22627713 0.24338341 -0.01629247 0.07630733 -0.094157465 -0.013277122
-0.024319926 0.05290921 0.066827305 -0.011589941 0.050485875 0.03958905 0.03544873 -0.07941734
0.08580927 0.012601406 -0.024274454 0.13228133 -0.03321655 0.092413984 -0.07638939 0.068210766
-0.008221351 -0.09961841 0.014153447 -0.16310191 -0.06697042 0.09328338 -0.059237644 0.137389
-0.022402762 -0.034718424 -0.20918846 0.022790601 0.119372845 -0.019064441 -0.036681287 -0.0951527
-0.08651333 0.12445553 -0.014473088 0.057912223 0.055742737 0.07243362 -0.05798998 -0.009108849
-0.024166973 0.020738592 0.036609504 -0.089678906 -0.053915836 0.053479094 -0.030468427 0.15350099
0.059886448 0.016426798 0.117823415 -0.09072293 0.030739142 -0.057088036 -0.063705064 0.01175055
0.13806647 -0.044778597 0.2212552 0.039775573 0.0048511657 -0.02996475 0.22273043 -0.016556913
0.004647603 -0.013642809 0.162164 0.17254272 0.085582756 -0.03559741 -0.02879161 0.0072195693
0.086042926 -0.07117891 0.021777004 -0.019353744 0.06168882 0.12754092 0.117229156 0.014436863
-0.01174791 -0.10655851 -0.045564618 0.012810525 0.07205465 0.22521694 -0.12274063 -0.1229707
-0.06519895 -0.061408956 -0.04411975 -0.05004974 -0.014600929 -0.03156601 0.043684963 0.089073345
-0.085575536 0.042025108 0.14387928 0.03886833 0.038656548 0.074030474 -0.01473511 -0.11032073
-0.0059384345 0.15194197 0.04240954 -0.06075996 -0.026175436 -0.014609525 -0.029810159 -0.044916768
-0.07740515 -0.091197915 -0.12939313 -0.01914971 -0.056375515 -0.074391775 -0.01128401 0.034651883
0.029758792 0.037751075 0.09650558 0.04067614 0.10267403 0.17331976 -0.026013635 -0.06104508
-0.15928228 -0.09745328 -0.0672457 0.10093438 0.14940186 -0.06658567 -0.047148768 0.081527546
0.011385235 -0.13259275 -0.021680087 0.13308853 0.123861 -0.031129431 -0.08206849 0.01085357
0.061655287 0.040132154 0.18222114 0.033595536 0.16177295 0.14134924 -0.022341399 0.02323533
0.13197488 0.016044939 -0.099916086 -0.07857775 0.022158744 0.14057894 0.078084834 0.07158895
0.01786935 0.1798461 0.111668766 -0.0031289638 0.02277544 -0.03855199 -0.04687854 -0.0048691374

mlp.2.bias f4 [256]
00000000: 212b 7a3b 186b 7f3b 8f92 3e3d 51ab 323d
00000010: b481 f9ba 8f12 d13c 462b 44bc be49 243c
00000020: 0c50 06bd 1824 373e 8b99 fc3c 582c bd3d
00000030: f7d4 7a3d 4cea 86bc 3f28 37bd 33be 26bd
00000040: fffe bb3d 5e9c 343d 25de 753c eefd 20bc
00000050: 5a13 a63d be6d 873a 84c4 2cbd deea 50bd
00000060: 3812 70bc 28de 6dbc c02c 943d e0a9 ac3d
00000070: 8d12 043e 083c 06bd 9c6a 153d e67a d0bc
00000080: 0d83 1f3d b4f5 413e dee4 303d c732 803c
00000090: 9b7c 413d 7a0f 4dbd ea60 d93d 5786 50bd
000000a0: f33a f33d f502 3a3d ee95 183d ac85 96bc
000000b0: 1660 72bd 11c8 2f3c ffb5 163d ffb3 3ebd
000000c0: 2101 843c 99eb c73d 72b4 c9bc 1be6 3c3d
000000d0: a08d 84bd 64c8 1b3c fb3d 8abc 073b ad3d
000000e0: 0c29 453d 8d35 7e3d 5fd0 2c3d 6b3f 483c
000000f0: e34c 1abd 6244 c13d c143 d33c ebae eebc
00000100: dbe3 803c f53e 9a3c 5e54 b33d 0bd0 1ebd
00000110: e3cc 143e fc74 813c f215 89bd 5fc7 953d
00000120: dd3b 0f3b 4189 3d3d cddf 4cbd c123 d13c
00000130: 633f 053d b64a cf3a d5ef b3bc 455b 8d3d
00000140: e2d4 583d a8fd 993d 423b 35bd eabf 603d
00000150: 6f2a 2dbc afb5 b63c 4759 abbc da83 e93c
00000160: 8e5f 82bb de5f e13c 7541 eebc ecc7 33bd
00000170: 5e70 e13c 38dc f63d c5aa 053d 73cd 39bd
00000180: 841c d83b ccc2 82b9 55b5 b23d 9ba9 b83d
00000190: 9fad 333d ba47 38bd 98f6 bfbb 1820 473c
000001a0: fe3a 6a3d 0e98 333e 3521 68bd 87ac 213c
000001b0: c97a 743c 89d1 0c3e 7cde 023d f52b 11bd
000001c0: 8454 5abd 75da cc3c b48f 4b3d fe85 813a
000001d0: 4d67 e63c 6423 b13c 0216 6dbc 1b28 0f3c
000001e0: 9f96 eb3c 5d50 813d 6164 46bd 0468 bb3c
000001f0: 2e16 793d 64c0 b63c 1fe5 09bd 863e b9bc
00000200: 2d94 753c c53a 1cbd 58b3 c03d 829c 50bd
00000210: 8a49 d73c dd6a 333d 55da 3d3d aad6 193d
00000220: 107b 533d a73c c9bc dc54 783c 0143 68bd
00000230: 2450 27bc 4205 ba3b 128f 933c 9434 68bd
00000240: efb0 4d3d 17ed ecbc cb40 59bd 8e09 5839
00000250: 4501 1f3c 995c f8bc 08f7 363d 712a f73c
00000260: b1f0 a93c 9587 393d 41f8 03bd 0d55 87bd
00000270: 709d dc3c 8b3e 0d3d ecb8 aebc b36e 3c3d
00000280: 23ae ab3b 25e5 2b3d ee2c 4dbd e378 dabc
00000290: d973 e23d 5a00 053d 7bc3 0b3c 9aa7 c13a
000002a0: cb76 14bc cffd 6cbd 0ab1 433d c6ab c13a
000002b0: cd17 0dbd 0f1a 1fbd cdaf cc3b f240 793d
000002c0: 80b2 9a3c 81f0 7d3d 7c29 29bd 428f 363c
000002d0: 67a8 a23c 42ef 4abc fc90 0dbd 8bff 56bd
000002e0: 6055 c13d 6661 833d 3bcf 7dbc fe42 57bd
000002f0: 15b2 053b 2866 ce3c d9d1 ba3d 5290 cb3d
00000300: 4ef9 7dbb 7fac 6a3d 2050 87bc 2baa 82bd
00000310: fd4c 993d 622c df3c 1c57 c4bb 9c8c e1bc
00000320: a1b9 823c e87a 913d a382 1bbd c51c c23d
00000330: b1dc 5fbd 44b0 483a fdce cdbc 3a6f 553d
00000340: b938 773d 338b 303c fa95 893d 5267 26ba
00000350: ad39 643d 4dee 3f3d a79f 2d3d 74ac 69bd
00000360: 03ef 583d 6c82 41bd d3e5 0fbd fed1 413d
00000370: 71de 063d 8aec e8bc 742c 3abc e394 063d
00000380: 9bd6 3d3d 7808 e8bc 0e6e 1db9 1734 0d3e
00000390: e99e a23d 9eea 58bd b253 3a3d 1f98 28bd
000003a0: 4041 8e3c bd4a a53d 596b dd3c d1b3 dbbc
000003b0: 6b5a 553d 7da9 d03d ff17 ad3c 4075 debc
000003c0: da35 fb3b ad34 5ebd 2c08 0f3d f132 233c
000003d0: c8bf 423d 8077 aa3c bb8a 56bd d591 073e
000003e0: bb7c 2d3c c989 47bd 3a11 193d 6290 923b
000003f0: 08cf 01bd 14fc 6a3d dce6 62ba 1ef6 653d
0.003817268 0.0038973745 0.046526488 0.04362041 -0.0019035847 0.025521545 -0.011973208 0.010027347
-0.032791182 0.17884862 0.030834934 0.092369735 0.061238255 -0.016469143 -0.044716116 -0.04070873
0.09179496 0.044094436 0.015006577 -0.009826167 0.0810916 0.0010332388 -0.0421796 -0.051005237
-0.014652781 -0.014518298 0.07235098 0.084308386 0.12897702 -0.032772094 0.036478624 -0.025449228
0.03894334 0.18941385 0.043187015 0.015649213 0.047237974 -0.050063588 0.10614188 -0.050909366
0.11876478 0.045412976 0.03725236 -0.018374287 -0.059173666 0.010728852 0.03679466 -0.046558376
0.01611382 0.097617336 -0.024622176 0.046117883 -0.06472325 0.009508226 -0.016875258 0.08458524
0.04813485 0.06206279 0.042190906 0.012222151 -0.03767098 0.09436871 0.025789144 -0.029136142
0.01573365 0.018828848 0.08756326 -0.038772624 0.14531283 0.015802853 -0.06693639 0.07313418
0.002185575 0.046273474 -0.05001812 0.025529744 0.032531153 0.0015815112 -0.021964947 0.06902174
0.052937396 0.07519084 -0.044245966 0.054870524 -0.010569199 0.02230343 -0.020916594 0.028505255
-0.003978676 0.027511533 -0.029083947 -0.043891832 0.027519401 0.12053722 0.03263356 -0.045361947
0.006595196 -0.00024940667 0.087259926 0.09016725 0.04386675 -0.04499028 -0.0058582537 0.012153648
0.057185166 0.17538473 -0.056672294 0.009867794 0.014921852 0.13751806 0.03195046 -0.03544231
-0.053303257 0.025006512 0.049697593 0.0009881852 0.02812543 0.02162332 -0.014470579 0.008737589
0.028758345 0.06314156 -0.048435573 0.022876747 0.060812168 0.022308536 -0.033665773 -0.022612821
0.014988941 -0.038141984 0.09409207 -0.050930507 0.026280183 0.043803085 0.046350796 0.037558235
0.051631033 -0.024565054 0.015156951 -0.056704525 -0.010211978 0.0056768963 0.018012557 -0.056690767
0.050217565 -0.028921647 -0.053040307 0.00020602925 0.0097048925 -0.030317592 0.04466918 0.030171605
0.020744653 0.045295317 -0.032219175 -0.06608019 0.02693054 0.034483474 -0.021328412 0.04600401
0.0052392646 0.041966576 -0.050091676 -0.026668971 0.110572524 0.03247104 0.008530493 0.0014774681
-0.009061526 -0.05785924 0.04777626 0.0014775924 -0.034446526 -0.03884321 0.006246543 0.060852952
0.018883944 0.06199694 -0.04129933 0.011142554 0.019855691 -0.012386145 -0.034562096 -0.0524898
0.09440112 0.06415062 -0.015491302 -0.052554123 0.0020400335 0.025195196 0.091220565 0.09939636
-0.0038753334 0.05729341 -0.016517699 -0.06380113 0.074853875 0.027242843 -0.0059918296 -0.027532868
0.015957655 0.07103521 -0.03796638 0.094781436 -0.054653827 0.000765566 -0.025123114 0.052108027
0.06035683 0.010775375 0.06718059 -0.00063477934 0.055719066 0.04685812 0.042388584 -0.05704923
0.052962314 -0.04724352 -0.035131287 0.047319405 0.03292698 -0.028433103 -0.0113631375 0.032856833
0.04634724 -0.02832435 -0.00015013685 0.13789402 0.07940466 -0.052958123 0.045489974 -0.0411607
0.017365098 0.08070896 0.027028726 -0.026819142 0.052088182 0.10188577 0.021129606 -0.027155519
0.0076663317 -0.054249454 0.034919903 0.009960876 0.047546178 0.020808935 -0.052378397 0.13239224
0.01058882 -0.048715387 0.037369944 0.004472778 -0.03169158 0.057369307 -0.00086556165 0.05614292

density_layer.0.weight f4 [1, 256]
00000000: 09be 35be fa7b b93d 6938 f03d 4e82 8bbe
00000010: 1635 bf3d 86b7 dc3d 8df7 38be 8747 883d
00000020: f281 413d f16e 15bf ce56 843c 081f 5fbe
00000030: 0f70 8cbe 1ee6 6d3d 2d90 d53c d7eb d03d
00000040: 8f7f 70be 154e 1dbe f71a c23d 1461 c53d
00000050: fe9d 82be c9f2 963d 0041 a03d 53db 7abe
00000060: 2dc5 183d 2195 f5bd b748 cebe 477e e0be
00000070: f6f6 e1be 6866 d93d 2f43 6a3d dbcc 47be
00000080: 94bf 43be a5c0 f1be 9bb3 013e add0 78be
00000090: 9858 9f3d a988 c13d 7654 95be fa93 c33d
000000a0: abb0 15bf 2b89 84be 3403 29be 4f72 a33d
000000b0: 5163 a33d 89bf 53be 28bf 513d 98c8 9f3d
000000c0: 6e06 e5be 2eae 63be 5a09 0bbe 5868 cb3d
000000d0: 3065 74be e19d a63d 2941 923d 87b1 6abe
000000e0: 72bb b23d 53b3 2ebe 3fee b43d f474 12be
000000f0: d237 b83d 00a5 41be c1d8 31be 5783 ce3c
00000100: d55f 85be 168a 6ebe 5024 f3be 453f d83d
00000110: 60b2 e43c 322e 923d 9f8c 92be c2b7 8ebd
00000120: 81aa 6f3d 976b b43d 6182 3dbe 7059 24be
00000130: 0918 a23d 76b1 b13d b2e2 8b3d 182a 10be
00000140: 1d6a a13d dde8 b5be 0eda 51be 6724 983d
00000150: 16e2 d03d ff32 1dbe 93b0 863d b6c8 c8bd
00000160: 336f 5ebe 4a4d ba3d df30 573d b9e8 903d
00000170: 610a 573d 4b16 39bf 4b1c a839 6c07 b73d
00000180: 478f 32be dd04 d73d 6899 95be da2a 39be
00000190: 05a6 953d dd22 cc3d 56e8 8fbe d27b 323d
000001a0: 2e78 9bbe f872 0fbf f331 803d 5002 b33d
000001b0: 6b28 573b 6add fcbe c43e c03d 8a61 ab3d
000001c0: 3df8 79be 7979 7d3d 0dd0 07be f36b 823d
000001d0: 020b d23d c838 b63d 12d4 653d f7b1 843d
000001e0: b37e 773d e4f1 9bbe c9cd 7c3d 6d35 58be
000001f0: 3b81 00be 31c4 773d 311d c33d 6249 893d
00000200: f4a8 db3d 4172 4f3d 7c67 9dbe 2526 943d
00000210: 3354 653d 91e8 53be 776e 7d3d 1f69 29be
00000220: 2c9e 5a3d 582b 84be 5fa9 52be 3282 913d
00000230: 972f 6a3d 438c 26be 0a4b 913d 1171 6dbe
00000240: 4224 ba3d d87c cb3d 0cd3 aa3d 9c07 40be
00000250: 5e1f a8be bd92 a73d 148d b6bd d893 43be
00000260: 57b2 983d 76c0 5a3d 9a6f e43d 0aa6 b23d
00000270: 3f44 dfbe 251c 30be 0ae8 ae3d 4f33 39be
00000280: 3e0c a23d d6ed 2fbe d6a5 42be bd16 933d
00000290: d394 9ebe d96f d93d 53f2 073d 9f3d 9fbe
000002a0: 70d3 a73d 5ef6 103d 5fee b33d e187 3cbe
000002b0: 264a d83d 1eff d83d ee94 3fbe 4141 70be
000002c0: 9333 12bf 1270 a93d d5cf c93d bec6 323d
000002d0: 7a73 a93d 0f26 803d 2d90 bf3d 4c47 a93d
000002e0: 92ce a2be 3382 a2be 54cc 963d 3a64 d13d
000002f0: bed9 593d 8eb9 693d 5cea a7be 6d5b 28be
00000300: 7da5 0dbe 542a bfbe e4da b33d 8e3d 80be
00000310: 50da e8bd b05c 443d 4290 29be dfd0 9f3d
00000320: a0b0 8d3d 20f9 04bf 443c ba3d 8695 a0be
00000330: 1765 a13d b109 e03b c6c3 203d 7516 11be
00000340: b3eb 873d 580f 3b3d 518a 4ebe f9f0 4cbe
00000350: 8c7e 2ebe e284 193d cd5f bf3d 7b1a a63d
00000360: 1adf 903d 31b9 86be 4e00 a7be 5441 a33d
00000370: 59e9 16be bdbc c23d c279 3cbe bee9 b43d
00000380: 570a 27be af49 013e 8f36 793d e2b3 b8be
00000390: 498c 0a3d 0c14 60be 37f6 54be 6f3d b83d
000003a0: e39c 4e3d ad69 0abf b767 a43d 6e70 d53d
000003b0: f8ca 873d 9813 b4bd 8ef9 46be 5aa0 87be
000003c0: e1e6 61be 7a7f 0abe a132 4b3d 89e8 fcbd
000003d0: 0a5d af3d 4cb0 b73d 3379 593d 197d cebe
000003e0: 02d0 bd3d 24d9 8e3d 4f0c b03d 47d8 45be
000003f0: ad5a 033e 8f96 d33d 637c d23d d58b f73d
-0.17748274 0.0905685 0.117295094 -0.27247852 0.09336297 0.10777192 -0.18063183 0.06654268
0.047243066 -0.5837241 0.016154673 -0.21789181 -0.27429244 0.058080785 0.026069725 0.10201233
-0.2348616 -0.15361817 0.094777994 0.09637657 -0.25511163 0.07370526 0.07824898 -0.24497728
0.037297416 -0.11991335 -0.40289852 -0.43846342 -0.4413373 0.106152356 0.057192978 -0.1951174
-0.1911605 -0.4721729 0.1266617 -0.24298353 0.0778057 0.09449894 -0.29166 0.09549709
-0.584727 -0.258859 -0.16505128 0.07980787 0.079779275 -0.20678534 0.05120769 0.07801932
-0.44731468 -0.22234413 -0.13577786 0.09932011 -0.23866725 0.08135582 0.071413346 -0.22919284
0.087271586 -0.17060594 0.08834504 -0.14302427 0.08995022 -0.18910599 -0.17367841 0.025209112
-0.26049677 -0.23294863 -0.47488642 0.10558943 0.027917087 0.07137717 -0.2862291 -0.06968643
0.058512215 0.08809584 -0.18506767 -0.16049743 0.079147406 0.08676426 0.06830348 -0.14078557
0.078815676 -0.35529223 -0.20493338 0.07428818 0.101993725 -0.15351485 0.065766476 -0.098039076
-0.21722107 0.09096773 0.05253684 0.07075638 0.052500132 -0.7229964 0.00032064537 0.089369625
-0.17437468 0.104989745 -0.29218602 -0.18082753 0.07307056 0.09967587 -0.28106946 0.043575116
-0.30365127 -0.56034803 0.06259527 0.087406754 0.0032830487 -0.49387676 0.093869716 0.083682135
-0.24411102 0.061883423 -0.13262959 0.06368246 0.10256006 0.08897549 0.05611045 0.064792566
0.060423564 -0.30457985 0.06171969 -0.2111413 -0.12549298 0.060489837 0.09527052 0.0670345
0.107255846 0.05064607 -0.30743015 0.07233838 0.0559885 -0.20694186 0.061872926 -0.16544007
0.0533735 -0.2581432 -0.20572422 0.07104911 0.05717429 -0.16264443 0.07094391 -0.23187663
0.09088947 0.099359214 0.08341035 -0.18752903 -0.3283643 0.08182285 -0.08913627 -0.19099367
0.074558906 0.0534062 0.11154099 0.08723076 -0.43606755 -0.17198236 0.08540352 -0.18085979
0.07912491 -0.17180571 -0.19008574 0.07182071 -0.3097292 0.10617036 0.033190083 -0.311017
0.081946254 0.035391204 0.087857 -0.18411209 0.10561018 0.10595535 -0.18709156 -0.23462392
-0.57109946 0.08273329 0.09854094 0.043646567 0.082739785 0.06257259 0.09353671 0.08265552
-0.31798226 -0.3173996 0.07363191 0.10224195 0.05318617 0.057061724 -0.3279599 -0.16441126
-0.1383266 -0.3733698 0.087819844 -0.25046962 -0.11369765 0.047939956 -0.16558936 0.07803511
0.06918454 -0.51942635 0.09093526 -0.31364077 0.078806095 0.006837093 0.039249204 -0.14168723
0.06636753 0.04566893 -0.20169951 -0.20013799 -0.17040461 0.037480243 0.093444444 0.081105195
0.07073803 -0.26313165 -0.3261742 0.07971445 -0.14737453 0.09508655 -0.18405822 0.08833645
-0.16312538 0.12625764 0.060843047 -0.3607474 0.033825193 -0.21882647 -0.20797049 0.089960925
0.050442588 -0.540675 0.080275945 0.10421835 0.0663051 -0.087928 -0.19431135 -0.26489526
-0.2206073 -0.13525191 0.04960883 -0.1234904 0.08562668 0.08969173 0.0530941 -0.40329817
0.0926819 0.0697501 0.08596098 -0.19320785 0.12827559 0.10331451 0.10277631 0.12087218

color_layer.0.weight f4 [256, 400]
00000000: d3ba 52bd d7f3 dcbc 3910 e4bc 161f 86bd
00000010: 5660 ab3c d77d 2dbc b0c4 09bd 1353 f1b9
00000020: 575f 1d3b c7e0 fbbc de10 b9bb 5eb6 3fbd
00000030: baac 153d 9e19 14bd 0fb1 9a3c cdd4 94bb
00000040: fcdc d53c 4374 b9bc 8da8 3bbd bd71 b1bc
00000050: 7a40 5dbd 2061 debc 9158 c3bc 3b94 89bd
00000060: d16c 033c 1176 78bc e90b 103c d064 453c
00000070: d53e 97bc 11dc a1bb aa7f 643c fdd3 5fbd
00000080: ce60 4b3c 0f53 303c 31cc 90bb dfca 38bd
00000090: 2bca 17bd fbc8 12bc 7778 3ebd f0b9 fe3c
000000a0: 251e 29bd 8075 03bc ca48 22bd c28a a63c
000000b0: afa3 38bd 4b67 1cbd 40b9 02bd 9846 e6bc
000000c0: 9ddd 17bd 0868 42bd 0fe9 1fbd f12f 48bc
000000d0: 91d2 fc3c 2a7c 03ba c59e 14bd a97c ed3c
000000e0: 9dd7 9eb7 1eb5 b5bb 7c39 64bd 742d dc3c
000000f0: 0ed2 4bbd 40a0 c33c ee40 6abc 85fd b6bc
00000100: 2b3c 0e3d e6a2 3b3c 4eb3 1bbd 2383 083b
00000110: d183 40bb 7f3e 0fbd 6184 9a3c b063 68bc
00000120: 06d0 1dbc 1e7a 59bd 8c88 f3bc dd84 433c
00000130: 8de4 b6bb a258 0abd 8a93 5dbd 5b06 52bd
00000140: 4dbe 003d 098f c33a 9c15 fabc db0c df3c
00000150: 5e22 0f3d be24 af3c 4bd9 48bd a937 88bc
00000160: c213 87bc 9330 10bc 268d 3ebd 7920 c9bc
00000170: c716 63bd fb17 df3b 6b9b 9abc 720d 303c
00000180: 36da 10bd 693a 043c 10de e43c 54aa 323d
00000190: e4f7 813b 7612 fb3c e1bb 37bd 735a 9bbc
000001a0: c67f 0e3c b3dc 0d3d 625e f7bc be17 1fbd
000001b0: 91db ffbc b6b3 0bbd 2c50 783c d98b 67bd
000001c0: 90ae 6ebd 4de7 02bc 7dd8 9e3b ab0a 1f3c
000001d0: a93a 183d ee3e 5abd b868 08bc f154 0dbc
000001e0: 6e28 11bd a32c 30bd 736c 0ebd 3299 d5bb
000001f0: 2a3d 12bd cc9a 913c 01e3 37bd 7872 a33c
00000200: da91 a13c bbb2 52bd e35e 99bc c6ac 15bc
00000210: a683 033d a2b6 1dbd cb90 af3c c280 103c
00000220: d758 053d ac82 ecbc e492 073d 2836 863b
00000230: 5745 a7bc 6601 0abc 224d 363c c6f7 fe3c
00000240: 3a14 bc3c 2810 ddbc c053 873c 5aa7 3fbb
00000250: 258a 023b 125a e63c 32ee 023d a6a8 efbc
00000260: b9d5 6cbc 8f6c a1bc a440 a93c a825 d9bb
00000270: 10b6 9fbc bff6 7dbc 7e9f e33c 72d9 b8b8
00000280: 5f34 b4bc 19f4 cf3c a86a d6bc 0020 51bd
00000290: bda1 53bd 8ac5 2f39 f0bd 6f3b 6a6b db3c
000002a0: 906a 50bd a35c 0cbd ed86 ce3c 8b25 c9bc
000002b0: 2938 60bd 245d ddbc 85f9 a2bc 23a9 fcbc
000002c0: 3c7b d2bc cc34 2abd 4a7e 61bd dff7 c4bb
000002d0: 4a97 a63c a2c8 b3bc 3ba9 403c fb5f 2bbc
000002e0: 0699 4abd a5a0 b3bc d292 d93c d661 d4bb
000002f0: 0117 9739 fa30 17bd 02cf af3c efd7 733b
00000300: 30b9 2dbc 4226 363c 7f55 52bd 8161 073d
00000310: f594 5c3c 7cdd 633b 5f2d e5bc e4aa fcbc
00000320: 2740 aabc b299 16bb c1b7 cebc d17a 82bc
00000330: 4c1f 9c3c 136d 3fbd 2953 c0bc 2d86 05bd
00000340: f87e 13bc f664 77bb fee0 073d 95fa aa3b
00000350: 096d aebd 2b0d 843c 848f 0dbb 405d a43a
00000360: 8061 d03c 6e6e 92bc bd19 1f3c f9da 8e3c
00000370: ab71 26bd b7db 46bd ce45 75bd 055d 153c
00000380: 8a60 46bd 84d8 403c 8fd2 58bd 539a ca3c
00000390: 7316 37bb 0352 15bd e4a9 a83b 0e56 debc
000003a0: 3030 93bc c139 1d3d 696f 23bd 86b1 21bd
000003b0: d667 063d 606c 113d 820a 4cbd 408e 5ebd
000003c0: 38e6 47bc 3a9e 51bd f2ee ea3c d1bb 1cbc
000003d0: 1d34 aabb 93c5 073d c4a6 8d3c 911c 1ebd
000003e0: f72a 53bd 5c7c 1fbc bcf8 aabc 021a 103c
000003f0: 93c8 dbbc 83fa ecbc baea a0bc ec65 f13c
-0.0514477 -0.02697174 -0.027839767 -0.06548898 0.02091996 -0.010589085 -0.03363484 -0.00046028997
0.0024013126 -0.03074683 -0.0056477627 -0.04680478 0.036541678 -0.036157243 0.018883256 -0.0045419694
0.02610635 -0.022638446 -0.04581504 -0.02166068 -0.054016568 -0.027145922 -0.023845943 -0.06717726
0.008021549 -0.015164868 0.008791902 0.012047961 -0.018462578 -0.004939564 0.013946453 -0.054645527
0.012413217 0.01076199 -0.0044188728 -0.045115348 -0.037058037 -0.00895905 -0.046501603 0.031094521
-0.041288514 -0.00802362 -0.0396202 0.020329837 -0.045077976 -0.038184445 -0.03191495 -0.028109834
-0.03707658 -0.047462493 -0.03904062 -0.012218461 0.030862125 -0.00050157553 -0.036284227 0.028990107
-1.893547e-05 -0.0055452725 -0.055718884 0.026877142 -0.04976087 0.023880124 -0.014297707 -0.022337684
0.03472535 0.011452412 -0.038012795 0.0020830117 -0.0029375444 -0.03497171 0.018861951 -0.014183924
-0.009632116 -0.053094976 -0.029728197 0.011933533 -0.0055814446 -0.033775933 -0.054095782 -0.051275592
0.031431485 0.0014919947 -0.030527882 0.02722781 0.034944884 0.021379825 -0.04903535 -0.016628103
-0.016488913 -0.0088006435 -0.04652133 -0.024551617 -0.055441644 0.0068082786 -0.018872937 0.010745393
-0.035364352 0.008070567 0.027937919 0.04361947 0.0039663184 0.030648451 -0.04485691 -0.018964028
0.008697456 0.034634303 -0.030196372 -0.038841 -0.031232627 -0.034106933 0.015155833 -0.056529853
-0.058271945 -0.007989717 0.0048475848 0.009707133 0.037165318 -0.05328267 -0.008325748 -0.008626209
-0.035438947 -0.04301132 -0.034771394 -0.0065185064 -0.03570286 0.017774008 -0.044894222 0.019952044
0.019722868 -0.051439982 -0.018722003 -0.009135431 0.03210797 -0.03850425 0.021431347 0.008819761
0.032555427 -0.028870903 0.03309907 0.0040958114 -0.020418806 -0.008423185 0.011126788 0.031124007
0.022958864 -0.026985243 0.016519427 -0.0029244036 0.0019918766 0.02811912 0.031965442 -0.029255223
-0.014455252 -0.019705085 0.020660706 -0.0066268034 -0.019495994 -0.015500723 0.027786013 -8.814306e-05
-0.021997629 0.02538495 -0.026173905 -0.05105591 -0.051667918 0.0001676289 0.0036581717 0.026784617
-0.050882876 -0.034268033 0.025210822 -0.024554035 -0.05474106 -0.027021952 -0.01989437 -0.03084237
-0.025693528 -0.041554257 -0.05505208 -0.006010994 0.020335812 -0.021946255 0.011759098 -0.010459895
-0.04946234 -0.021927187 0.026559267 -0.0064813895 0.00028818104 -0.036911942 0.021461014 0.0037207564
-0.010603234 0.01111752 -0.051351067 0.03305197 0.0134632485 0.0034769466 -0.027975736 -0.030843206
-0.020782543 -0.0022979793 -0.025234105 -0.015927704 0.019057892 -0.04673488 -0.023477154 -0.032598663
-0.00900244 -0.0037749386 0.033173554 0.00521786 -0.085168906 0.01611956 -0.0021600435 0.0012539998
0.025437117 -0.017874923 0.009710726 0.017438399 -0.040635746 -0.04854938 -0.059881024 0.009116416
-0.04843191 0.011770371 -0.05293518 0.02473179 -0.0027936965 -0.036455166 0.0051472057 -0.027140643
-0.017967314 0.038385157 -0.03990117 -0.03947594 0.03281387 0.035503745 -0.04981471 -0.05433488
-0.0122008845 -0.051176287 0.028678391 -0.009566263 -0.0051942007 0.033147406 0.017291434 -0.03860146
-0.051554646 -0.009734239 -0.020870559 0.008795263 -0.02682904 -0.028928047 -0.019643176 0.029467545

color_layer.0.bias f4 [256]
00000000: 313c d3bc 7fd5 153d 21ea 233d 0c41 4cbd
00000010: b043 be3b 42cb 05bd 910b 1a3c 1612 803d
00000020: 23b9 18bd 7cfc b7bc 6c6b acbc 3f0c 47bb
00000030: 4b9e 5dbd 80ca 453c 4e53 3b3d f11c ab3c
00000040: 53eb 62bb 792a ba3c f15c 1b3d 2589 5c3d
00000050: a61c 703d 7943 c2bc 961a 3fbc fa9f a63d
00000060: 8608 f5ba d10a a83b 0056 e73c 305b 22bd
00000070: 9eaa 51bd a3d7 0f3d 89e3 703d 4883 1f3d
00000080: 455f 6fbc c6ea a83c 7fe2 08bc 25a7 aabc
00000090: 090c 37bd 7a16 0c3d 30d3 1abd 07e3 0ebd
000000a0: ae97 54bd 520a 263c 0622 943b 08a7 9b3c
000000b0: c02f e93b 2c7f f5bc d81e ee3c b6e7 20bd
000000c0: acfc 8d3c 0a6a 69bc ee2b 063d 5ef6 e03c
000000d0: 4ab8 183d 70d1 973b 81a5 ebbb ee65 8c3c
000000e0: 8013 73bd 8a69 56bd 97cf 0c3d f5a0 93bd
000000f0: 78b0 5bbd 5027 edbc 2d7d 303d fea9 8a3d
00000100: 541c c13c ceae 1bbd 9f1c 073d cfa8 04bc
00000110: 23e8 9b3c 7e87 59bd 86bf 4e3d cdf8 7abc
00000120: f9ce c6bc bb9a 833c b863 00bd b7a7 fa3a
00000130: 5c51 2fbc 3306 233b 2043 5abd 8279 65bc
00000140: 75b2 7ebc f91f c13c ca54 a13c 971f 6fbc
00000150: e43b 883c 3b9e 1dbd 1610 d0bb 51fd 9dbd
00000160: 2668 f63c ab71 cdbc 22ac d7bb d63e 1abd
00000170: 1cad 0e3a 9ca9 3e3d 3421 243d 1ac1 fa3a
00000180: 3cb0 31bd 0c11 38bc 0ef7 8bbc 23f4 34bd
00000190: c6db 55bd 4fda 31bd 4b2d 283a 4e21 6d3d
000001a0: 9e90 1a3c 4ecd 6a3d 0fc9 be3c 8aab 8cbc
000001b0: db69 e13b e7cf 223c 3c51 10bd e31b cd3b
000001c0: 8c1f a4bc 0ad7 f93c 5e0b 0b3c 5abb 2e3c
000001d0: 155f 19bd 1d60 21bb d655 8bbb c904 edbc
000001e0: 80e0 d7bc a9de 193c 450b 413d 2956 33bb
000001f0: 492e d1bb 2d73 903c 9abe 4bbc ec5b e2b9
00000200: 9dae 5cbd 7678 3a3d 15e2 003d ce28 2a3d
00000210: 6afc 703c 310e 21bd c217 2fbd 3244 fcbb
00000220: 385e cc3c 5ea8 1cbd e9e4 09bc 2a95 863c
00000230: 41c6 4a3c 1130 d13c 4b82 94bb 2dfd 833d
00000240: 33e1 2b3d 33bc b43c c3b2 c03b 38b1 9b3d
00000250: a294 433c 1148 30bd b040 e4bc 32d1 223d
00000260: 1c18 4f3c a82f 293c 8405 b23c 73b4 053c
00000270: 6610 83bb 8e38 62bc 5369 10bb cda2 40bc
00000280: 58f8 863d 02b3 2f3d 6630 3dbd 5fc0 29bc
00000290: ec54 74bd d185 80bd 1097 a1bc 8776 553c
000002a0: 7a9e f6bc e4af abbc ed57 a73d adcb 92bb
000002b0: 1625 06bc 103a 893b 39cc 26bb fe37 23bd
000002c0: 88cf a53d 2bcf b6bc e286 76bd 3938 1bbb
000002d0: 5acb 973c 3ff1 933c b23d a039 0824 c5bc
000002e0: d1c5 4abd 90c4 b13b c22e 33bd 6804 0cbd
000002f0: c427 c43a 3a58 d9bb e14c 1c3d bc80 33bd
00000300: 21f6 45bd 6035 5ebc f65f 88bd 6bbc 053d
00000310: 42f6 b7bc 0c8a ae3d ae49 5c3d 4871 863c
00000320: 3884 1c3d d9c4 ecbc b5d9 9f3c ed61 66bc
00000330: f3cb 10bd 11ec 253d 53ef 81bc 4a04 083d
00000340: 1a1a fe3c ccca b0bd e164 8b3d 11fe 8f3c
00000350: 2475 e03c ccf8 943d e714 05bd 990b 0bbc
00000360: baf7 513d 2f47 083c 87c0 953c 3cb6 0cbc
00000370: 7e0e 64bd 7d8e 06bd fc39 07bc 39b1 bf3c
00000380: b546 b5bc d1ed 853b 8544 1bbd a153 96bc
00000390: 6ee7 c03b 8bac 0cbc 60a4 98bc 39fe 123c
000003a0: 49ce 93bb ce69 b4bc 5000 1b3c 5477 753c
000003b0: ab7b 55bd 8ac7 04bb 12fb c13c f298 2d3d
000003c0: 9762 48bd d3a8 e3bb 93b6 f73c 199c 123d
000003d0: ce60 143c 49f5 a2bc 5084 783c 5026 d7bb
000003e0: 5f18 2cbd f714 9b3b 1669 2b3c dca2 4f3d
000003f0: 20fe 12bd 6037 b33c 65ed 8e3c 8dbe f3bb
-0.025785537 0.03658056 0.040018205 -0.04986672 0.005806409 -0.032664545 0.009402172 0.062534496
-0.037285935 -0.022459261 -0.021047316 -0.003037229 -0.054106038 0.012072206 0.045733742 0.020887824
-0.0034625127 0.02272533 0.037930433 0.05384173 0.05862107 -0.023713814 -0.011664053 0.08135982
-0.0018694557 0.0051282425 0.02823925 -0.039637744 -0.051188104 0.035117757 0.058810744 0.03894356
-0.014610116 0.020619761 -0.008354782 -0.020831654 -0.044689212 0.034201123 -0.03779906 -0.03488448
-0.051902466 0.0101342965 0.0045206575 0.019000545 0.007116288 -0.029967867 0.029067442 -0.039283477
0.017332397 -0.014246473 0.03275674 0.027461227 0.037285127 0.004633121 -0.0071913605 0.017138448
-0.05934477 -0.052346744 0.03437766 -0.072084345 -0.05363509 -0.02894941 0.043088127 0.06770705
0.023573078 -0.038008504 0.03298628 -0.008096888 0.01903159 -0.05310773 0.05047562 -0.015318108
-0.024268614 0.016064992 -0.0313451 0.0019123469 -0.01070055 0.0024875521 -0.05328667 -0.0140060205
-0.015545477 0.023574816 0.01969375 -0.014594934 0.01663012 -0.03848098 -0.006349574 -0.07714332
0.030078959 -0.025078615 -0.006581799 -0.03765758 0.00054426654 0.04654847 0.040070727 0.0019131035
-0.04338096 -0.011234533 -0.017085578 -0.04417814 -0.052211545 -0.043421086 0.00064154406 0.05789309
0.0094338935 0.0573247 0.023289232 -0.01717164 0.006879074 0.009937263 -0.03523372 0.006259428
-0.020034574 0.030498046 0.008486597 0.010664785 -0.037444193 -0.0024623938 -0.004252176 -0.028932946
-0.026352167 0.009391465 0.047129888 -0.0027364588 -0.0063836914 0.017633045 -0.01243558 -0.00043174566
-0.05387746 0.045525037 0.03146561 0.04154282 0.014708618 -0.039320175 -0.042747267 -0.007698559
0.02494727 -0.038246505 -0.008416393 0.016428549 0.012376369 0.025535615 -0.0045321337 0.06444774
0.041962814 0.022062397 0.005880685 0.07602161 0.011937292 -0.043037478 -0.027862877 0.039750285
0.0126400255 0.010326304 0.021731146 0.008160698 -0.0039997576 -0.013807429 -0.0022035434 -0.011757565
0.065903366 0.042895325 -0.046188734 -0.010360806 -0.0596513 -0.062755235 -0.019725353 0.013028747
-0.030104864 -0.020957895 0.081710674 -0.0044798465 -0.008187553 0.00418783 -0.0025451316 -0.03984832
0.08096224 -0.022315582 -0.060187228 -0.0023684634 0.018529583 0.018059371 0.00030563545 -0.024065033
-0.04950506 0.0054250434 -0.043745764 -0.03418389 0.0014965464 -0.006632832 0.038159255 -0.043823943
-0.04833043 -0.01356253 -0.06658928 0.032650393 -0.022456292 0.08522424 0.053781204 0.016411439
0.03821203 -0.028902458 0.01951299 -0.014061433 -0.03535075 0.040508334 -0.015861189 0.033207215
0.031018306 -0.086324304 0.068063505 0.017577203 0.027399607 0.07274017 -0.032490637 -0.008486652
0.05126164 0.008317753 0.01828028 -0.00858837 -0.055677883 -0.03285073 -0.008253571 0.023399936
-0.022128442 0.004087188 -0.037907142 -0.018350424 0.0058869636 -0.008586059 -0.018633068 0.008971744
-0.004510675 -0.022023108 0.009460524 0.014982063 -0.052119892 -0.0020260536 0.02367929 0.04238219
-0.048922148 -0.0069476156 0.030238425 0.035793398 0.009056283 -0.019892352 0.0151682645 -0.0065658465
-0.04201543 0.004732724 0.010462066 0.050692424 -0.035886884 0.02187699 0.017447183 -0.007438487
