best_models/rocket_mesh_mip_nerf/rocket_mesh_mip_nerf_best.pt (torch, 745347 bytes, 11 tensors)

pos_encoding.frequencies f4 [10]
3.1415927 6.2831855 12.566371 25.132742 50.265484 100.53097 201.06194 402.12387
804.24774 1608.4955
00000000: db0f 4940 db0f c940 db0f 4941 db0f c941
00000010: db0f 4942 db0f c942 db0f 4943 db0f c943
00000020: db0f 4944 db0f c944

dir_encoding.frequencies f4 [24]
0.1 0.2 0.4 0.8 1.6 3.2 6.4 12.8
25.6 51.2 102.4 204.8 409.6 819.2 1638.4 3276.8
6553.6 13107.2 26214.4 52428.8 104857.6 209715.2 419430.4 838860.8
00000000: cdcc cc3d cdcc 4c3e cdcc cc3e cdcc 4c3f
00000010: cdcc cc3f cdcc 4c40 cdcc cc40 cdcc 4c41
00000020: cdcc cc41 cdcc 4c42 cdcc cc42 cdcc 4c43
00000030: cdcc cc43 cdcc 4c44 cdcc cc44 cdcc 4c45
00000040: cdcc cc45 cdcc 4c46 cdcc cc46 cdcc 4c47
00000050: cdcc cc47 cdcc 4c48 cdcc cc48 cdcc 4c49

mlp.0.weight f4 [256, 60]
0.010704112 0.022667812 -0.034811623 0.12370685 -0.05992899 0.16422065 -0.080141135 0.110637866
0.10367078 -0.0135916425 -0.17872931 0.15306188 0.043141637 0.007294995 0.20828189 0.078123376
-0.12221462 0.050393436 0.03518327 -0.095076635 -0.2090174 0.010037896 -0.03282632 -0.111078374
-0.12784183 -0.20115726 0.21340449 -0.29183224 0.025811445 0.013860369 0.0016636653 0.041020546
0.010292 -0.052148893 0.059531372 -0.022806888 0.05775003 -0.04456188 0.01627705 -0.0038368416
-0.034422204 0.027369203 -0.0046052258 -0.01468585 -0.0064208293 -0.03777927 0.04923314 0.016332304
0.02715183 0.074195065 -0.03751306 -0.04466153 0.0074112583 0.0039780643 -0.0964182 0.031620394
0.051636793 0.05925718 0.13932185 0.086833954 0.03374318 0.020219434 0.001822634 0.19441302
-0.13046865 0.08209867 -0.07965527 0.06776382 0.011569649 0.14470495 -0.02612824 0.014909936
0.060062695 -0.013999423 -0.10737197 -0.06645091 -0.13226375 -0.10494336 0.06956862 0.042405438
-0.018845383 0.076705344 0.0004257389 -0.075112715 0.031887505 -0.007983926 0.037869595 -0.10066551
0.10116232 0.071561344 -0.027672058 0.009185133 -0.14697203 0.17090668 0.101123214 0.037709516
-0.022605946 0.006312031 -0.06592697 0.068738535 0.08559285 -0.08912014 -0.057090025 -0.068637624
0.1418551 0.015899679 0.026076872 -0.027254341 0.0014155799 0.03723329 -0.045399416 0.075824074
0.004366067 0.011762068 -0.09307188 0.026503565 -0.14613809 0.13189706 0.12598582 -0.079166576
-0.12513219 0.08161724 -0.16938576 0.011616355 -0.095592014 0.029199187 0.060414582 -0.12829538
-0.08140984 -0.044790033 0.022175478 -0.11404758 -0.020083558 -0.0853103 0.078145415 -0.043140415
0.17309313 -0.033582177 -0.0033738457 0.15413295 0.060438246 -0.18488361 0.075432606 0.045152072
0.034808464 0.10873743 -0.0037779287 -0.019742496 0.05394594 -0.0055924132 0.085485555 0.1973767
-0.2246808 0.09126138 -0.13435633 0.10892995 0.15624729 0.12267312 -0.015324121 -0.2079558
0.24244428 -0.21965113 -0.08000665 0.19246355 -0.06690031 0.04153549 0.031237207 -0.10340272
0.035332993 -0.06204175 -0.03640667 -0.061634455 -0.16089012 -0.15774657 0.13421227 0.08085101
-0.019853173 0.021127049 0.14104472 0.021371018 -0.04469815 -0.13589966 -0.062465843 -0.16119382
-0.07257995 -0.116334125 0.10166147 -0.07992519 0.22824033 0.045456015 -0.0024143325 0.049485784
0.026019419 0.13269809 0.03349931 -0.19100672 -0.009926139 0.1327904 -0.04219834 0.08879184
0.14432086 0.09557509 -0.039220966 0.10706142 0.05313839 -0.05886376 0.054144412 -0.13595006
0.11151529 0.064172715 -0.15175498 0.28515247 -0.39051655 -0.32535446 -0.48607257 -0.29667467
-0.111708805 0.027236888 0.22058155 0.14207238 0.09927578 -0.15651421 0.085802816 -0.2951172
-0.068831064 0.10355517 -0.12167714 -0.16595839 0.12098567 0.016914638 -0.047763538 0.03980612
0.060382366 -0.13132025 0.18430169 0.11763647 0.03518761 0.112008005 -0.06314236 -0.05286033
-0.067072354 -0.0682447 0.10625451 0.022897776 -0.047554173 0.05071939 0.06782249 0.08569958
-0.06518183 0.10636875 -0.07158507 0.01687662 -0.047838338 0.07122507 -0.0843999 -0.17101867
00000000: 4d60 2f3c d9b1 b93c a296 0ebd 045a fd3d
00000010: 1a78 75bd 7529 283e 0921 a4bd 1b96 e23d
00000020: 5951 d43d 7baf 5ebc d104 37be 41bc 1c3e
00000030: 49b5 303d da0a ef3b d947 553e 26ff 9f3d
00000040: a94b fabd 5969 4e3d 551c 103d 8ab7 c2bd
00000050: a808 56be fd75 243c e474 06bd 0f7d e3bd
00000060: f8e8 02be 2bfc 4dbe b586 5a3e 096b 95be
00000070: 8672 d33c 9a16 633c 580f da3a 2905 283d
00000080: c79f 283c 149a 55bd 2bd7 733d 83d5 babc
00000090: 4c8b 6c3d 8586 36bd 7357 853c 8573 7bbb
000000a0: 4cfe 0cbd 6135 e03c 6fe7 96bb eb9c 70bc
000000b0: d265 d2bb 70be 1abd b0a8 493d 53cb 853c
000000c0: 846d de3c 95f3 973d 4ba7 19bd 02ef 36bd
000000d0: 24da f23b 6c5a 823b e876 c5bd 6384 013d
000000e0: 1a81 533d a8b7 723d 63aa 0e3e 00d6 b13d
000000f0: 4a36 0a3d 3aa3 a53c 73e5 ee3a 3514 473e
00000100: 9399 05be 5923 a83d 4d22 a3bd c2c7 8a3d
00000110: a08e 3d3c 892d 143e e40a d6bc ce48 743c
00000120: 4d04 763d d65d 65bc d6e5 dbbd 6a17 88bd
00000130: 2670 07be 8bec d6bd fe79 8e3d 53b1 2d3d
00000140: a261 9abc b117 9d3d b535 df39 b2d4 99bd
00000150: 799c 023d 03cf 02bc 261d 1b3d b829 cebd
00000160: 312e cf3d c18e 923d 83b0 e2bc 3d7d 163c
00000170: d67f 16be 2902 2f3e b019 cf3d 4b75 1a3d
00000180: 1b30 b9bc 27d5 ce3b b804 87bd cac6 8c3d
00000190: 4e4b af3d 9f84 b6bd 3bd7 69bd e291 8cbd
000001a0: 7742 113e 0b40 823c 2a9f d53c 7f44 dfbc
000001b0: fb8a b93a ef81 183d bdf4 39bd a749 9b3d
000001c0: 3911 8f3b b0b5 403c 789c bebd 011e d93c
000001d0: 39a5 15be 0610 073e 6d02 013e 1622 a2bd
000001e0: a722 00be f126 a73d 7673 2dbe 8652 3e3c
000001f0: bfc5 c3bd 2233 ef3c 4875 773d dd5f 03be
00000200: 34ba a6bd c175 37bd 59a9 b53c c791 e9bd
00000210: 4686 a4bc 2bb7 aebd b40a a03d 01b4 30bd
00000220: 533f 313e 778d 09bd bd1b 5dbb 07d5 1d3e
00000230: 188e 773d 2152 3dbe 697c 9a3d 61f1 383d
00000240: 5293 0e3d bbb1 de3d 2097 77bb 04bb a1bc
00000250: 6bf6 5c3d 9040 b7bb 0d13 af3d 1e1d 4a3e
00000260: b912 66be 3fe7 ba3d b594 09be aa16 df3d
00000270: 4aff 1f3e 0b3c fb3d 0612 7bbc 5ef2 54be
00000280: 5043 783e 3aec 60be 87da a3bd 2a15 453e
00000290: 0803 89bd 1e21 2a3d 2ce5 ff3c cec4 d3bd
000002a0: 54b9 103d 7d1f 7ebd 291f 15bd 6974 7cbd
000002b0: 61c0 24be 5188 21be f16e 093e 3795 a53d
000002c0: 1fa3 a2bc a212 ad3c 076e 103e 4612 af3c
000002d0: 6815 37bd 4829 0bbe 2fdc 7fbd fe0f 25be
000002e0: cca4 94bd 9640 eebd e433 d03d d1af a3bd
000002f0: d5b7 693e 1630 3a3d c739 1ebb 9bb1 4a3d
00000300: ad26 d53c 02e2 073e 9336 093d 4497 43be
00000310: 3fa1 22bc 35fa 073e 2bd8 2cbd 7fd8 b53d
00000320: d9c8 133e dfbc c33d 2aa6 20bd 0543 db3d
00000330: a4a7 593d 201b 71bd 88c6 5d3d 7e36 0bbe
00000340: 2162 e43d fc6c 833d a865 1bbe 81ff 913e
00000350: c9f1 c7be dc94 a6be 81de f8be bee5 97be
00000360: 96c7 e4bd e51f df3c 21e0 613e 6c7b 113e
00000370: 1a51 cb3d 4345 20be 63b9 af3d 9a19 97be
00000380: 4df7 8cbd bc14 d43d dd31 f9bd fff0 29be
00000390: 56c7 f73d 9190 8a3c b3a3 43bd be0b 233d
000003a0: 8053 773d d178 06be 95b9 3c3e 64eb f03d
000003b0: e220 103d 7464 e53d c850 81bd 1384 58bd
000003c0: 3b5d 89bd e1c3 8bbd f79b d93d 1e94 bb3c
000003d0: 2ac8 42bd 23bf 4f3d 85e6 8a3d 4383 af3d
000003e0: 0d7e 85bd dcd7 d93d 319b 92bd d640 8a3c
000003f0: 22f2 43bd 73de 913d dbd9 acbd 851f 2fbe

mlp.0.bias f4 [256]
-0.09785445 0.088297054 -0.057952967 0.062358964 -0.05554796 0.03705081 0.16323619 0.069401726
0.0898085 -0.036531266 -0.1612787 -0.0948067 -0.1395115 0.13524435 -0.036033496 -0.03459579
-0.07358327 -0.005405528 -0.15367459 0.12013536 0.16094634 -0.13129976 0.11704506 0.10949534
-0.028931672 -0.06783357 0.15680966 0.04321218 0.10056104 0.086019084 -0.10038913 0.18853608
0.033031706 -0.112608574 -0.1702156 0.06458351 -0.1338687 -0.20837481 0.15628077 0.046245866
0.007976329 -0.01152664 -0.1225547 -0.053577885 0.09845799 -0.1406147 0.16911511 -0.010869994
-0.1325225 -0.15715948 0.09492796 0.06431978 -0.15042444 0.11946105 -0.029694656 0.12527631
-0.078626044 -0.1305287 -0.0316101 -0.031545773 -0.099341854 0.049995597 -0.0905876 -0.11187583
-0.106433116 0.0056629013 0.053501617 0.09019796 0.0048045292 -0.021283714 0.05035843 0.025792545
0.010026515 0.10697835 -0.13239901 -0.005518167 0.022689683 -0.088857986 0.09661632 0.012250441
0.08541369 -0.08609738 0.030789368 -0.09895052 0.048457026 -0.1349701 0.15096639 -0.09135289
-0.09070806 -0.10135811 0.10197787 0.108824156 0.034508973 -0.0008037256 -0.10152765 -0.13313308
-0.09735137 0.067375794 -0.022245537 0.16823377 -0.119690314 -0.031592768 -0.18850267 0.050618738
0.055853248 -0.13294014 0.07015285 -0.13977733 -0.12892304 0.10559593 0.009989591 -0.12067423
0.061875943 -0.034880914 -0.033536527 0.082015246 0.11164306 -0.119638935 0.008293903 -0.077745095
-0.06923275 0.019396659 -0.09785772 0.04744041 0.080526866 -0.035269983 0.025105365 -0.05503677
-0.041030686 -0.04284317 0.10035447 -0.05168051 -0.036603626 -0.0029756043 -0.021944903 -0.062291756
-0.09547927 0.10970714 -0.020237181 -0.19874536 -0.1382043 0.021336244 0.0056131966 0.06749117
0.07252137 0.04546912 -0.014977912 -0.028424336 -0.05132036 0.020877305 0.08725599 0.14928402
0.033658657 0.026481193 0.035894316 -0.10485971 -0.09837001 0.12296713 0.090302885 0.027797831
0.06132562 -0.050358497 -0.019680427 0.046604857 0.031167416 -0.06798784 -0.10506499 -0.016589766
0.0447718 0.023184309 0.049614873 0.025115918 -0.10684513 -0.018035611 0.03849328 -0.0099794315
-0.019491158 0.07374084 -0.0032941347 -0.004943149 0.10540559 -0.12919615 0.15131834 0.07794866
-0.13088085 -0.1686569 0.044526353 0.123267576 -0.12608236 -0.052529246 0.050032694 0.10249161
-0.103954054 -0.091248356 0.033570956 0.09420268 0.06456791 -0.05785616 -0.006475415 -0.05882148
-0.094426736 0.08470032 0.09240978 -0.0070186765 0.04448205 -0.15208445 -0.081622876 -0.04142764
0.02519766 -0.018202579 0.07317953 0.0036858667 -0.07275254 0.09356057 0.12731367 -0.006759703
0.01692018 -0.095640905 0.026479784 0.12224516 -0.015458717 -0.06376824 -0.03843448 -0.06041382
0.107085295 -0.040420126 0.06957863 -0.1028564 0.12740375 0.0057685385 -0.011249501 -0.07312227
-0.04224137 0.06845907 0.02842235 -0.075457245 -0.033954218 -0.019856917 -0.027680311 0.045048915
-0.07609547 0.12780316 -0.05120888 0.08378436 -0.11429285 0.058486212 -0.109778896 0.096132085
0.10062415 -0.07480915 0.034492105 -0.03429187 0.13569243 0.03585458 -0.07805979 -0.06952597
00000000: ea67 c8bd 16d5 b43d 1760 6dbd 1d6c 7f3d
00000010: 4286 63bd 97c2 173d 6327 273e 7e22 8e3d
00000020: 85ed b73d cfa1 15bd 3e26 25be 042a c2bd
00000030: 1adc 0ebe 7f7d 0a3e dc97 13bd 51b4 0dbd
00000040: d3b2 96bd db20 b1bb df5c 1dbe 8709 f63d
00000050: 1ecf 243e 7273 06be 52b5 ef3d 183f e03d
00000060: 1d02 edbc 54ec 8abd b692 203e 41ff 303d
00000070: f2f2 cd3d c62a b03d d198 cdbd 9a0f 413e
00000080: 414c 073d 539f e6bd 004d 2ebe 5c44 843d
00000090: e014 09be 3560 55be 1108 203e 4e6c 3d3d
000000a0: 26af 023c 3bda 3cbc f5fd fabd 7c74 5bbd
000000b0: 58a4 c93d 4dfd 0fbe 832c 2d3e 0f18 32bc
000000c0: fab3 07be 6aee 20be 9769 c23d 17ba 833d
000000d0: dd08 1abe ffa7 f43d 3542 f3bc 6f48 003e
000000e0: b106 a1bd 51a9 05be 9879 01bd 2436 01bd
000000f0: be73 cbbd 2fc8 4c3d fe85 b9bd 281f e5bd
00000100: 9bf9 d9bd dc8f b93b 8324 5b3d b5b9 b83d
00000110: 506f 9d3b 2f5b aebc a444 4e3d e34a d33c
00000120: 4146 243c 7717 db3d 9b93 07be bdd1 b4bb
00000130: b7df b93c 2dfb b5bd c7de c53d 13b6 483c
00000140: 5fed ae3d d353 b0bd fc39 fc3c 92a6 cabd
00000150: e07a 463d 9a35 0abe ef96 1a3e 3917 bbbd
00000160: 26c5 b9bd d794 cfbd c6d9 d03d 33df de3d
00000170: 4859 0d3d 1db1 52ba bbed cfbd 0a54 08be
00000180: 2860 c7bd 52fc 893d 463c b6bc 7945 2c3e
00000190: 3220 f5bd 6b67 01bd d806 41be 9855 4f3d
000001a0: 60c6 643d 7621 08be 4cac 8f3d ca21 0fbe
000001b0: 6704 04be ae42 d83d 62ab 233c 0d24 f7bd
000001c0: a171 7d3d 4adf 0ebd 995d 09bd 9cf7 a73d
000001d0: 1ea5 e43d 4205 f5bd 27e3 073c d238 9fbd
000001e0: e6c9 8dbd bee5 9e3c a169 c8bd e050 423d
000001f0: 45eb a43d 4277 10bd c4a9 cd3c 3c6e 61bd
00000200: cb0f 28bd 527c 2fbd a586 cd3d f1ae 53bd
00000210: afed 15bd 5b02 43bb ccc5 b3bc a425 7fbd
00000220: a38a c3bd 23ae e03d 72c8 a5bc e783 4bbe
00000230: 6e85 0dbe 59c9 ae3c e8ee b73b cf38 8a3d
00000240: 1686 943d d43d 3a3d eb65 75bc 27da e8bc
00000250: 4c35 52bd e206 ab3c 45b3 b23d e9dd 183e
00000260: a9dd 093d 16ef d83c eb05 133d b0c0 d6bd
00000270: 3776 c9bd 31d6 fb3d b8f0 b83d 47b8 e33c
00000280: 9330 7b3d b644 4ebd d938 a1bc bce4 3e3d
00000290: cf52 ff3c 353d 8bbd 502c d7bd 43e7 87bc
000002a0: a362 373d 05ed bd3c f738 4b3d e6bf cd3c
000002b0: 9fd1 dabd 6bbf 93bc 21ab 1d3d c580 23bc
000002c0: ecab 9fbc 7005 973d 69e2 57bb 24fa a1bb
000002d0: e3de d73d ff4b 04be 32f3 1a3e 8ca3 9f3d
000002e0: a105 06be 65b4 2cbe 4461 363d b673 fc3d
000002f0: bc1b 01be e828 57bd 15ef 4c3d 1fe7 d13d
00000300: dde5 d4bd 6be0 babd b381 093d 56ed c03d
00000310: 2e3c 843d 95fa 6cbd b82f d4bb cbee 70bd
00000320: ce62 c1bd 5d77 ad3d 5741 bd3d edfc e5bb
00000330: cf32 363d 07bc 1bbe e529 a7bd 07b0 29bd
00000340: 536b ce3c 931d 95bc 26df 953d 958e 713b
00000350: 49ff 94bd af9c bf3d 845e 023e 8080 ddbb
00000360: 309c 8a3c 61df c3bd 22ec d83c ac5b fa3d
00000370: 8f46 7dbc ec98 82bd 796d 1dbd 7b74 77bd
00000380: 894f db3d 938f 25bd 3e7f 8e3d 60a6 d2bd
00000390: 2176 023e 0206 bd3b d44f 38bc 21c1 95bd
000003a0: 4905 2dbd 4534 8c3d fdd5 e83c 5489 9abd
000003b0: 9413 0bbd f9aa a2bc d2c1 e2bc 3685 383d
000003c0: f1d7 9bbd d5de 023e 67c0 51bd 2297 ab3d
000003d0: 5f12 eabd 3d8f 6f3d c2d3 e0bd e6e0 c43d
000003e0: 0914 ce3d 8a35 99bd 9847 0d3d a275 0cbd
000003f0: f5f2 0a3e 41dc 123d d0dd 9fbd a263 8ebd

mlp.2.weight f4 [256, 256]
-0.12589352 0.120311745 -0.2632134 -0.037414514 0.1891647 -0.03440488 0.054987457 0.054364573
-0.085931875 0.071487 -0.20230992 -0.19828258 -0.26994294 -0.10777851 0.09585498 0.006056121
0.05225525 0.068286985 -0.08523858 0.0044560097 0.084278375 0.0074301776 -0.0366853 -0.088693276
-0.05568633 -0.5462869 0.040295266 -0.22015624 0.0022853229 -0.12237555 -0.1338695 0.05908055
0.032451224 -0.05847577 0.15729521 -0.037193023 0.036467027 -0.093570866 0.040041655 0.12927096
-0.043062337 -0.121145874 -0.106776305 -0.009921324 0.09714739 0.058732793 0.07250255 -0.1264249
-0.0699303 -0.2952229 -0.004717438 -0.12775584 0.15906131 -0.09046794 -0.16107452 0.11556878
0.09239222 -0.37117508 -0.08972919 -0.022106709 -0.19279565 0.091815926 -0.118279316 -0.2601352
-0.32597065 -0.18481486 -0.03685566 -0.14121795 -0.17971343 -0.03885021 -0.10088697 -0.1616077
-0.09349786 -0.13605581 -0.21265694 0.07926953 0.013549757 0.16316284 -0.08099926 0.14242126
0.104029484 0.35809067 -0.22483726 0.13542184 -0.29150206 0.1507244 -0.05552459 -0.016587155
-0.03105164 -0.027404808 -0.25771683 -0.07340619 0.10430532 -0.02863609 -0.008116025 -0.26379538
-0.28135216 -0.00058144395 0.012166905 0.1022094 0.06249909 -0.026839197 -0.25434342 -0.19723272
0.022880634 -0.02776152 -0.03264982 -0.24759921 -0.07435314 -0.06965659 -0.063485414 -0.035708357
0.025495775 0.054874126 -0.1191028 -0.06212276 -0.049187806 0.036919452 -0.13930005 0.029734625
0.060575753 0.16103573 -0.2722514 -0.008313308 -0.13392624 -0.0134842815 -0.051168464 -0.007350234
-0.06514027 -0.07142518 0.00026695823 -0.08118334 -0.14851055 0.10213218 -0.26901954 -0.27986467
0.08895371 -0.07925633 0.05201505 0.112012796 -0.062163405 0.0068020085 0.16519882 -0.022815986
-0.2501744 -0.0006798569 0.017083818 0.059421718 -0.0336391 0.033983786 0.024309011 0.07110193
-0.12222241 -0.070079856 -0.14992449 -0.17736162 -0.18429577 0.033316597 0.051643904 -0.07062381
-0.05285534 -0.025555799 0.12727992 -0.03704163 -0.20423943 -0.21250401 -0.012132312 0.01665411
-0.082537286 -0.21342316 -0.012994797 -0.21902537 0.0053391163 0.10394517 -0.03607976 0.13180435
-0.22427283 -0.0246862 -0.030919293 -0.058711104 0.10981758 -0.08842417 0.046367712 0.04480434
-0.15266754 -0.017223442 -0.21181166 0.012833062 0.023449982 0.04037213 -0.01975003 0.05015916
0.1892331 -0.13453479 -0.005381844 0.075965 -0.06686479 0.0058593624 -0.045574673 -0.046231247
-0.04254916 -0.09306884 -0.111385375 -0.20953776 0.001615423 0.07602431 0.082258984 -0.0034735317
0.076953664 -0.030567808 0.036441877 0.2003111 0.100150034 -0.22814623 -0.013909933 0.039637126
-0.044587027 -0.3802956 -0.023748444 -0.033069883 -0.017327867 -0.4047398 0.0013050392 0.013269951
0.02956866 -0.17224936 0.05093645 0.08774618 -0.07841763 -0.08050973 -0.0347533 -0.3399425
-0.06923777 0.12924032 -0.22110213 0.039407138 -0.14066285 -0.1462959 -0.09136787 0.076044396
-0.2629803 -0.03719536 -0.03729512 -0.025077248 -0.104602516 -0.09506819 0.22288068 0.050995972
-0.085273914 -0.50155866 -0.12388158 -0.008696549 0.10357792 0.103106454 -0.029418502 0.114837
00000000: 3bea 00be 0166 f63d e8c3 86be f63f 19bd
00000010: 64b4 413e 22ec 0cbd 873a 613d 63ad 5e3d
00000020: 0dfd afbd c767 923d 552a 4fbe 970a 4bbe
00000030: f635 8abe fbba dcbd 9e4f c43d 6d72 c63b
00000040: 9a09 563d 0cda 8b3d 9191 aebd b803 923b
00000050: 249a ac3d d978 f33b 5343 16bd d2a4 b5bd
00000060: 5917 64bd 75d9 0bbf a60c 253d a370 61be
00000070: 5bc5 153b 08a0 fabd 1615 09be 72fe 713d
00000080: 93eb 043d 4a84 6fbd ff11 213e b657 18bd
00000090: 735e 153d 15a2 bfbd b802 243d 9b5f 043e
000000a0: 2262 30bd 541b f8bd 89ad dabd 0d8d 22bc
000000b0: 36f5 c63d cc91 703d 387c 943d 8775 01be
000000c0: 9e37 8fbd 7527 97be bd94 9abb 6dd2 02be
000000d0: f8e0 223e 4147 b9bd b8f0 24be 53af ec3d
000000e0: 2238 bd3d a90a bebe f0c3 b7bd 2119 b5bc
000000f0: 396c 45be fd09 bc3d 6d3c f2bd 7130 85be
00000100: a0e5 a6be 1b40 3dbe f6f5 16bd 709b 10be
00000110: cc06 38be 6621 1fbd d49d cebd 7d7c 25be
00000120: ce7b bfbd 3752 0bbe bec2 59be 1058 a23d
00000130: cdff 5d3c 2914 273e f1e2 a5bd e1d6 113e
00000140: 690d d53d a957 b73e bd3b 66be 06ac 0a3e
00000150: c23f 95be 7f57 1a3e c16d 63bd c9e1 87bc
00000160: 0260 febc 0c80 e0bc 76f3 83be fc55 96bd
00000170: 079e d53d 3c96 eabc 13f9 04bc 3010 87be
00000180: 640d 90be 0b6c 18ba b357 473c 2953 d13d
00000190: 0cff 7f3d e0dd dbbc 4d39 82be 60f7 49be
000001a0: 2b70 bb3c 216c e3bc d1bb 05bd a68a 7dbe
000001b0: 7646 98bd 1da8 8ebd a404 82bd ed42 12bd
000001c0: 84dc d03c b1c3 603d 2bec f3bd 6f74 7ebd
000001d0: 2779 49bd da38 173d aca4 0ebe 0796 f33c
000001e0: 481e 783d 8de6 243e 8964 8bbe 8a34 08bc
000001f0: f623 09be 2ded 5cbc 0696 51bd 3bda f0bb
00000200: 4368 85bd 5d47 92bd 87f6 8b39 7343 a6bd
00000210: 2613 18be ad2a d13d eebc 89be 6c4a 8fbe
00000220: 5d2d b63d 2551 a2bd bc0d 553d f766 e53d
00000230: 0e9f 7ebd 62e3 de3b e129 293e 97e8 babc
00000240: dc16 80be 6d38 32ba 5df3 8b3c 3064 733d
00000250: 27c9 09bd 9532 0b3d b123 c73c e49d 913d
00000260: be4f fabd 0786 8fbd ce85 19be 499e 35be
00000270: 08b8 3cbe fc76 083d 8f88 533d 37a3 90bd
00000280: d77e 58bd 655a d1bc ab55 023e f7b8 17bd
00000290: 2424 51be a79a 59be 9bc6 46bc 336e 883c
000002a0: 4f09 a9bd 9a8b 5abe 21e8 54bc 3048 60be
000002b0: c1f3 ae3b 35e1 d43d 5fc8 13bd b8f7 063e
000002c0: c7a7 65be b73a cabc 754a fdbc 0e7b 70bd
000002d0: 0ae8 e03d bb17 b5bd 12ec 3d3d c184 373d
000002e0: e154 1cbe 2d18 8dbc 28e5 58be c341 523c
000002f0: 2d1a c03c 3f5d 253d d1ca a1bc b173 4d3d
00000300: 52c6 413e 7dc3 09be 2e5a b0bb 8a93 9b3d
00000310: 68f0 88bd e5ff bf3b 82ac 3abd fa5c 3dbd
00000320: 0748 2ebd e09a bebd 041e e4bd 1191 56be
00000330: 9abc d33a a2b2 9b3d 6677 a83d 31a4 63bb
00000340: e299 9d3d 5769 fabc 1444 153d 5a1e 4d3e
00000350: 761b cd3d 2a9f 69be 7de6 63bc 8a5a 223d
00000360: e3a0 36bd 1bb6 c2be 198c c2bc 4974 07bd
00000370: 2cf3 8dbc 0e3a cfbe d90d ab3a 356a 593c
00000380: f939 f23c 2362 30be bda2 503d 45b4 b33d
00000390: 6c99 a0bd 49e2 a4bd 7a59 0ebd f20c aebe
000003a0: 88cc 8dbd 9357 043e 9968 62be 6169 213d
000003b0: ec09 10be 98ce 15be 141f bbbd 2abd 9b3d
000003c0: 5ba5 86be 295a 18bd c5c2 18bd cd6e cdbc
000003d0: d839 d6bd 1cb3 c2bd d53a 643e 27e1 503d
000003e0: 17a4 aebd 2666 00bf a0b5 fdbd f87b 0ebc
000003f0: a920 d43d 7a29 d33d 12ff f0bc a92f eb3d

mlp.2.bias f4 [256]
-0.034148805 0.10358854 0.05200885 -0.04109278 0.053656485 0.07162166 -0.05178108 -0.0062991306
0.025403954 -0.09799664 -0.013154165 -0.04188503 0.012483985 -0.012035433 0.05681375 0.02405569
0.010414425 -0.024524705 0.11289592 0.031107934 -0.019210408 0.07546552 -0.031972867 -0.07856599
0.015463684 0.0009246022 -0.034645874 0.021922683 -0.035546746 -0.002776766 -0.042099833 -0.019907903
0.086994775 -0.010335473 0.034690432 -0.019971935 0.01872786 0.037445366 0.024382051 -0.03303576
0.0412542 0.038652167 0.036274187 -0.038833726 -0.05036349 -0.01744391 0.04071443 0.08484757
0.09728787 0.055494826 -0.025543801 0.03230454 -0.020516712 -0.020168643 0.02605762 0.06613235
0.018070178 0.0129636815 0.01662392 -0.0022964648 0.18073826 0.09671257 -0.023135295 0.14725009
-0.005982389 0.059440657 0.053654075 -0.023046538 0.044622097 -0.00061638956 0.028047746 -0.03265311
-0.015331285 0.088509806 0.040251717 -0.05079688 -0.01115681 -0.014097349 0.029643359 -0.03827559
-0.04814365 0.05451812 -0.02673283 0.020438323 -0.018673154 0.01784545 -0.060079236 0.009488324
0.05623362 0.0040296796 -0.04144053 0.03145807 0.08371791 0.04358671 0.022468736 0.053700507
0.08904054 0.07077716 0.09921404 -0.0072935605 0.010216184 0.16860345 -0.0070670606 0.11308407
0.056728404 -0.030653745 -0.034874856 0.10971613 0.030744303 -0.008720959 0.028446715 -0.038542278
0.052333172 0.09672199 0.024458028 -0.02766779 -0.01515331 -0.058626283 0.05618105 0.04345885
-0.008595846 0.07156461 0.010416516 0.015527022 0.07342923 0.011234776 0.09579328 0.04508458
0.0050637606 0.01680024 0.07089688 -0.039263915 -0.006049191 -0.024749378 0.009417339 0.046674468
-0.022893108 0.04692225 0.040518854 0.06538654 0.06475656 -0.04852992 0.057237975 -0.015967678
-0.047468785 -0.062378637 -0.022430824 0.07030097 0.05688302 -0.0017780613 0.07690453 0.05675839
0.052149735 0.011596558 -0.031300582 0.042073995 0.061146192 0.017910464 0.026402235 0.015744396
0.016796509 0.052944314 0.044597592 0.028822495 -0.00680755 0.0556733 0.07825137 0.028935675
0.09339104 0.058413513 0.014959467 -0.028259357 0.09558496 0.020644989 0.17160462 0.002201641
-0.027898295 0.03313738 0.057059575 -0.0059471168 -0.006159092 -0.03707142 0.018298538 -0.037387777
0.039569296 0.031095786 0.04081868 0.024271263 -0.0056102844 0.009279352 0.1728305 0.0006300183
-0.054495245 -0.008139159 -0.04750343 0.0039838124 -0.010265957 -0.038274787 -0.0019794798 0.122119345
0.007618751 -0.0069175623 0.05205403 -0.04001313 -0.009649149 0.08999968 0.008507523 -0.010685557
0.05373073 -0.06750392 -0.033956528 0.103410356 0.028171072 -0.057569556 0.03342349 0.046765726
0.01734372 -0.0019387992 0.007944423 -0.031000925 0.057427373 0.05655904 0.02921468 -0.046527382
0.044437326 0.04780515 0.068699814 0.07809771 -0.017143425 0.038613502 0.037013248 -0.04989761
0.03154777 -0.00084605155 0.020594558 0.018273681 0.032162927 0.06903403 0.02669545 0.023922
-0.04772763 0.11280419 0.048547793 0.034775387 0.050750177 -0.0073134415 -0.061963137 0.018905059
0.013777153 0.06977328 0.061513286 0.080098845 0.04241633 0.04023306 0.021899406 0.05872719
00000000: 9edf 0bbd 3a26 d43d 3b07 553d e750 28bd
00000010: e7c6 5b3d 60ae 923d 6618 54bd f068 cebb
00000020: f41b d03c 76b2 c8bd 9184 57bc a38f 2bbd
00000030: a189 4c3c 4430 45bc 89b5 683d 7010 c53c
00000040: 44a1 2a3c 09e8 c8bc fa35 e73d 11d6 fe3c
00000050: 255f 9dbc ab8d 9a3d fbf5 02bd 35e7 a0bd
00000060: 645b 7d3c 0161 723a d5e8 0dbd 3397 b33c
00000070: 7799 11bd 67fa 35bb e070 2cbd e615 a3bc
00000080: 512a b23d 1e56 29bc 8e17 0e3d 2f9c a3bc
00000090: 2b6b 993c 5060 193d debc c73c 8150 07bd
000000a0: 2afa 283d bc51 1e3d 3e94 143d 1d10 1fbd
000000b0: f249 4ebd 88e6 8ebc 2dc4 263d 90c4 ad3d
000000c0: dd3e c73d 8b4e 633d 3c41 d1bc c451 043d
000000d0: aa12 a8bc b638 a5bc ca76 d53c 6670 873d
000000e0: e907 943c 9f65 543c e32e 883c 4980 16bb
000000f0: 7313 393e 3d11 c63d 3b86 bdbc bac8 163e
00000100: eb07 c4bb 0c78 733d 60c4 5b3d 18cc bcbc
00000110: a9c5 363d 3495 21ba 63c4 e53c 44bf 05bd
00000120: 1230 7bbc a144 b53d fcde 243d 6410 50bd
00000130: 0ecb 36bc 91f8 66bc a1d6 f23c ddc6 1cbd
00000140: 4732 45bd 644e 5f3d cffe dabc 456e a73c
00000150: 71f8 98bc 9f30 923c a515 76bd ea74 1b3c
00000160: 3955 663d 670b 843b 8cbd 29bd 2dda 003d
00000170: 4c74 ab3d fa87 323d 5b10 b83c 10f5 5b3d
00000180: e35a b63d 9ef3 903d bb30 cb3d d2fe eebb
00000190: c861 273c 62a6 2c3e cd92 e7bb 9f98 e73d
000001a0: 0b5c 683d 901d fbbc f0d8 0ebd dab2 e03d
000001b0: 7adb fb3c 5ae2 0ebc 1609 e93c 82de 1dbd
000001c0: 4f5b 563d 2e16 c63d 345c c83c 90a7 e2bc
000001d0: 9745 78bc 1d22 70bd 1a1e 663d e801 323d
000001e0: 97d5 0cbc 7790 923d 09aa 2a3c 0d65 7e3c
000001f0: 1062 963d 1112 383c 442f c43d 9caa 383d
00000200: e7ed a53b a8a0 893c 6232 913d 33d3 20bd
00000210: 4b38 c6bb 35bf cabc 2f4b 1a3c ba2d 3f3d
00000220: 548a bbbc 8c31 403d 19f7 253d 61e9 853d
00000230: 169f 843d 4fc7 46bd 5e72 6a3d a6ce 82bc
00000240: a16e 42bd be80 7fbd d9c0 b7bc f4f9 8f3d
00000250: 2bfe 683d d60d e9ba 1f80 9d3d 7c7b 683d
00000260: f69a 553d 7dff 3d3c 0a35 00bd c855 2c3d
00000270: 6e74 7a3d f7b8 923c 8049 d83c 64fa 803c
00000280: d598 893c 23dc 583d f7ab 363d 271d ec3c
00000290: de11 dfbb b009 643d 4142 a03d 820a ed3c
000002a0: cd43 bf3d 0243 6f3d 8d18 753c 2b80 e7bc
000002b0: 0cc2 c33d ae1f a93c 1fb9 2f3e 6849 103b
000002c0: f78a e4bc 10bb 073d 4db7 693d 08e0 c2bb
000002d0: 35d2 c9bb 34d8 17bd d1e6 953c ed23 19bd
000002e0: 6a13 223d 97bc fe3c 7d31 273d 87d4 c63c
000002f0: 7ad6 b7bb 6c08 183c 7bfa 303e d027 253a
00000300: 6836 5fbd 1b5a 05bc f592 42bd a48a 823b
00000310: 8b32 28bc 06c6 1cbd 29ba 01bb b519 fa3d
00000320: b7a6 f93b b8ac e2bb 9b36 553d cfe4 23bd
00000330: 7717 1ebc c151 b83d 2363 0b3c 7912 2fbc
00000340: c114 5c3d 7f3f 8abd 0016 0bbd cfc8 d33d
00000350: 05c7 e63c 0ece 6bbd 12e7 083d 6b8d 3f3d
00000360: 6b14 8e3c 4e1f feba 5329 023c a7f5 fdbc
00000370: f738 6b3d 74aa 673d a053 ef3c 7f93 3ebd
00000380: ea03 363d 55cf 433d 7db2 8c3d b1f1 9f3d
00000390: 5e70 8cbc 3129 1e3d 349b 173d 7061 4cbd
000003a0: 3c38 013d 8fc9 5dba ebb5 a83c b0b2 953c
000003b0: 46bd 033d b761 8d3d 6bb0 da3c 12f8 c33c
000003c0: 0c7e 43bd e205 e73d 0dda 463d a370 0e3d
000003d0: 6bdf 4f3d 98a5 efbb 0fcd 7dbd c8de 9a3c
000003e0: 91b9 613c 4be5 8e3d 5bf5 7b3d dd0a a43d
000003f0: bfbc 2d3d 6ccb 243d 6266 b33c ec8b 703d

density_layer.0.weight f4 [1, 256]
-0.24148795 -0.36513224 0.43003654 0.12263933 0.060941152 -0.61045295 0.06359269 -0.07147277
0.093114 -0.60028005 -0.18302889 0.10506328 0.0543484 -0.423259 -0.26148754 0.09026503
0.031974997 0.15007836 -0.2792051 0.015285464 0.06703081 -0.2815992 -0.07746373 -0.26830217
-0.11204897 0.08791752 0.021893421 -0.3870654 0.1138604 0.058276013 0.12012227 0.047110405
-0.39144188 0.038524568 0.09112206 0.08764153 0.029239725 -0.49489358 0.017326873 -0.33539984
0.05853703 0.10033764 -0.09696129 0.060732238 0.11851746 -0.4643162 -0.2404079 -0.1262218
0.00531951 -0.31087148 0.07639271 0.026889827 0.021226544 0.12356242 -0.03363829 -0.5547857
0.047273267 0.060045112 -0.16751644 0.09162719 -0.4757897 -0.5584403 -0.014040093 -0.51798004
0.08911444 -0.14521047 0.08266202 0.027564656 0.039618056 0.082415745 0.034189586 -0.067058414
0.08616949 0.029897464 0.042600494 -0.09831281 0.13556114 -0.0481999 -0.036634635 0.075504504
0.11543178 -0.28722933 0.05600599 0.0666508 0.074321784 0.07293105 -0.035411138 -0.005802625
0.08453684 -0.58570385 0.081484735 0.042290825 -0.30367622 -0.4267816 0.07562785 -0.26863748
-0.25832215 -0.019945161 -0.20511965 0.035019718 -0.1503482 -0.51964885 0.1164541 -0.20877993
0.07377017 0.042657644 0.0063134115 -0.26247355 -0.009643399 0.10314858 0.06777261 0.07401705
0.033639073 0.026999552 0.04391805 0.11814344 -0.07733255 -0.73776543 0.045691255 -0.025541563
0.026628861 -0.14603128 -0.18278685 0.07373831 -0.14833272 -0.000499052 -0.51778364 0.057579167
0.07436772 -0.04979702 -0.05479335 -0.07255901 0.0351213 -0.11986944 -0.06778462 0.08284802
0.07011029 -0.14249983 0.07663702 0.12620711 -0.14241788 0.089074075 0.12688382 0.089080036
0.07874898 -0.2866149 -0.16658993 0.0065439194 0.10447426 0.08647879 -0.33805716 0.09219388
0.068624966 -0.2681424 0.15123208 0.108975485 0.09053027 0.07431538 0.08238323 0.1341097
0.066303596 -0.33002457 -0.11562623 -0.2809964 0.09925678 0.07900515 -0.09070966 0.4034024
-0.12817322 0.077865586 -0.1748963 0.07793785 -0.36945722 -0.017952451 -0.58550966 0.10297741
0.178417 0.08387343 -0.19308583 0.13731857 0.15600061 0.18790363 0.0823494 0.10519841
-0.122420184 0.011425554 0.07130215 0.06836042 0.09996387 -0.29931203 -0.45762008 0.092056885
-0.40726817 0.0837229 0.07817385 0.10141691 0.07562594 0.035004556 0.14194474 -0.31890038
0.072802074 -0.17490126 0.04909835 0.005469468 0.09963705 -0.25404853 0.09235388 0.09824119
-0.37443542 -0.22715068 0.14730877 -0.3570721 0.06645565 0.05883448 0.030069223 0.08040433
0.085338295 0.07347337 0.08635052 -0.17937571 -0.066653915 0.01388641 0.06460098 0.09761653
0.09745883 -0.11553364 -0.13533756 -0.21969225 -0.023471499 -0.16891976 0.08101323 0.08974729
-0.031586185 0.07651803 0.06145825 -0.1289646 0.086965054 -0.07900177 0.06840894 0.05552011
0.17178778 -0.25077808 0.17255738 0.012757855 -0.0124141015 -0.020146044 0.062570274 0.059314594
-0.26824814 -0.431771 -0.22092417 -0.030914152 -0.11340334 0.071364224 -0.14300554 0.120484844
00000000: 9e48 77be 9df2 babe c02d dc3e 542a fb3d
00000010: 6e9d 793d a546 1cbf e23c 823d 5160 92bd
00000020: 8eb2 be3d f4ab 19bf ed6b 3bbe 6b2b d73d
00000030: 6e9c 5e3d 67b5 d8be b2e1 85be dfdc b83d
00000040: 37f8 023d 24ae 193e f9f3 8ebe e26f 7a3c
00000050: 7347 893d c52d 90be 4ea5 9ebd e75e 89be
00000060: ee79 e5bd 1a0e b43d d559 b33c 702d c6be
00000070: a42f e93d d4b2 6e3d aa02 f63d d7f6 403d
00000080: 126b c8be f0cb 1d3d 349e ba3d 677d b33d
00000090: 2688 ef3c b162 fdbe 16f1 8d3c 87b9 abbe
000000a0: 86c4 6f3d d27d cd3d a493 c6bd 5ec2 783d
000000b0: 48b9 f23d daba edbe 7d2d 76be 4a40 01be
000000c0: 494f ae3b 8c2a 9fbe c873 9c3d 0e48 dc3c
000000d0: 4ae3 ad3c 4b0e fd3d 4ec8 09bd 7006 0ebf
000000e0: 9da1 413d ddf1 753d 6e89 2bbe 09a7 bb3d
000000f0: b59a f3be f2f5 0ebf 6b08 66bc 579a 04bf
00000100: a281 b63d 0eb2 14be b54a a93d 46cf e13c
00000110: 8b46 223d 96c9 a83d 610a 0c3d ec55 89bd
00000120: a179 b03d 87eb f43c db7d 2e3d 3a58 c9bd
00000130: 8ad0 0a3e 426d 45bd 330e 16bd 1ba2 9a3d
00000140: 7f67 ec3d b90f 93be 8966 653d 3780 883d
00000150: 0536 983d e05c 953d 450b 11bd f223 bebb
00000160: a721 ad3d b0f0 15bf 78e1 a63d 2539 2d3d
00000170: 737b 9bbe 1e83 dabe c6e2 9a3d da8a 89be
00000180: cd42 84be 0964 a3bc e30a 52be d670 0f3d
00000190: e1f4 19be b507 05bf 7d7f ee3d 68ca 55be
000001a0: d114 973d c8b9 2e3d bce0 ce3b ef62 86be
000001b0: 59ff 1dbc 903f d33d 5ecc 8a3d 4096 973d
000001c0: 20c9 093d 2a2e dd3c 6ae3 333d 30f5 f13d
000001d0: 8760 9ebd 32de 3cbf c126 3b3d 8a3c d1bc
000001e0: c524 da3c 3989 15be 7a2c 3bbe 1c04 973d
000001f0: 88e4 17be d0d2 02ba 788d 04bf 22d8 6b3d
00000200: 1a4e 983d f6f7 4bbd fe6e 60bd d199 94bd
00000210: 5adb 0f3d 1c7e f5bd aad2 8abd 39ac a93d
00000220: fc95 8f3d 7aeb 11be dff3 9c3d 703c 013e
00000230: fed5 11be 786c b63d d5ed 013e 986f b63d
00000240: 2547 a13d 30bf 92be 8d96 2abe 606e d63b
00000250: 9af6 d53d cb1b b13d d415 adbe 25d0 bc3d
00000260: 3f8b 8c3d f649 89be 95dc 1a3e 8a2e df3d
00000270: ef67 b93d a932 983d 8ab8 a83d 0e54 093e
00000280: 2eca 873d fbf8 a8be 72cd ecbd c3de 8fbe
00000290: 2447 cb3d 74cd a13d fcc5 b9bd c28a ce3e
000002a0: d73f 03be fe77 9f3d 0418 33be e19d 9f3d
000002b0: 7f29 bdbe 0511 93bc f6e3 15bf d2e5 d23d
000002c0: f2b2 363e d5c5 ab3d 4bb8 45be 3d9d 0c3e
000002d0: a0be 1f3e cf69 403e cda6 a83d 4472 d73d
000002e0: 6fb7 fabd 3f32 3b3c dd06 923d 8c00 8c3d
000002f0: dcb9 cc3d 6d3f 99be 2e4d eabe 5288 bc3d
00000300: 7485 d0be e976 ab3d 9d19 a03d abb3 cf3d
00000310: c6e1 9a3d f060 0f3d f659 113e e946 a3be
00000320: 4119 953d 5119 33be 5a1b 493d 3939 b33b
00000330: 820e cc3d a612 82be 0824 bd3d ad32 c93d
00000340: 00b6 bfbe 309a 68be 1cd8 163e 27d2 b6be
00000350: e619 883d 6cfc 703d bb53 f63c 06ab a43d
00000360: d8c5 ae3d 3579 963d 8bd8 b03d 44ae 37be
00000370: d981 88bd d383 633c 854d 843d 2deb c73d
00000380: 7f98 c73d e79c ecbd ee95 0abe 01f7 60be
00000390: 4d47 c0bc 4df9 2cbe 44ea a53d 6dcd b73d
000003a0: 8460 01bd 7cb5 9c3d a5bb 7b3d 4c0f 04be
000003b0: bc1a b23d aecb a1bd fd19 8c3d 0e69 633d
000003c0: 23e9 2f3e fc65 80be e2b2 303e 5206 513c
000003d0: 8464 4bbc 5109 a5bc d824 803d dcf3 723d
000003e0: d257 89be 1711 ddbe f239 62be ad3f fdbc
000003f0: 0340 e8bd 6827 923d 0b70 12be c2c0 f63d

color_layer.0.weight f4 [256, 400]
0.082476944 -0.24006914 -0.06547384 0.029464846 0.012127712 -0.13245562 -0.00032603112 0.085629776
-0.019161582 0.08420525 0.09716602 -0.056002583 -0.0107561145 0.093561985 -0.19299382 -0.0023066048
0.005969755 -0.078513056 0.0023338906 -0.00624107 -0.030290997 -0.1357719 -0.07165908 0.09766838
-0.12455129 0.0012490057 0.045793366 -0.03280165 -0.087165624 -0.010159632 0.037431736 0.14953293
0.018254587 -0.03943077 0.009981574 -0.056161277 -0.052036945 -0.0032154517 -0.09582979 0.10256922
0.025546141 -0.01173703 0.069480255 0.031618565 -0.07981108 -0.07096819 0.021121012 -0.053031355
-0.07698474 -0.043130543 0.024807887 0.101450354 0.0028072726 -0.059577715 0.15535173 0.0984672
0.0512422 0.026780285 0.08087247 -0.070353284 -0.28187624 0.0679323 0.039190106 -0.1111832
-0.031763017 0.047615442 -0.0068935873 0.027551698 0.07078764 0.047360685 0.13823994 -0.0727016
-0.018236838 0.15454412 0.019177223 -0.029236468 -0.031308383 0.27470878 0.15158944 -0.04134965
-0.013277762 0.19918135 -0.038554233 0.044322066 -0.008566443 0.045913756 -0.08619068 -0.033523533
-0.009690641 0.12937002 0.035857365 -0.012971903 0.006442635 0.081479415 0.02284771 -0.40510878
0.03702502 -0.07731575 0.036346663 0.070985675 -0.2976264 -0.06362999 0.0062390016 -0.34643534
0.041702516 0.08066527 -0.06336367 0.05109954 0.023432136 -0.06385686 0.05027029 -7.642871e-06
0.03173654 0.043831114 -0.034518685 -0.0048125414 -0.0698145 0.05406301 0.020593187 0.12596014
0.13940023 -0.16533974 -0.0054509947 0.013130935 0.05072632 0.054111402 0.045853876 -0.06959152
-0.015033404 -0.18591818 0.11707797 -0.35082296 0.09327502 -0.0672962 0.14607416 0.026024777
0.0064443597 -0.09250043 0.006380967 -0.014610306 0.039204862 0.0078041162 -0.015338907 -0.0094888825
-0.054476496 -0.15651332 -0.36058363 0.10726698 0.011271186 0.016312448 -0.020975102 -0.057617493
0.018198386 -0.19920464 0.043451533 0.008102542 0.0041174116 -0.030000946 -0.03381025 0.0036159693
0.011340948 -0.05293136 -0.045829862 -0.009000977 -0.013444099 0.047403824 0.013798934 0.0107347835
-0.21524799 0.05955885 -0.1033757 -0.04971135 -0.048401322 -0.0030000713 -0.052674197 -0.018878626
-0.02806081 0.008514567 0.15877378 -0.04893833 -0.21256657 -0.05116819 0.04401572 -0.04007788
-0.22054252 0.1282663 -0.019016711 -0.039192226 -0.022919869 0.055423718 -0.14746313 0.04670956
0.049232375 0.0036508716 -0.037518777 0.012828849 0.08742483 0.058314085 0.024379384 -0.016837671
-0.093275055 0.15256512 -0.035336122 -0.016139742 -0.0018571429 -0.33942553 -0.05797551 0.03741916
-0.062078003 -0.0722315 -0.030860882 0.104490325 -0.042352423 0.01403627 0.13686743 -0.0294195
-0.0074846474 0.05763515 -0.047816407 0.0569242 -0.082225926 0.0452761 -0.028353143 -0.038748663
-0.03175748 -0.019431327 0.0025471277 -0.11602953 0.11826935 -0.06630032 0.017021546 -0.05360546
0.066301666 0.07894018 0.014135691 -0.16771397 0.020977046 -0.29951292 -0.055846065 0.012328804
0.012578131 0.0047795847 -0.14713572 -0.007851167 0.012971158 -0.09629251 -0.012269109 -0.02215666
0.28667298 0.09382385 0.06562113 -0.019286929 0.21175781 0.02878699 -0.1599672 -0.0404367
00000000: ace9 a83d afd4 75be 2617 86bd 4360 f13c
00000010: 50b3 463c 72a2 07be 28ef aab9 aa5e af3d
00000020: c0f8 9cbc cd73 ac3d fafe c63d f762 65bd
00000030: 6a3a 30bc 6d9d bf3d 2ca0 45be 682a 17bb
00000040: ef9d c33b 74cb a0bd 30f4 183b e481 ccbb
00000050: d324 f8bc ca07 0bbe ffc1 92bd 5c06 c83d
00000060: bf14 ffbd adb5 a33a d391 3b3d 065b 06bd
00000070: e483 b2bd 9674 26bc 0552 193d 291f 193e
00000080: a58a 953c 2982 21bd c189 233c 5e09 66bd
00000090: b124 55bd 54ba 52bb 6942 c4bd d00f d23d
000000a0: 2446 d13c ac4c 40bc aa4b 8e3d 7882 013d
000000b0: fe73 a3bd c557 91bd f905 ad3c 6837 59bd
000000c0: 2daa 9dbd a7a9 30bd e939 cb3c 34c5 cf3d
000000d0: 38fa 373b c307 74bd 8614 1f3e 2ca9 c93d
000000e0: 57e3 513d 5462 db3c 77a0 a53d 6215 90bd
000000f0: 1552 90be 1720 8b3d ce85 203d 04b4 e3bd
00000100: f019 02bd 6908 433d 9ae3 e1bb 19b4 e13c
00000110: 1cf9 903d 47fd 413d c58e 0d3e 94e4 94bd
00000120: 6c65 95bc d040 1e3e 8d19 9d3c 5181 efbc
00000130: 383d 00bd a1a6 8c3e 433a 1b3e 405e 29bd
00000140: f88a 59bc 32f6 4b3e 0beb 1dbd 0e8b 353d
00000150: 445a 0cbc 1010 3c3d bd84 b0bd f94f 09bd
00000160: 7fc5 1ebc 9379 043e 2cdf 123d 1b88 54bc
00000170: bd1c d33b aede a63d 1f2b bb3c 6b6a cfbe
00000180: 8ca7 173d b857 9ebd 3de0 143d f060 913d
00000190: 7d62 98be 7150 82bd 8a70 cc3b f95f b1be
000001a0: 42d0 2a3d d533 a53d d0c4 81bd c04d 513d
000001b0: c0f4 bf3c 63c7 82bd 38e8 4d3d e239 00b7
000001c0: 2dfe 013d 4188 333d 7763 0dbd 86b2 9dbb
000001d0: e8fa 8ebd 2d71 5d3d 0bb3 a83c b2fb 003e
000001e0: efbe 0e3e d24e 29be 429e b2bb 2223 573c
000001f0: 67c6 4f3d eba3 5d3d 46d1 3b3d 0086 8ebd
00000200: ab4e 76bc 5661 3ebe 93c6 ef3d 119f b3be
00000210: f906 bf3d 97d2 89bd 7794 153e ea31 d53c
00000220: 352b d33b de70 bdbd 6e17 d13b 1160 6fbc
00000230: 4795 203d acb9 ff3b 0a50 7bbc 4277 1bbc
00000240: bf22 5fbd 0745 20be 6b9e b8be caae db3d
00000250: c8aa 383c afa1 853c fad3 abbc 5200 6cbd
00000260: c814 953c 4dfc 4bbe 3cfa 313d 86c0 043c
00000270: 5aeb 863b 8bc4 f5bc 9e7c 0abd e6f9 6c3b
00000280: 62cf 393c 8ece 58bd 18b8 3bbd d578 13bc
00000290: a344 5cbc 832a 423d ed14 623c f2e0 2f3c
000002a0: f869 5cbe fbf3 733d a4b6 d3bd 219e 4bbd
000002b0: 7740 46bd d89c 44bb e6c0 57bd 59a7 9abc
000002c0: c9df e5bc af80 0b3c 9895 223e 8f73 48bd
000002d0: 0dab 59be bc95 51bd d449 343d b428 24bd
000002e0: e6d5 61be 3e58 033e efc8 9bbc 0788 20bd
000002f0: 73c2 bbbc fb03 633d 9300 17be 8652 3f3d
00000300: e3a7 493d 7643 6f3b 4aad 19bd 1830 523c
00000310: ca0b b33d c0da 6e3d 46b7 c73c 28ef 89bc
00000320: fe06 bfbd 083a 1c3e 9cbc 10bd 7e37 84bc
00000330: 606b f3ba 2fc9 adbe ba77 6dbd d544 193d
00000340: 8145 7ebd 1cee 93bd f6cf fcbc 06ff d53d
00000350: bc79 2dbd 62f8 653c fa26 0c3e 2a01 f1bc
00000360: c641 f5bb d612 6c3d 23db 43bd 5a29 693d
00000370: 1166 a8bd 6f73 393d da44 e8bc ebb6 1ebd
00000380: 2214 02bd 722e 9fbc b6ed 263b e4a0 edbd
00000390: 3337 f23d 76c8 87bd c570 8b3c 6691 5bbd
000003a0: 2bc9 873d 64ab a13d 6399 673c 36bd 2bbe
000003b0: 0ed8 ab3c c259 99be d8be 64bd c0fe 493c
000003c0: 8114 4e3c 109e 9c3b bfaa 16be 2ea2 00bc
000003d0: fb84 543c 0235 c5bd 5f04 49bc e281 b5bc
000003e0: cdc6 923e b826 c03d 5f64 863d 9fff 9dbc
000003f0: 0ad7 583e b2d2 eb3c 71ce 23be f4a0 25bd

color_layer.0.bias f4 [256]
0.053484865 -0.0065763183 -0.0010494129 -0.010745446 -0.012049823 -0.04707364 -0.033230867 -0.037309743
0.06136418 0.035045724 -0.0021456422 0.04338872 0.032801606 -0.025142638 -0.007836326 0.059374183
0.068156764 0.059600063 0.0068425196 -0.048630133 -0.03788087 -0.042970765 -0.028030192 0.037198864
0.004867862 -0.041567165 -0.045192353 0.011909889 -0.049476955 0.033492047 0.016564691 -0.011905242
0.03982858 -0.014578631 0.010929696 0.048724923 0.02615365 0.052862458 0.010701764 -0.0024906327
0.00015419241 0.070164494 0.009926593 0.014028288 0.031193305 -0.005534643 -0.006171894 0.0006285885
0.0061397 0.043111116 -0.002332323 0.039469447 -0.049475383 -0.02883448 0.040217444 -0.04586599
-0.0020731294 0.0077985507 -0.063788846 -0.038622033 0.036464773 0.018216707 0.00028641202 -0.013767162
-0.010656657 0.039447725 -0.034074273 0.042036485 -0.029747501 -0.0054646367 -0.030233072 0.041351784
0.05415568 -0.0124136945 -0.044443987 0.00093148084 0.025676928 -0.007838304 -0.033497453 -0.0051948167
-0.0067875544 0.010011948 0.06929449 0.031791136 0.05853658 -0.014885031 -0.035500664 -0.02073255
0.0037845985 -0.057148445 -0.024545139 0.0031238317 -0.02332267 -0.01892172 0.012679908 -0.054816347
0.0047252104 0.0017437519 -0.024437375 0.014255416 0.024107961 0.025299303 0.033723388 0.039924756
0.033950377 0.032107003 0.07287017 -0.00853684 -0.026159339 -0.03273535 0.06661367 0.009642949
0.0032501968 -0.03000735 -0.004530123 -0.010776749 -0.02573855 0.033298675 0.0019808677 -0.007451539
0.062323153 0.030280186 -0.01995734 -0.027230335 0.042039655 0.0075784368 -0.004947492 0.017575648
0.0337542 0.053052697 0.031057915 0.016130619 -0.0337416 -0.094057016 0.026602885 0.040013913
-0.042287644 -0.041836124 -0.011937331 0.014794809 -0.046092823 -0.023944449 -0.05541607 -0.0011630015
-0.05391845 -0.014075221 0.028583994 0.026167203 -0.0060327346 0.048329297 -0.00029390102 -0.024336236
0.00270236 0.0110110715 -0.048871174 0.030779608 0.042930573 0.036855076 0.028793117 -0.043250907
-0.010728194 0.041918136 -0.0198072 0.025544386 -0.005398966 -0.017658556 -0.0077066724 0.048935086
-0.05466317 -0.00013163281 -7.008855e-05 0.023340086 -0.07518013 0.054346498 -0.0013870493 0.0009165899
0.03547918 0.0030197683 -0.056333575 0.016429165 -0.06873339 0.013106488 0.01980616 0.042935684
0.003108268 0.0176541 -0.010253547 -0.026087549 -0.004292143 0.016775543 0.007161788 0.035961486
-0.0032710412 -0.018767895 0.011069025 0.023958057 0.028156249 0.046344694 0.006419732 0.02435872
0.030196497 -0.031373203 -0.011281701 0.0024505456 0.055772774 0.0340843 -0.0024126738 0.02394799
-0.010113865 -0.011529886 0.031124277 0.016352639 -0.021872155 -0.026967151 0.06424901 -0.03973379
0.05095843 -0.004824855 0.050175592 -0.0128004365 0.021096652 0.019957896 -0.014840877 -0.015256591
-0.030629935 -0.017681593 -0.001997377 -0.052334197 -0.09204322 -0.0026398073 0.03681977 0.022390084
0.0050155176 -0.028699359 0.033025265 -0.006929554 0.06340933 -0.04362089 -0.048733797 -0.068839766
0.0020366185 -0.03850163 0.00814778 -0.0117882695 -0.018633189 -0.04199814 0.000972398 -0.014595093
-0.038758475 0.030225601 0.03125446 0.036181178 0.046387725 0.034538716 0.017948769 -0.062474456
00000000: f212 5b3d 287e d7bb 748c 89ba ab0d 30bc
00000010: 9f6c 45bc 4ad0 40bd 171d 08bd 1ad2 18bd
00000020: 0259 7b3d 1b8c 0f3d e79d 0cbb 5fb8 313d
00000030: fa5a 063d eff7 cdbc ef63 00bc 5832 733d
00000040: c695 8b3d 321f 743d 3737 e03b 6430 47bd
00000050: f928 1bbd 1d02 30bd 939f e5bc d65d 183d
00000060: 9682 9f3b 5542 2abd 9e1b 39bd b221 433c
00000070: 59a8 4abd f52e 093d adb2 873c 340e 43bc
00000080: 4b23 233d 36db 6ebc 7812 333c c993 473d
00000090: 2e40 d63c 4e86 583d 7456 2f3c e239 23bb
000000a0: b6ae 2139 67b2 8f3d 26a3 223c e8d6 653c
000000b0: 1a89 ff3c f35b b5bb 993d cabb dcc7 243a
000000c0: 892f c93b 4895 303d e3d9 18bb b7aa 213d
000000d0: b3a6 4abd 4a36 ecbc 0cbb 243d fadd 3bbd
000000e0: 57dd 07bb fc8a ff3b baa3 82bd 2332 1ebd
000000f0: 165c 153d 343b 953c 9229 9639 aa8f 61bc
00000100: 4299 2ebc f093 213d 7791 0bbd 732e 2c3d
00000110: 08b1 f3bc b210 b3bb 59ab f7bc 7d60 293d
00000120: 59d2 5d3d cf62 4bbc e60a 36bd 9f2e 743a
00000130: 6c58 d23c 3b6c 00bc a034 09bd 4839 aabb
00000140: 226a debb 2709 243c 45ea 8d3d 6c37 023d
00000150: 0ec4 6f3d 58e0 73bc 2569 11bd 4fd7 a9bc
00000160: 0707 783b 7d14 6abd e312 c9bc 33b9 4c3b
00000170: 2f0f bfbc b901 9bbc 64bf 4f3c 1b87 60bd
00000180: f0d5 9a3b 9b8e e43a e430 c8bc 8c8f 693c
00000190: 0f7e c53c 7c40 cf3c 8921 0a3d 2488 233d
000001a0: 8d0f 0b3d a282 033d f53c 953d 1ade 0bbc
000001b0: 1c4c d6bc 8115 06bd bf6c 883d 76fd 1d3c
000001c0: 4101 553b f9d1 f5bc 6d71 94bb f690 30bc
000001d0: a7d9 d2bc 3164 083d 72d1 013b 0a2c f4bb
000001e0: 9046 7f3d 270e f83c 937d a3bc 2712 dfbc
000001f0: c631 2c3d 8954 f83b 921e a2bb cefa 8f3c
00000200: d841 0a3d c94d 593d 2b6d fe3c 5c24 843c
00000210: a234 0abd f7a0 c0bd 4bee d93c a1e5 233d
00000220: cf35 2dbd 5b5c 2bbd cc94 43bc ed65 723c
00000230: d4cb 3cbd 2627 c4bc f6fb 62bd db6f 98ba
00000240: 98d9 5cbd c19b 66bc fb28 ea3c 9a5c d63c
00000250: 3fae c5bb f1f4 453d ba16 9ab9 c95c c7bc
00000260: 141a 313b c867 343c 242d 48bd 8425 fc3c
00000270: f8d7 2f3d 59f5 163d 8bdf eb3c dd27 31bd
00000280: 4fc5 2fbc 5ab2 2b3d b642 a2bc 7642 d13c
00000290: cfe9 b0bb ada8 90bc 4188 fcbb 2870 483d
000002a0: 7de6 5fbd ea06 0ab9 81fc 92b8 b533 bf3c
000002b0: 0af8 99bd 6f9a 5e3d a7cd b5ba 4f47 703a
000002c0: 9e52 113d 4ee7 453b 09be 66bd 7596 863c
000002d0: 17c4 8cbd 98bc 563c 8740 a23c 54dd 2f3d
000002e0: 15b4 4b3b 559f 903c 7efe 27bc 8eb5 d5bc
000002f0: 1ba5 8cbb dd6c 893c 6fad ea3b 5a4c 133d
00000300: f75e 56bb 21bf 99bc db5a 353c b043 c43c
00000310: efa7 e63c efd3 3d3d 9d5c d23b f08b c73c
00000320: a55e f73c 3081 00bd e2d6 38bc 5599 203b
00000330: fe71 643d fb9b 0b3d f31d 1ebb 932e c43c
00000340: a0b4 25bc d9e7 3cbc 57f8 fe3c f8f5 853c
00000350: 3c2d b3bc 37ea dcbc fc94 833d e6bf 22bd
00000360: c9b9 503d d119 9ebb ec84 4d3d ecb8 51bc
00000370: e3d2 ac3c be7e a33c 2627 73bc c8f6 79bc
00000380: a1eb fabc fdd8 90bc 6de6 02bb 625c 56bd
00000390: 2881 bcbd 9e00 2dbb 54d0 163d 696b b73c
000003a0: 3659 a43b eb1a ebbc 8045 073d 5011 e3bb
000003b0: c0dc 813d d1ab 32bd 179d 47bd ddfb 8cbd
000003c0: ca78 053b e3b3 1dbd 447e 053c 9623 41bc
000003d0: a1a4 98bc 3e06 2cbd 86e8 7e3a 4220 6fbc
000003e0: 35c1 1ebd ae9b f73c ad04 003d b732 143d
000003f0: 0e01 3e3d 7878 0d3d 4c09 933c 37e5 7fbd
