best_models/sheep_mesh_mip_nerf/sheep_mesh_mip_nerf_best.pt (torch, 745329 bytes, 11 tensors)

pos_encoding.frequencies f4 [10]
00000000: db0f 4940 db0f c940 db0f 4941 db0f c941
00000010: db0f 4942 db0f c942 db0f 4943 db0f c943
00000020: db0f 4944 db0f c944
3.1415927 6.2831855 12.566371 25.132742 50.265484 100.53097 201.06194 402.12387
804.24774 1608.4955

dir_encoding.frequencies f4 [24]
00000000: cdcc cc3d cdcc 4c3e cdcc cc3e cdcc 4c3f
00000010: cdcc cc3f cdcc 4c40 cdcc cc40 cdcc 4c41
00000020: cdcc cc41 cdcc 4c42 cdcc cc42 cdcc 4c43
00000030: cdcc cc43 cdcc 4c44 cdcc cc44 cdcc 4c45
00000040: cdcc cc45 cdcc 4c46 cdcc cc46 cdcc 4c47
00000050: cdcc cc47 cdcc 4c48 cdcc cc48 cdcc 4c49
0.1 0.2 0.4 0.8 1.6 3.2 6.4 12.8
25.6 51.2 102.4 204.8 409.6 819.2 1638.4 3276.8
6553.6 13107.2 26214.4 52428.8 104857.6 209715.2 419430.4 838860.8

mlp.0.weight f4 [256, 60]
00000000: f39c 8abc 0965 aabd 18b2 123e c3b7 2d3e
00000010: 59c2 d63d 93a3 133e 86a6 c93d ee91 c8bd
00000020: c2f3 b93d c4cb eb3b 20d8 18be 6a13 183d
00000030: 5b74 1a3d e724 043e 80e7 e43d 68de b4bd
00000040: c4c3 c5bc b3b5 60bd 99f8 e0bc 8969 bf3d
00000050: 38be 00be f2c8 8ebd 3a58 003d da70 a8bd
00000060: b923 033e 0e46 043e 1f9e 8abc fcef 2ebd
00000070: beb2 0cbc 1e53 e53b 854c 533c c340 48bc
00000080: 9cf4 9b3d 0b6f f53c 9e6d 053c 05cc 963d
00000090: de72 cb3d 69a5 d93c 075b 8f3d efb0 4c3d
000000a0: 3289 2d3d 5446 8e3b 9395 bebd 65fe b03d
000000b0: 30ba 6c3d 1885 833d bb21 a0bd 5bdf eebd
000000c0: 279e 843d e441 983d 677e cfbd ae8b a23d
000000d0: c28e 08bc a1cb 96bc 644c 553d b97b 753d
000000e0: 7cfa 5ebc 20eb 4e3c 3fb1 eebc bdde ccbd
000000f0: b7bb 2fbd 95eb 05bd c351 9abd b48f 343d
00000100: 0120 91bd 31bb 0bbe 6f91 123d e302 f2bd
00000110: b775 d43d 921e 3a3d 4ee3 ef3b 32ff 983c
00000120: 5b65 843c 4196 2fbd 1be5 4d3d 041c 4a3c
00000130: e220 1b3c 5978 41bd 9ea6 30bb 210a 82bc
00000140: 31da 2b3d 2221 f5bc a788 993c a7d3 f93b
00000150: 6e43 8ebd 7032 acbc f512 89bd bf0f ddbc
00000160: b6b5 a8bb 3358 c53d 93b8 5c3e 88eb 91be
00000170: ecf2 02bf 0b13 ea3e e21c cf3e eef2 e23e
00000180: 011c edbe b2e0 f7bd 842d 1c3e df21 80be
00000190: ae15 b73e 6153 6dbe d641 e83c 2693 05be
000001a0: 4ca6 2ebe c008 0e3e e586 0bbe 9687 c9bc
000001b0: 4e4d 7c3d c20f f43d 7e0b 4d3e 4e0a 59bd
000001c0: 36e9 2e3d 81d4 f33d ec0f cbbb 2cd7 f1bc
000001d0: 8fc9 ce3d 0188 7abc 0bd2 cb3d b7f3 3dbd
000001e0: 02e2 d7bd 4a7f 2fbd 1b10 d5bd 5911 93bb
000001f0: 2dec d9bc 4d37 55be 24d5 ac3d 0bd6 9b3c
00000200: e9a6 093e 8b20 e5bd 22af 9abd 66dc e5bd
00000210: d2e3 573d a339 31be 6d23 f3b9 29df 02be
00000220: 2c16 223e c616 a63d c674 90bd 793b 65bd
00000230: 5e36 8bbd 0d70 cbbd d45a 253e ec0c b5bd
00000240: ff00 f63c aecb 89bd 0e54 03bd 9518 0d3e
00000250: cd1f 373c ec8a e6bd 786f ee3c e902 e43c
00000260: b205 8fbd 93ff 583d b77a 383d cd2c 7ebd
00000270: 3194 943c 2e30 ba3d c97c 77bd 1eaf 07bd
00000280: dcb7 633d b135 883d 61a3 57bc 684b 56bd
00000290: 7cb1 9a3d 3f0d 8fbd 22ac 44bd a4af dabc
000002a0: eb88 17bb 38eb 043d 5a0b 823d 0f4b 903d
000002b0: ecf2 f5bc e991 d63d 1052 d43c f8e7 abbd
000002c0: b995 bf3c 61e3 4c3c 9103 99bd b97f bbbd
000002d0: c790 5ebd b3e4 9a3e 0bc6 85be 6ece ea3d
000002e0: b93d b63d 8ad0 f73d 60a6 bcbd 8b7c 293e
000002f0: d86f 6d3b 05af c53d c79f 3bbe 5ada 00bd
00000300: bf35 ef3d ff3a 0e3e 20e1 2ebd b608 673d
00000310: 2b68 86bd 39c9 2a3e a791 20be 879d a03c
00000320: 47f9 0d3d 1112 913b 40c2 3a3b 27d5 f4bd
00000330: 9985 143e a9cc 263c ba5a 62bd 9c1f 31be
00000340: c5a3 b0bd 6609 a83d 6fc5 36bc 2db9 ae3c
00000350: 8dae 87bd 58eb 83bd ab52 95bd 26ae 3e3d
00000360: 09f0 423c 0c05 553e 8414 8f3b 8992 0fbb
00000370: 91fc 003d 7730 c23d 8002 8b3d 4b5d 963b
00000380: 2478 f33c 439a 96bc b244 90bd 385e 8d3a
00000390: 7b3b 02bd 157d a03c 0471 22bd 6ff9 1dbd
000003a0: 5bb9 a73c ef7a 79bd f97e 913b a8f0 95bc
000003b0: dc1e 0c3d b9ca a6bd 87d9 953d de77 2e3d
000003c0: 3d6a 523d 302f c1bd 37fe 11be 9da4 c2bd
000003d0: 216b 053e fea1 c4bd b569 183d a155 8cbd
000003e0: 67a4 763e eb6b c33d 89e4 0a3e ccbf 9b3d
000003f0: 18f9 14be e51b 7cbb 7ddb 8fbd ff50 86b8
-0.016920542 -0.08320052 0.1432575 0.16964631 0.104862876 0.14417867 0.09846215 -0.09793459
0.09079696 0.0071959216 -0.14926195 0.03712789 0.03770862 0.12904702 0.111769676 -0.08831483
-0.0241412 -0.054860782 -0.02746229 0.09346301 -0.12572563 -0.06971921 0.03133414 -0.0822465
0.12806596 0.12917349 -0.016921101 -0.042709336 -0.008587537 0.0069984337 0.012896662 -0.012222472
0.07615015 0.029960176 0.008143811 0.073631324 0.099340186 0.026568132 0.06999784 0.049973425
0.042367168 0.00434188 -0.09305873 0.08642272 0.05779475 0.0642187 -0.078189336 -0.116636954
0.06475478 0.07434443 -0.10131531 0.07936798 -0.008334817 -0.018407645 0.052074805 0.059932444
-0.013609525 0.0126293 -0.029137252 -0.100034215 -0.04290363 -0.03269537 -0.07535126 0.04408236
-0.070861824 -0.13645627 0.035783228 -0.11816957 0.10374015 0.04543931 0.007320798 0.018676374
0.016161611 -0.042867903 0.05026732 0.012335781 0.009468289 -0.047233913 -0.002695478 -0.01587397
0.04195613 -0.029923026 0.018741919 0.007624108 -0.06946455 -0.021020144 -0.06693069 -0.026985047
-0.0051486148 0.09635963 0.21554784 -0.2850001 -0.5115192 0.45717654 0.40451723 0.44325966
-0.46310428 -0.12103404 0.15251738 -0.25025842 0.35758728 -0.23176338 0.028351706 -0.13044414
-0.17055625 0.13870525 -0.13625677 -0.024600785 0.06159716 0.11917068 0.20023915 -0.052988343
0.042702876 0.11905766 -0.0061969664 -0.029521547 0.10097038 -0.015291215 0.09952172 -0.046375003
-0.105411544 -0.042846 -0.104034625 -0.004488152 -0.026601875 -0.20821877 0.08439091 0.019022962
0.13442577 -0.11187848 -0.07552935 -0.11223678 0.0527075 -0.17307143 -0.00046374966 -0.12780441
0.1582877 0.081098124 -0.07053523 -0.05596492 -0.06797479 -0.09933481 0.1614793 -0.08840355
0.030029772 -0.06728302 -0.032062583 0.13778909 0.0111770155 -0.11256966 0.029105887 0.027833419
-0.06983508 0.05297811 0.045038905 -0.062054444 0.01813707 0.09091221 -0.06042174 -0.03312599
0.055595264 0.06650866 -0.013161511 -0.052318007 0.07553384 -0.06984948 -0.04801572 -0.02669508
-0.002312238 0.032450885 0.063498214 0.07045566 -0.03002306 0.10477049 0.025918037 -0.08393854
0.023386823 0.012505383 -0.07471383 -0.091552205 -0.05433729 0.3025261 -0.26127657 0.114651546
0.088984914 0.121003225 -0.09211421 0.16551416 0.0036229994 0.09652523 -0.18322669 -0.031458236
0.11680173 0.13889693 -0.042695165 0.05640479 -0.06562837 0.16678323 -0.15680562 0.019606365
0.034661558 0.0044272025 0.002849713 -0.11954718 0.14504088 0.010180631 -0.055262305 -0.17297214
-0.086249866 0.082049176 -0.01115547 0.021328533 -0.0662509 -0.06441373 -0.07291158 0.0465528
0.011898049 0.20802706 0.0043664593 -0.002190741 0.031490866 0.094819 0.06787586 0.004588758
0.029720373 -0.018384105 -0.070443526 0.0010785526 -0.031795006 0.019590894 -0.03965856 -0.038567957
0.020474127 -0.060908254 0.004440185 -0.01830323 0.034209117 -0.08144135 0.07316881 0.042594783
0.051370848 -0.094328284 -0.14257132 -0.09504054 0.13029148 -0.0960121 0.037210185 -0.0685227
0.24086152 0.09542068 0.13563742 0.07604942 -0.14548147 -0.0038468775 -0.07024286 -6.4047046e-05

mlp.0.bias f4 [256]
00000000: 667b da3d c8ba 05be 00bb d03d 25d0 7bbd
00000010: e63b 493d 2a59 053d 6c18 863d bcff c7bd
00000020: 4643 033e 435e cabd 28d4 11bd 2ec5 55be
00000030: bb80 103d 39e1 4f3d d4d3 aabd dcc5 a83d
00000040: 522d 05be 0046 313e 25e0 04bd 1130 8abd
00000050: f4cf 1abe b801 413d 352a cdbc 31e4 e83d
00000060: 1ba9 3bbd 0388 8c3d 2b49 e73d 9b73 fd3c
00000070: f419 1c3d 8243 68bb 34eb 3f3d c8f3 e3bc
00000080: 5b44 e6bd f569 c9bd 6222 4dbc d8c3 8fbd
00000090: 085c dfbd 061d 2c3d 5e91 11bc 25f7 b63d
000000a0: e850 833c b6a0 013d 2d7d 61bd d03b 863d
000000b0: 7c9b 4f3d 98a1 92bb 397e 9fbd 6bcb f4bc
000000c0: 4d2f 10be 06b0 cc3b c699 07bd 6f1b 1f3d
000000d0: 85f4 7cbd 802b cb3b 638b 8d3d 8a75 323d
000000e0: 2f94 81bd 455e f9bb e6bf eb3d baa1 b3bd
000000f0: a073 3bbd c404 023d 31a3 56bd d1ce 633c
00000100: 369b a13d 3afd d4bd 7f59 223d 6a3c f0bd
00000110: cbbe 91bc 1320 a7bc 89eb 9fbd ed45 d53d
00000120: afec 443d bfd9 80bd 0f3a a439 dd5b de3a
00000130: c93d 00be 47b8 b0bd e224 04be abd6 2dbd
00000140: 7a8a 073d a558 833d 76ed 323c 3484 9abd
00000150: 9ed9 dd3d 0e5f 023e 81db b93d 5ac2 d4bd
00000160: 87e0 c03d 71ec 05bd 4e8c 35bd 7163 3dbd
00000170: 3b64 5fbd 989b 6cbd ba66 9e3b 955a 723a
00000180: c11c e4bd 5b46 823d 5003 813d d8cd 59bd
00000190: 8af6 0f3e bd95 13be 3689 82bc 24f1 d2bd
000001a0: 1ee9 96bd 3461 51bd 43c1 1abe 9d4f 2f3c
000001b0: ae84 83bd c75d 1e3d d95a 863d ad86 053e
000001c0: 1829 fdbd 13c5 4ebd d197 c73c 59f0 aa3d
000001d0: 1294 85bc 432b bd3c 89e8 a7bd 6336 b5bc
000001e0: a475 89bd f79b cabc 3587 84bd be9e ca3d
000001f0: 61cc 46bd f38a f6bd cfd4 ad3d f2d3 ddbd
00000200: 1738 6a3c b026 543d c05b 04be c9cb d03d
00000210: 167d 4abd 4545 0c3d ecd6 60bd 6a48 253c
00000220: 8d35 78bd 34dc 7f3d 15fd 05be d2b6 1ebc
00000230: 3759 ff3c a073 013b 71ce 933d 96f7 b8bc
00000240: cd12 1abe 0731 b83d cee2 523d 95ff 05be
00000250: abe3 19bd fd3a d53c aecb 623c 98b0 86bd
00000260: 2838 b53c 0c03 ddbd 10f7 f93a d5b5 643d
00000270: 1fe5 013e 3a86 073e 08aa 3ebc 9de0 babd
00000280: 13b7 013d 05ec 9fbd ae1a 793c 61f9 00be
00000290: dc6d 89bd 2e1b b5bd ccca 563c cc8c dfbc
000002a0: 7838 7d3d 235f 23bd be17 9bbd d761 163e
000002b0: 1719 a2bd 817a 87bd 53d8 073e da4c 9aba
000002c0: 68d8 e73c 8ff7 4e3d cd57 f8bc 2df0 0cbe
000002d0: 09bd c63b 8bd7 0fbe ac8a 29bd 21e0 85bb
000002e0: 67a3 8cbd 25dd ec3d e4c4 0fbe 4144 0a3d
000002f0: ec4c 69bd de2f 06bd 0ad6 aabc 0178 94bd
00000300: ef5e c7bc 338e 48bd 53ec af3d 716c bfbd
00000310: d5be 443d e0be 94bd 2f76 4f3c d5ba 773d
00000320: 99e7 a5bd 0418 183e b2e2 aabd 5e70 6b3d
00000330: c8ec debd 1283 30bd 0f34 eebc 52e4 803d
00000340: e729 063e e14f 483d 5a16 b73c 02ee 203d
00000350: 45fd 9cbd 709c 453b a91a b53d 0800 9dbd
00000360: c47f 36be cf80 ea3d 1fe7 a4bd cb06 ac3d
00000370: 1ede 513d 3d5a 8cbd 0198 803a 2f2e 633c
00000380: 0891 38be 7c45 02be d7fc 1fbd 6a58 dfbd
00000390: 786c fb3c 966e 5fbc 9388 0dbc 3fcb 0fbe
000003a0: 5eaf e33d 8195 b63c 744f 703d 93cc 0b3e
000003b0: 7836 e53b bae0 ca3d 54e1 40bc b81e 40bd
000003c0: e7e5 25bd 60ff 7abd 28e8 a33d 3715 473b
000003d0: c938 d23d d937 083e 3717 ecbd 5ca6 babd
000003e0: 7689 79bd bd43 60bd 0f52 0c3d adaa 0abd
000003f0: 843f 173d a27c 24bc fc53 edbd e7e9 263d
0.10668068 -0.13059533 0.101919174 -0.0614778 0.04912939 0.032555737 0.06547627 -0.09765574
0.12818632 -0.0988126 -0.03560272 -0.20876 0.035279017 0.0507519 -0.08341184 0.08240864
-0.1300557 0.17311859 -0.032440323 -0.06747449 -0.1511839 0.04712078 -0.02504454 0.11371649
-0.04581557 0.0686188 0.112932526 0.030938914 0.03811069 -0.0035440628 0.046855167 -0.027826205
-0.112435065 -0.09834663 -0.0125204045 -0.07019776 -0.109062254 0.042019866 -0.008884756 0.08933858
0.01602979 0.031647407 -0.055051018 0.06554377 0.05068539 -0.00447483 -0.07787747 -0.029882153
-0.14080544 0.0062465696 -0.033105634 0.038844522 -0.06175663 0.006200254 0.069113515 0.043569125
-0.06327092 -0.0076101148 0.11511211 -0.08771081 -0.045764565 0.031742826 -0.052401725 0.013904289
0.07890932 -0.10399862 0.03963613 -0.11730273 -0.017791172 -0.020401036 -0.07808597 0.10413728
0.04807728 -0.06291532 0.00031323775 0.0016964633 -0.12523569 -0.08628898 -0.12904695 -0.04244105
0.033091046 0.06413392 0.010920873 -0.07544747 0.10832523 0.12731573 0.0907507 -0.10388632
0.09417825 -0.03269619 -0.044323258 -0.046237413 -0.054538947 -0.057765573 0.0048340233 0.0009245065
-0.11138297 0.063610755 0.0629946 -0.053174824 0.14058891 -0.1441259 -0.015934568 -0.102999
-0.07368682 -0.05111809 -0.15112786 0.010700134 -0.06421791 0.03866365 0.065602966 0.13039656
-0.12361354 -0.050480913 0.024364384 0.08346624 -0.016305957 0.023091918 -0.081986494 -0.02212066
-0.06711891 -0.024732573 -0.06471101 0.09893559 -0.048534755 -0.12038221 0.08487856 -0.10831441
0.014295599 0.051794708 -0.12925625 0.10195119 -0.049435697 0.034245748 -0.054892465 0.010088066
-0.060597945 0.06246586 -0.13084824 -0.009687142 0.03117047 0.0019752756 0.0721711 -0.022578996
-0.15046234 0.08993726 0.05148583 -0.13085778 -0.037570637 0.026029104 0.013842506 -0.06576651
0.022121504 -0.10791597 0.0019070823 0.05583747 0.12685059 0.13234797 -0.011637218 -0.09124873
0.031668734 -0.07808689 0.015204115 -0.1259513 -0.06710407 -0.08843075 0.013109874 -0.027288817
0.06182143 -0.03988565 -0.07572888 0.1468576 -0.07914942 -0.06615163 0.13266115 -0.0011772171
0.028301433 0.05052906 -0.030315304 -0.13763495 0.006065015 -0.14047067 -0.041392013 -0.004085556
-0.06867104 0.115656175 -0.14039952 0.0337565 -0.056958124 -0.032760493 -0.020854015 -0.072494514
-0.02433726 -0.048963737 0.08589997 -0.093468554 0.048033554 -0.07262969 0.0126624545 0.06048091
-0.08100814 0.14852911 -0.0834402 0.05748021 -0.10885006 -0.04309375 -0.029077558 0.06293549
0.13101922 0.048904303 0.022349525 0.039289482 -0.07665495 0.0030153058 0.08842976 -0.076660216
-0.17822176 0.114503495 -0.08051895 0.08399733 0.051237218 -0.06853149 0.0009810926 0.0138659915
-0.18024075 -0.12721819 -0.039059486 -0.109055355 0.03069137 -0.013637206 -0.008638519 -0.14042376
0.11117433 0.022288086 0.058669522 0.13652258 0.0069950186 0.099061444 -0.011772472 -0.046904296
-0.040502455 -0.0612787 0.08003265 0.0030377635 0.10264737 0.13302554 -0.115278654 -0.09113762
-0.06092211 -0.0547521 0.034257945 -0.033854175 0.036925808 -0.01003948 -0.115882844 0.04075041

mlp.2.weight f4 [256, 256]
00000000: 3f07 ba3d 704a 7cbc a46d 8f3c fe01 4b3e
00000010: 411b 233d 6cdc 9c3d e771 823c 905a 29bd
00000020: 6037 373d b88a 6d3c dccf d2bd 45fc 203e
00000030: acde 6939 b6de 44bd 189c 033d a82f 96bd
00000040: 13cd e43a 3235 c6bc 092d 913a 5819 8ebc
00000050: 9162 7e3d 2f45 7a3d db85 90bc eded e33c
00000060: d571 883d 58a5 29bc 2fad fd3c f5e1 91bc
00000070: bf29 80bd 32e0 3e3c 710c 1b3d 3097 d7bc
00000080: 3587 023d 3774 dabd f67d 5bbd b61f a23c
00000090: 26d2 563d 4628 a6bc f98a 92bd 8c2f ff3d
000000a0: edde 663d a408 713d 897b 8b3c 1e45 453d
000000b0: 9ef9 bdbd 546f 473c 0d8c cd3c 3d2c 13bd
000000c0: 919c 23bc e81a b3bc 9091 f13a 2a52 94bd
000000d0: 96da b3ba 7a18 02bd 6808 2abd c39b 2e3b
000000e0: 96eb b33d d010 123c 63f3 ecbd f38b 73bc
000000f0: 8626 863b 992b d4bd d7d3 afbd 18b7 9e3d
00000100: 9075 893c ac96 903b 1320 11bb 6681 1f3d
00000110: ac96 9d3d bef0 693c 8319 8f3c c168 903c
00000120: b176 bf3c a578 0bbd 619a 7a3d c7c5 b03a
00000130: 62da 10bd b881 183d ff9e 17bd 4de4 9dbc
00000140: 95aa 9ebd 065c 6bbd 22c9 f93c e391 54bc
00000150: 86ff c3bd 53f5 403d 99bc 28bd 334a cf3c
00000160: fed2 ee3c cf6a 313d e516 113d 301c 113d
00000170: 7ffe 9f3d 71e7 df3c 395e d63b be34 02bd
00000180: bd1b 01bd 29eb 79bd 40ce 863d e044 bc3d
00000190: a7e0 cb38 426b 23be e6b7 893b f3d5 0dbe
000001a0: af4c 8f3d 49de dabd 8fbc 31bd 42aa bfbd
000001b0: f1a6 933d 7ec2 34bd c56b 373d a0e5 8d3d
000001c0: 1b51 933d 6979 3cbd c9f3 5cbc 325d 72bd
000001d0: 22b2 bdbd b728 a13d ed2e 6f3c 6e98 a13d
000001e0: e8c9 603c 85ce 7dbd 1b92 883c 4d08 1cbc
000001f0: fff9 31bd cf9f 29bb 01f6 323d d5bf 073c
00000200: 12d7 eb3c a482 34bd b523 d7bc c636 1e3d
00000210: a256 b83d fb2c 00be f8ce a83d 1576 25bc
00000220: 6240 43be 508d 733d 0bca 74bd b1aa 0fbe
00000230: 6375 0d3c 35d0 21bc f67f 33bb 957c 21bd
00000240: 6369 db3c 81ab 483d 0767 9239 9137 383d
00000250: ff24 6c3d c361 46bb a7b5 e8bb 4aeb a8bc
00000260: 6dd3 01be abcf e7bc 1441 7ebd 433e efbd
00000270: c95f ed3c 48a8 5e3d 342d e4bc 2780 863c
00000280: 9fd1 6a3d 86a8 993d 33e1 d6bb 99c7 7ebd
00000290: 072a ad3c 2bfb 723d cf6f 8cbb 2851 3dbd
000002a0: 998c 633d 51e9 2ebd 0c36 8ebd f36b 6cbe
000002b0: 2d72 15be 3c9f c0bd 59cb 833d 7a99 e1bd
000002c0: 5f26 8a3d 8c81 64bd 30f2 57bd 47ac 513c
000002d0: 4ce9 e53c 9178 663d 79d8 0dbd 047a 733d
000002e0: df61 b5bd cc03 a43d eb5a b8bd 3231 77bc
000002f0: 7ba1 b73d 76a4 543d 6bd4 ebbd 432f 2c3d
00000300: 1001 a83c 2cc5 c2ba be56 8a3c 2759 88bd
00000310: 2805 4cbc 2a69 953b b23e 7dbc 6aef b03d
00000320: 9c6c bd3b a8c0 30be 3416 9f3d 92ac 823c
00000330: 78c6 cebd adf0 21bb b81f 273d f670 683d
00000340: bd61 dabd a726 3d3d 09a0 42be 2cc7 763d
00000350: ddc9 30bd 59c9 1ebd 8d23 44bd 2ce2 bb3d
00000360: 2d6a 243d 31b3 03bd c7cc 45bd 0126 30be
00000370: 4dc7 febb 13bb 5ebb bbdb 95bb 1768 bbbb
00000380: 90cb 593c 9415 8a3d fa6a 323d 8a1d 46bc
00000390: 1797 af3d e799 973d 0d43 923d 65d6 8d3c
000003a0: d114 c03d 5dc0 ac3c 36dc 013e 28ce efbd
000003b0: 99a1 473d 289a 72be 1584 ccbd 1c63 83bd
000003c0: 51ae 1cbe 49c7 a53c fb9b 92bd b855 4b3d
000003d0: 5b20 873d e002 95bd 42f2 b7bd 4afa 00be
000003e0: e6be 903d 1f2f 143d e3bd ad3d 6851 983d
000003f0: 5a42 acbd 9428 543d 8430 9dbb f965 813d
0.09083413 -0.015398607 0.017508335 0.19824979 0.039820913 0.0765923 0.015923453 -0.041346133
0.044730544 0.014498405 -0.10293552 0.15721233 0.00022303563 -0.048063956 0.032131284 -0.073333085
0.0017456136 -0.024195287 0.0011076044 -0.01734607 0.06210572 0.061101135 -0.017641952 0.027823413
0.06662337 -0.010354362 0.03096637 -0.01780794 -0.062579624 0.011650132 0.037853662 -0.026317209
0.031867225 -0.106666975 -0.053586923 0.019790512 0.052446507 -0.020282876 -0.07155413 0.12460241
0.056364942 0.05884613 0.01702668 0.04816162 -0.09276126 0.012172539 0.025091195 -0.03593086
-0.009986059 -0.021863416 0.0018430222 -0.07242234 -0.001372176 -0.031761624 -0.041511923 0.0026643134
0.08785169 0.008915141 -0.1156986 -0.014864909 0.004093948 -0.10359878 -0.08585327 0.07749766
0.016779691 0.0044124927 -0.0022144362 0.038941763 0.07694754 0.014278589 0.01746822 0.017628076
0.023372026 -0.034050602 0.061182383 0.0013486677 -0.035364516 0.037233084 -0.037016865 -0.019273901
-0.0774738 -0.057460807 0.030491415 -0.012974235 -0.095702216 0.04710896 -0.041195486 0.025303936
0.029153343 0.04331475 0.035422225 0.035427272 0.07812213 0.02733204 0.006541994 -0.03178858
-0.031520594 -0.06101528 0.06582308 0.09192824 9.721639e-05 -0.15958884 0.0042028306 -0.13851146
0.06997048 -0.10686929 -0.043392714 -0.09358646 0.07209576 -0.044130795 0.04478051 0.06928563
0.07193204 -0.046014223 -0.013485857 -0.05917091 -0.09262492 0.07869094 0.01459859 0.07890402
0.013720013 -0.06196453 0.016671231 -0.009523463 -0.043451305 -0.0025882607 0.04369164 0.008285482
0.028789077 -0.0440699 -0.026262144 0.038626455 0.09000899 -0.12517159 0.08242601 -0.010098954
-0.19067529 0.059460938 -0.059762996 -0.14029957 0.008633944 -0.009876301 -0.0027389503 -0.03942545
0.02678365 0.048991684 0.0002792405 0.044974867 0.05765247 -0.0030270673 -0.007101733 -0.020620007
-0.12678309 -0.028297266 -0.062073782 -0.11681797 0.028976338 0.054359704 -0.027853586 0.01641853
0.057328817 0.075028464 -0.0065576076 -0.06220207 0.021138204 0.059321564 -0.0042857896 -0.046219975
0.055554006 -0.042702977 -0.069439024 -0.23088054 -0.14594336 -0.094053715 0.0643527 -0.110156015
0.067456 -0.055787608 -0.052721202 0.012797422 0.028065346 0.056267325 -0.034630273 0.059442535
-0.08856558 0.08008537 -0.09001716 -0.015087413 0.08966347 0.051914655 -0.11515125 0.04203726
0.02050832 -0.0014859787 0.016887065 -0.066576295 -0.012452401 0.0045596557 -0.015456842 0.086394146
0.0057807695 -0.17260993 0.07767907 0.015951429 -0.10096449 -0.0024710104 0.040801734 0.056748353
-0.10663173 0.04617944 -0.19006361 0.06024854 -0.04316126 -0.03876624 -0.047885466 0.09173998
0.04014032 -0.032153312 -0.048290994 -0.17201997 -0.0077752233 -0.0033986017 -0.004573313 -0.0057191956
0.013293162 0.06742397 0.043559052 -0.012092004 0.0857374 0.074024014 0.07141695 0.017314145
0.093789704 0.02108782 0.1268166 -0.11709243 0.048738096 -0.23691618 -0.0998613 -0.06415388
-0.15300871 0.020236628 -0.07158657 0.049642295 0.06597968 -0.07275939 -0.08981754 -0.12595478
0.07067661 0.03617775 0.08483484 0.07437402 -0.08411093 0.05179651 -0.0047970433 0.06318278

mlp.2.bias f4 [256]
00000000: 157a 1cbc 3e9d b93c 4b1b 2b3d ea94 afbb
00000010: 665a 363d 06af 923d f87d 42bd 7d4c 2fbc
00000020: 7dc3 283d 00d8 913d 4af4 25bb 0b9d bbbc
00000030: b267 163d 0d55 aa3d f3a5 e3ba 085f 693d
00000040: fdf0 053d a991 733d 70a9 c1bc 2591 4d3c
00000050: 0769 cd3c df63 043d 4975 2e3d c027 853c
00000060: 4b2f 3e3d 260b 553d 3320 5c3d ed4a 69bd
00000070: d23e 9bbc d101 a83a f99a 453d 3e0a 243d
00000080: 522d 8abc 2715 f83c bbe5 b5bd 956a 7a3c
00000090: 472d 9e3d c357 b53b 3002 f1bc 0a0e b2bd
000000a0: 54a1 39bd 2f3a feba 371c 29bd 2ad4 183e
000000b0: 59f3 8fbc 17f4 8bbd 0da5 dc3d cb7f 0cbd
000000c0: 67cf 553d 5315 563c 3824 23bd 70b3 da3c
000000d0: c494 ed3d e887 003d 6db7 db3b da53 353d
000000e0: 3ed6 033d 8f31 793d d384 dd3d 35df 6d3b
000000f0: 1360 2e3d 6fa6 06bd 79d6 433c 41b0 ca3d
00000100: 1db7 8e3d 1f9b 49bd 0eb6 87bc 27e2 b2bc
00000110: dfaa dc3c bc51 10bc 3c79 223c f2c0 563d
00000120: 2259 2cbd bc89 99bd 0d27 de3c b949 65bc
00000130: d53c 343d f1bd 8f3d 2836 92bc a645 35bd
00000140: 1e22 d13d 40b8 38bd 08e6 cc3d a0a2 6cbd
00000150: cd86 90bd 8377 8c3d 761a ee3c e191 0b3d
00000160: bf04 92bc a122 8f3d b001 0f3a c5f7 4d3d
00000170: e698 d7bc e1a3 3ebd e42f 47bd 3f5d 98bd
00000180: d813 313d e92d 773d 681a 863d 9d1a 603d
00000190: 9358 673a 2771 94ba cc67 953c 693d 643c
000001a0: 69ab 9f3d 2126 aabd e410 8ebd 0125 d7bc
000001b0: 4e1b 67bc 4135 e43c cf02 7d3c d416 43bc
000001c0: 9920 a2bb d1fe 9b3b e952 d23c eaa1 ed3c
000001d0: 08dd 8d3d 7553 343d d090 82bd 29f9 d13b
000001e0: de3f fcbc dc48 b83c e028 5b3c 5ec1 d43d
000001f0: c82a 73bd 2a59 703c bcd8 11bd 7416 9cbb
00000200: b914 0b3d 5216 85bd da63 80bd f6fb 2f3d
00000210: 3009 a73d 79fd aa3c 3f29 b83d 570b 753d
00000220: 4cc9 133a c88b ca39 ed7f a23b bdf7 4d3c
00000230: 3b05 333d f948 c6bc 8ee7 0b3d be8a 263d
00000240: 277b e2bc 56ff 973c 695c 283d 85c9 6a3c
00000250: e553 fdbb 8e72 d53c a169 2a3c 6e40 813b
00000260: 2f70 1f3c daad 3f3b a113 05bb f2dc 84bd
00000270: 6ced 84bd 6a9e c63b 90a9 00bd 026b f03c
00000280: a6c1 13bc 038a 413d 0188 cdbc 61a6 70bd
00000290: 085a d93c e3ad 993d b5d0 923c 73e4 eb3d
000002a0: d877 0bbb 3d2b 473d 18ae 9f3b c56b 8abd
000002b0: 22d3 8c3b 086b a0bc c1bb 613d 526c ce3b
000002c0: 6c46 7cbc 4d55 e63c 280c 4abd 46ed 663b
000002d0: 88b7 823d a87a d93d deef 0c3d 098a 14bd
000002e0: 83cd 603d 24da 573d 3deb 6abc a6ca f3bb
000002f0: d1b3 883d 73f8 c53d f8f1 a33d 74d4 9439
00000300: ea17 57bc beb4 813d 5c45 a73d 75fb 413d
00000310: fba9 1bbd 517a a1bb d6fd a9bd b962 debb
00000320: 5368 0fbd 23f6 9bbc 7814 5e3d fc7c 383d
00000330: c5cd 973d c49d 283d a751 853d 3757 f03c
00000340: ba3e a23b 928f 2abc 6ac4 6fbc f57f 8cbc
00000350: 5c0d 203d bab2 393c 66f4 353d 1680 b3bb
00000360: beda acbc 65f4 7a3d 99f0 23bc 5934 f23c
00000370: 82e4 0d3d 3b90 f73b 8b50 173d bca8 84bc
00000380: 1c42 893c e1f3 803d 98ea 8c3d d49f 17bd
00000390: 80d1 abbd fcf4 843d de4d 6bbc 5696 dabc
000003a0: 95a0 2a3d 2706 f93b 96d5 573d ded2 4d3d
000003b0: 4a3f 593d 5017 113d 1681 833d eb98 e23c
000003c0: 01aa f53c c549 cabc eb1e 2c3d 21a4 5dbd
000003d0: e3d6 47bb c417 80bd 530f 6b3b d18d 6c3d
000003e0: 1389 63bd 6a5a 473d 5d6e 5cbb b19d e9bc
000003f0: c856 2c3d 73db 4b3d cfb0 943d 9f0a 5cbd
-0.009550591 0.022657987 0.041774075 -0.005358328 0.044519804 0.07162289 -0.047483414 -0.010699389
0.041202057 0.07121277 -0.002532261 -0.022902032 0.036719985 0.083170034 -0.0017368182 0.056975394
0.032700527 0.059465084 -0.023640364 0.012546812 0.025074495 0.032321807 0.04259232 0.016254306
0.04643182 0.052012585 0.053741645 -0.05695622 -0.018950853 0.0012817924 0.048243497 0.04004883
-0.016867314 0.030283524 -0.08881708 0.0152842 0.0772348 0.0055341437 -0.029419988 -0.08694084
-0.04531987 -0.0019396002 -0.041286673 0.14924684 -0.017572092 -0.06833666 0.107736684 -0.03430156
0.052199747 0.0130666075 -0.039829463 0.02669689 0.116006404 0.03137961 0.0067052157 0.04426942
0.03218674 0.06083828 0.1081635 0.0036296372 0.042572092 -0.032873567 0.01195299 0.09896899
0.0696852 -0.0492202 -0.016566303 -0.021836353 0.026936946 -0.0088085495 0.0099166 0.0524301
-0.04207719 -0.07496974 0.02711823 -0.013994628 0.044003326 0.0701865 -0.01784809 -0.044255875
0.102115855 -0.04509759 0.100048125 -0.05777228 -0.07056961 0.068587326 0.029065352 0.034074668
-0.017824529 0.06989027 0.00054552685 0.05028512 -0.026318025 -0.046543006 -0.048629656 -0.0743966
0.043231815 0.060346518 0.06548005 0.05471288 0.0008825149 -0.0011325226 0.01823797 0.013930657
0.07796366 -0.08308054 -0.069368154 -0.026262762 -0.014105631 0.027857425 0.015442564 -0.011907298
-0.0049477336 0.004760601 0.0256743 0.02900787 0.06926924 0.044024903 -0.06375277 0.006407876
-0.030792173 0.02249568 0.013376445 0.10388444 -0.05936697 0.014669696 -0.035607085 -0.004763419
0.03395531 -0.06498398 -0.06269045 0.042964898 0.08156049 0.020872818 0.08992242 0.059825268
0.00056376006 0.00038632588 0.0049590976 0.012571272 0.04370616 -0.024204718 0.034156375 0.04065966
-0.027646614 0.01855437 0.041103754 0.014330273 -0.0077309483 0.0260556 0.01040116 0.003944448
0.0097313365 0.002924791 -0.002030589 -0.064874545 -0.06490597 0.006061365 -0.031411707 0.0293479
-0.009018337 0.04725076 -0.025089266 -0.05875242 0.026532188 0.075038694 0.017921785 0.115181826
-0.002128115 0.04862522 0.0048730485 -0.06758837 0.00429763 -0.019582286 0.055110697 0.006299534
-0.015397649 0.028116846 -0.049328 0.003523664 0.06382662 0.10619098 0.034408443 -0.036264453
0.05488349 0.05269827 -0.014338312 -0.007439929 0.06674922 0.096665286 0.08005136 0.0002838705
-0.01312826 0.06333302 0.08167526 0.04735895 -0.038003903 -0.0049279113 -0.083003685 -0.006786671
-0.0350116 -0.019038266 0.05421874 0.04504107 0.07412294 0.041166082 0.065097146 0.029338462
0.0049513252 -0.010410206 -0.014634231 -0.017150858 0.03907524 0.011334116 0.04442253 -0.0054779155
-0.021100398 0.06126823 -0.010006093 0.029565977 0.03464175 0.0075550354 0.036942046 -0.01619374
0.016755156 0.06296516 0.06880683 -0.03701766 -0.08389568 0.064920396 -0.014361827 -0.026683014
0.04165705 0.0075996104 0.052693926 0.050249927 0.053038873 0.035422623 0.064211056 0.027660808
0.02998829 -0.02469338 0.042021673 -0.054111604 -0.0030493073 -0.06254533 0.0035867288 0.057752434
-0.055550646 0.04867021 -0.0033635118 -0.028517576 0.04207495 0.04976983 0.07260286 -0.053721067

density_layer.0.weight f4 [1, 256]
00000000: d5eb ce3d 2831 b63d 5136 98be d70d 873d
00000010: 85b5 16be c6f3 a43d bb3a 9a3d a893 5b3d
00000020: a634 72bd e812 aa3d aed9 2ebb 7ab8 cc3d
00000030: 50f6 ebbe 0719 04be df0c 35be 5cb4 3f3c
00000040: da61 0e3d 5893 8cbe 8eb8 0fbe 4d8d 4e3e
00000050: f254 533d 0c74 243e 6d7c 643d 01a2 743d
00000060: dc02 ce3c 4241 223d 1416 b03d afab 783d
00000070: 3fac c93d c506 b63d cd94 6a3d 7ff3 a73d
00000080: 2210 673d 8103 51be 07a3 e8bd 838a 49be
00000090: 66e7 e4be 3b81 1fbe 502d 85be bcb8 2e3d
000000a0: 12eb a03d 3f4c b83d 3b6d 953d 9cc2 cbbe
000000b0: 344e f93d 0e5e 6dbe d5cc 223e 9856 3fbe
000000c0: cc7f 6bbe 05a4 8cbe 1ddf 953d 6d58 583d
000000d0: d94d 25be cf6b 12bf f1ab 2f3d 578d 5cbe
000000e0: e69f 923d 7f5e 1c3d f8e0 0dbe 70e9 08be
000000f0: 8c3e 0a3e ae21 63be 8988 f0bd b138 993c
00000100: d4fa 2ebe cfc1 bdbd b0e4 b03d b80f 3dbe
00000110: f035 a93d de02 583d 2033 863d d170 513d
00000120: de1e 3bbe b234 8ebe 8ab2 4bbe 7ec5 b33d
00000130: 62da b93d 449e d53d b959 443d 069a b0bd
00000140: 59fd 23be a1e1 953d 71f2 cabe 6dee 4cbe
00000150: e447 36be 2eea a0be c3c5 54be 359d 353d
00000160: 7043 e83d b93a 913d 40af e1bd 7f75 ff3d
00000170: 2510 18be c4a2 7f3d a326 66bd ad16 1ebe
00000180: fcaa 933d 2b31 32be 8ed3 8b3d 9066 993d
00000190: 1aa8 823d f20a 753d 485c 223d e1c7 9cbe
000001a0: 3d18 8e3d 3403 65be 9837 88be 8590 6a3d
000001b0: a5c3 603d f8d0 f53d 5c60 ab3d eb47 68be
000001c0: d1b0 8f3d 62d5 dfbd f638 593d d240 3b3e
000001d0: 5d00 f63d 84ea c6bb 52c4 52be a06e bf3d
000001e0: 4b5c 743d 4983 55be 5bea fb3d 6f00 44be
000001f0: dd7f 903d 0b70 343d dcda a43d 70d7 5b3d
00000200: 7ff2 8bbe dda5 0dbe c0c2 d1bb 66c4 883d
00000210: bc67 d73d 9571 5dbc 9766 1f3d b25c ca3d
00000220: 9930 48be be17 983d 6751 d33d 81ae ff3c
00000230: 2f7a 143e a524 c03d 578f 67be 3d3f 5ebe
00000240: f287 41be 6034 6d3d 2c10 8a3d e81c debc
00000250: 6701 2bbe 48da 6bbe f23d 72be 6307 a63d
00000260: 9406 993d b39a f6bd ca7d c53d 6d59 38be
00000270: bf93 c7bc 1555 82be 15cf 7b3c 53a4 af3d
00000280: 93f6 71be b7d6 723d 6a74 d9bd 6c29 9f3d
00000290: 0efb 883d b27e 94bb a4da 3dbe a5de 9d3c
000002a0: 3af0 423d ccca 8d3d f805 dcbd bdaf 0ebe
000002b0: fd32 cb3d efe2 cebd ea1d 7e3d 7357 e93d
000002c0: a053 9f3d cc1d ad3c 2b00 97be 4187 ad3d
000002d0: 55fb 51be 6261 e1be b282 73be dc0b 71be
000002e0: 55aa a63d cf8d ca3d 5217 a7bc 9733 3e3d
000002f0: 2bcc 023d 3393 893c 49a1 113d 2819 63be
00000300: 4e9b 863d 82e2 863d c614 1d3d cfbc d93d
00000310: 0003 8e3d f4c9 1a3e d133 46be bd84 963d
00000320: 113e 933d c8a5 233e 4c50 c8bd 38b1 d03d
00000330: 0971 76be 42c9 0b3e ac23 913d 1c75 563d
00000340: 5b18 a23d d035 77be 1f65 c33d fde0 6e3d
00000350: 742b e03c d129 dc3d 7ff6 3bbf 1ebf 2b3e
00000360: c778 72be 0b11 103d ebf4 823d 29d1 aa3d
00000370: c19d 833d fb8c 4abe 5fcf 19bd 9779 533d
00000380: 3a3a 283d dcda 48be f86c 893d 8706 113e
00000390: 596a 43be 6e11 c5be 78f1 4cbe 12b8 9f3d
000003a0: 3c51 323e 4ef2 893d 4ac3 3e3d ce11 5c3d
000003b0: 80af 883d 7707 023e 9e31 413d 7aa8 253d
000003c0: 8566 ae3d 2ef8 55be 640e 133e 816d 6cbe
000003d0: 381b 59be a519 a33d 17fe 46be c2b6 de3d
000003e0: 391b d63d 1e47 4fbe 1b20 cc3d 980f b53d
000003f0: 5495 843d 1abe 823d 2444 cc3d 6035 d1be
0.10103575 0.088960946 -0.2972894 0.065944366 -0.14717682 0.080543086 0.07530733 0.053607613
-0.05913224 0.08304387 -0.002668004 0.099961236 -0.4608636 -0.12900172 -0.17680691 0.011700716
0.034761287 -0.27456164 -0.14035246 0.2017109 0.051594682 0.16059893 0.055782724 0.05972481
0.025147848 0.039613016 0.08597961 0.060710605 0.098473065 0.0888801 0.057270814 0.0820074
0.05641187 -0.20411493 -0.1135922 -0.19681744 -0.44707793 -0.15576641 -0.26011133 0.042656645
0.07857336 0.08998918 0.07296225 -0.39796913 0.12173119 -0.2318041 0.1589845 -0.18685377
-0.2299797 -0.27468887 0.07317946 0.052818704 -0.16142978 -0.5719575 0.042888585 -0.21538292
0.071594045 0.038176056 -0.1385535 -0.133703 0.13500422 -0.22180817 -0.11744792 0.01870379
-0.17087871 -0.09265482 0.08637369 -0.18463027 0.08262241 0.05273711 0.0655272 0.05113298
-0.18273494 -0.27774578 -0.19892326 0.08777903 0.09074856 0.104305774 0.04793713 -0.08623128
-0.16014613 0.07318426 -0.39638093 -0.20012827 -0.17800862 -0.31428665 -0.20778565 0.044339377
0.11340988 0.070912786 -0.110197544 0.124735825 -0.14849909 0.062411085 -0.05618919 -0.15438338
0.07210347 -0.17401569 0.0682746 0.07490265 0.06379719 0.05982489 0.039638788 -0.30621246
0.06938217 -0.22364503 -0.26604915 0.05726673 0.05487408 0.12002748 0.083679885 -0.22683685
0.07016147 -0.109293714 0.053032838 0.18286446 0.12011788 -0.006070437 -0.20582703 0.09347272
0.05965833 -0.20850863 0.12300559 -0.1914079 0.07055638 0.044052165 0.080495566 0.053672254
-0.27333447 -0.13832803 -0.00640139 0.06678085 0.10517833 -0.01351585 0.038916197 0.098809615
-0.19549789 0.074264035 0.10318261 0.03121114 0.14499734 0.093819894 -0.22613274 -0.21703811
-0.18899515 0.057911277 0.06741366 -0.027113393 -0.16699754 -0.23032486 -0.23656443 0.08106878
0.07471958 -0.12041225 0.09643133 -0.18002863 -0.024362443 -0.25455537 0.015369196 0.08576264
-0.23629217 0.0592868 -0.10617907 0.077715725 0.0668851 -0.004531705 -0.18540436 0.019271204
0.04759238 0.06923446 -0.10743326 -0.13934226 0.099218346 -0.10101878 0.062040247 0.11393633
0.07779622 0.021132372 -0.29492316 0.08473063 -0.20506032 -0.4401961 -0.23780325 -0.2353968
0.08137957 0.09890329 -0.020396862 0.04643592 0.03193299 0.016793823 0.035554204 -0.22177565
0.06572591 0.06586172 0.03834989 0.106317155 0.06934166 0.15116102 -0.19355704 0.073495366
0.071895726 0.1598121 -0.097809404 0.10190052 -0.24066557 0.13650993 0.07086882 0.052357778
0.07914802 -0.24141622 0.09540772 0.058320034 0.02736447 0.10750163 -0.73423 0.16772124
-0.23678885 0.035172503 0.06394371 0.083406754 0.064265735 -0.19780342 -0.03755128 0.05162963
0.041071154 -0.19614738 0.06710237 0.14162646 -0.19083537 -0.3848986 -0.20013988 0.077987805
0.17413801 0.06735669 0.04657296 0.053727917 0.06674099 0.1269816 0.04716646 0.040443875
0.08515648 -0.20895454 0.14360958 -0.23088647 -0.2120179 0.07963876 -0.19432865 0.10874702
0.10454411 -0.20241973 0.09967061 0.08840865 0.064737946 0.06383915 0.09973934 -0.40861034

color_layer.0.weight f4 [256, 400]
00000000: af7f 533d fdca dd3c 3cb9 0fbd e497 3f3d
00000010: a151 a6bd c8bd 3dbd 956d d5bc 442e 253d
00000020: 23f4 56bd f03f 1bbd 3ece 23be 11fb 7bbd
00000030: ae22 993d a61b f63c f013 f43a 0eaa bb3d
00000040: 99dd 783c 4a36 4c3d 2ffa 35ba 6f39 fe3d
00000050: 471f c43d 6fdf 353b 11a0 983c 684e d0bb
00000060: ce44 c4bd 54b6 a73c fed7 423c d107 683c
00000070: 3a0a 45bd 7fb3 bf3c d70d 8bbd ac7d 333c
00000080: d762 513d aa0b 35be f07b 04be 7ae4 0dbe
00000090: 7710 d5bd e1e6 b5bd d461 f1bb 9c7e 27bd
000000a0: ce3a 4e3b 103c 60bd 9045 1dbd 6fcd d4bd
000000b0: dcfc bc3c f2d2 2bbe dd73 713d f8e7 7abb
000000c0: eb65 d2bc 045f d83d 91ed c73b 5236 ce3c
000000d0: 47fa c33d bf54 4fbe cd53 973d 104d cabd
000000e0: b28c 213e e98f 2c3d 3a92 553e 4697 8cbd
000000f0: 0ba6 00bd 89e6 4d3b b2af 1abe f9f7 a13d
00000100: 8be8 00bd 0960 fabd 62e7 93bc d4a8 74bd
00000110: 8d08 38bb d4a7 cb3a e2f9 9abd 3eb0 5d3d
00000120: 3508 8cbd 85f2 8fbd 364b 773b c3f3 183d
00000130: a03c dabb 1f90 78bd 5545 403d fd0c 413d
00000140: abf8 013e 162d 0bbd e7b2 06be f26d e6bd
00000150: 411a 51bd fbea 353d c315 683d 3410 d53c
00000160: 463d 4ebd 9586 833d aa99 8ebe a0c4 29bd
00000170: e396 c7bd 5987 013d ef07 5fbd a8e4 91bd
00000180: ac95 493d 8eee cc38 2a13 df3c 1751 3cbd
00000190: 1e22 23bd b4b3 0a3d 7764 9c3c 0f29 44bd
000001a0: 1bdd 923d 9bbb b5bd c2d8 06be cbb3 a23d
000001b0: a758 1cbe 5349 013e 9ccc ac3c 8a63 1fbe
000001c0: ec17 65bb cf1e 9ebd c4fc bb3a b992 44bc
000001d0: f2b0 a43d 0cc1 483e b7d1 55be 1890 b93d
000001e0: bed8 883d fdd9 7ebe 0a34 463c be36 413e
000001f0: 1309 74bd 6495 b6bc f5b8 24bd 6d85 48bc
00000200: 9b1e fd3d 7136 053d 75df 093d 7e2b a2bc
00000210: a251 023b faa2 003d 4628 af3b 806d 323d
00000220: 996a 373d 8d57 b33d 0b58 49bd 92d4 083c
00000230: e3ac 6e3d ed86 0dbd 4b1c 9f3d 6041 20bd
00000240: 64ea 5dbe 89b9 103d 87c3 a0bd 5ac7 2e3e
00000250: 1e8b 633c 57e9 403d f77f dabb 5d7b c5bb
00000260: 63ea 3b3b b34b 1d3e 4e32 9abd ffc5 69bd
00000270: a0b8 88be 76e5 203e 8ab1 debd 302c 453c
00000280: 7632 19be ec23 82bc 67df 8e3c 2e1e 85bd
00000290: 378e 2abd a719 973c a79f e73b 4a86 073e
000002a0: 146f 323d 5f81 543c 213a 10bd 4749 11be
000002b0: 66c5 2bbc 33a9 8f3d 78bb 493d 695a 1fbd
000002c0: 686b 803d 36e0 c03d 40ee d9bd a9e2 edbc
000002d0: f6da dcbd f67e c03c 9df0 2a3e 7988 2dbd
000002e0: b4ef 62bc 731b 1abd eb3a 44be e69f 5cbb
000002f0: 1029 183e 2f20 2cbe a620 6cbb 417f 17be
00000300: b5c1 acbd 79f9 f83b 4d98 b43c 04e2 343d
00000310: a167 2e3c 4b64 f8bb 2d4c e93b 3d1e 5cbc
00000320: 5757 1c3c 2031 913b 88f4 6e3e ead3 47bd
00000330: 1509 ac3c b65e 37bd a7dc e1bc c51d 68bb
00000340: 09aa d6bb c3f8 86be 511c 553d 912d 8ebc
00000350: ef17 0abd 40e1 fe3d ee66 823e e0b1 b63d
00000360: 0e21 4d3c 272b 17bd a55c 223d 01d3 81bd
00000370: 5ad2 df3c bf85 a03d 90bd 2bbe abec 813c
00000380: a654 42bd 5098 933d 1bfe 08bc d2f3 45bd
00000390: 6b20 bcbd e073 4f3e d228 d6bb a44c 4f3d
000003a0: 12d0 17bd b697 303c 0480 b4bd b532 7abd
000003b0: 2996 e5bc 9b13 95bd 66d2 5fbb 5793 debd
000003c0: 149b afbc d3ea fc3b 71aa 15bd f082 c7bd
000003d0: 7b69 c93d 2c92 c5bc d8cd efbd 34e2 9cbc
000003e0: d7f8 843d ea18 8d3d 165a 0f3d def5 b03c
000003f0: 1d6b a6bc cf82 e4bc b240 333d 888f 8d3d
0.05163544 0.027074331 -0.035088763 0.046775714 -0.08121038 -0.046323568 -0.02605323 0.040327325
-0.05247892 -0.037902772 -0.15996644 -0.061518732 0.07477318 0.03004248 0.0018621664 0.09163295
0.015189552 0.04985646 -0.00069418823 0.12413298 0.09576278 0.0027751585 0.018631013 -0.006357003
-0.09583436 0.020472683 0.011892317 0.01416202 -0.048105456 0.02340102 -0.06789749 0.0109552555
0.05111965 -0.1768023 -0.12937903 -0.13856688 -0.10403531 -0.08881927 -0.0073663983 -0.04089223
0.0031468156 -0.05474478 -0.038396418 -0.10390746 0.023069791 -0.16779688 0.058948386 -0.0038285237
-0.025683364 0.10564998 0.006101318 0.025172386 0.09569221 -0.20247172 0.073890306 -0.0987798
0.15776327 0.04212943 0.20856562 -0.068647906 -0.03140835 0.0031417927 -0.15106085 0.07908625
-0.03147177 -0.122253485 -0.018054668 -0.05973132 -0.0028081269 0.0015537688 -0.075671926 0.054123156
-0.06837503 -0.07028679 0.0037734038 0.037341844 -0.006660059 -0.06068432 0.04694112 0.047131527
0.12692516 -0.033978544 -0.13154183 -0.11251439 -0.05105043 0.044413548 0.05666138 0.026008703
-0.050351404 0.06422154 -0.2785161 -0.04144728 -0.09745576 0.03162322 -0.054450925 -0.07123691
0.049215004 9.771912e-05 0.027230818 -0.04597577 -0.03982746 0.033862785 0.019090874 -0.04789072
0.07171079 -0.088736735 -0.13168624 0.07944449 -0.15268193 0.12625627 0.02109366 -0.15565315
-0.0034956886 -0.0772072 0.0014342298 -0.011997872 0.08041562 0.19604892 -0.20880781 0.09060687
0.06681965 -0.24887843 0.012097368 0.18868539 -0.059578966 -0.022288032 -0.04021545 -0.012238842
0.12359353 0.032522622 0.03366037 -0.01979613 0.0019885083 0.031405427 0.005345377 0.04356146
0.044779394 0.08756933 -0.04915623 0.008351462 0.058270346 -0.034552503 0.07769068 -0.039124846
-0.21671444 0.03533319 -0.07849794 0.17068234 0.013888149 0.04709753 -0.0066680866 -0.006026669
0.002867364 0.15360908 -0.07529126 -0.05707359 -0.26703358 0.15712532 -0.10873707 0.012034461
-0.14960656 -0.01588627 0.01744051 -0.06499897 -0.041639533 0.01844485 0.0070685926 0.13234821
0.043562964 0.012970298 -0.035211686 -0.1418811 -0.010484075 0.07014694 0.04925105 -0.03890458
0.06270486 0.09417765 -0.10641146 -0.029038744 -0.10783951 0.02349804 0.16693349 -0.04236648
-0.013851095 -0.037623834 -0.191631 -0.0033664643 0.14859414 -0.16809152 -0.0036030202 -0.14794637
-0.08435384 0.007598099 0.022045279 0.044160858 0.010644824 -0.007580315 0.0071196766 -0.013434944
0.009542308 0.004430905 0.23335469 -0.04878608 0.021000424 -0.044768058 -0.027571036 -0.0035418135
-0.0065510315 -0.26361665 0.052028958 -0.017355712 -0.03371423 0.12445307 0.25469154 0.08920646
0.012520088 -0.036906388 0.039639134 -0.06339074 0.027321983 0.0783801 -0.16771531 0.015859922
-0.04744401 0.07206786 -0.008361365 -0.04832823 -0.09185871 0.20259047 -0.006535628 0.0506102
-0.037063666 0.010778358 -0.088134795 -0.061083514 -0.028025704 -0.0727913 -0.0034152507 -0.108679466
-0.021436252 0.007718423 -0.0365395 -0.09741771 0.09834572 -0.024117552 -0.117091835 -0.01915083
0.06492775 0.068895176 0.034998022 0.021601614 -0.020314747 -0.027894406 0.04376287 0.06912142

color_layer.0.bias f4 [256]
00000000: cca1 b5bc f056 9bbb d263 b2bc 2b15 7d3b
00000010: 95f6 f73c 8087 58bd a11a c03b 0206 403d
00000020: 954e 22bd 1ce3 ca3c e617 ed3c 2fc7 6a3d
00000030: 7fa0 64bc 6f79 2aba 0ca6 97bc ca13 a83c
00000040: 2600 023d 46df 10bb f282 e23c fd6f 413d
00000050: 3b4f 43bc dabd 8e3c b273 77bd 8f44 7ebd
00000060: c12a 5abc f1fe 07bc ff4a 42bd 4b5e 293d
00000070: 2b15 1dbd 411a 843c fbcc 40bc 2fd3 213d
00000080: 9a16 293d 1ef9 57bd 78d1 65bd d6b3 62bd
00000090: 1754 38bd b77f c13c 0a84 8fbc 4ceb d1bc
000000a0: 75a0 1a3d 0958 3bbd 86e7 13bd e694 6e39
000000b0: d77a 6fbc c962 db3c 0c84 42bd c92e 06bd
000000c0: 2dce 92bc 96b8 c23c ad0f f83c c5fa 23bd
000000d0: d847 8bba e98e 3fbc 3ecc 643d 11ee 26bd
000000e0: 0cfe edbc 8190 0e3d 13c5 543b 6f74 24bd
000000f0: 5e0b c6bc 0547 c3bc 4533 583d 027a 0d3d
00000100: 0999 11bd 6ffe 95bc b5eb 8dbd 1dda 023c
00000110: 841b 6ebc 74ed b7bb cbd9 c73c fb37 193d
00000120: be7b 523b c239 ad3c fd71 183d b7d3 f83c
00000130: f0a6 0abd b82f 33bd d6bd 003d c358 22bd
00000140: f8f9 43bd 2c0d 30bd abd6 1d3d 78c4 073d
00000150: bf36 9bbb 41a3 a73c c7f5 dcbc abe5 5c3c
00000160: 118c c63c 5384 2a3d 3c59 03bc 724e 20bd
00000170: 4fef 803c f15c 2e3d c3b6 c1b8 d279 b13c
00000180: 0d56 883d 3e4a 50bc 5e6e db3a f1c1 d73c
00000190: c464 35bb 69d8 103d d27d 0fbd cc74 f13b
000001a0: 1fd2 54bd 86e1 243c 46c1 64bc 87f0 263d
000001b0: 61a7 4dbc ec50 333b fdc0 6ebd fd1b 0ebc
000001c0: fa37 883c 1501 cdbc 3f34 de3a 5a67 18bd
000001d0: df52 2ebd e17a 5bbc 1797 163d 1919 a63c
000001e0: 3320 0b3d 75af 1bbd b5b0 b03c be06 0d3d
000001f0: 4c16 0abd 85f3 a13b 260a fdbc 9db1 59bd
00000200: c662 513d ad1b e5bc 06e2 49bd efbb 3dbd
00000210: 8236 22bd d35a 843c de0e e83c a0a8 923c
00000220: d672 07bc 714c 3d3b 760f 10bd 329c 80bd
00000230: 11ab 053d 950d 313d f4d9 75bc f29c d6bc
00000240: 85b6 6a3b 6639 b03b dc54 a33b 68af a43b
00000250: 96a6 b43c a51b 24bd b532 d8bc 9717 25bd
00000260: 5a89 ccbc e75b 0dbd dd3c 67bc 214b b8bc
00000270: c43f 8bbb fe95 2e3c 2d47 efbc d8aa 033d
00000280: 2d0c 17bc 7571 293c 3bbd d2bc a091 093d
00000290: be3a 933c 8653 8d3d 2c41 d53c a604 7d3b
000002a0: 9ce4 91bc 0957 533d 64dd 593c 222d 053a
000002b0: 8596 203d c1ff 27bd 4b05 833a d04a 3d3d
000002c0: 71bb e9bc 3624 4abd 33bf 623c 5888 34bc
000002d0: 174f a6bc f016 0439 9a0b cc3c e010 70bc
000002e0: 5cd7 f2bc 95cb 97bc 25bc b2bc a9ef 293d
000002f0: 4f6e a6bc 025f 343d 6e5f 873c 017b c63c
00000300: b83b cd3c 2125 35bc 2e36 a33c b202 41bd
00000310: 4ce5 ed3b 11b2 16bd 2594 0a3d 28a3 073d
00000320: b5ff 5e3d 48eb bebc 1022 a83b 2c5e fc3c
00000330: 5dbc 84bd 6c9d 0cbd 18d3 0bbb 730f fc3c
00000340: 9b38 d2bc b4cc 0ebd ab60 8bbd 83bb 98bc
00000350: cb46 69bc b52e ef3c fb82 dfbb 0839 a5bc
00000360: 97a0 203d e74d dfbc e2cf d83b 29c7 58bd
00000370: 9dbb 123d 0e3a 643c fe91 f13c 5b28 19bd
00000380: aa81 263d b4a1 4c3a 91f3 8cbc be30 84bc
00000390: d3fb c93c 8d24 55bc 6734 68bc 0415 e3bc
000003a0: 6c62 603d b1cb 163d 3f09 913c 65b1 fc3c
000003b0: c164 79bc bf92 4dbc e971 223c 687c 793a
000003c0: 85a1 693b 4fee 34bd a9a4 dabc bf04 2abd
000003d0: 9dda 113c dadc 60bc 7724 a13c 726d 713b
000003e0: aa18 65bd b14f 48bd 02a8 30bc 0fab 76bc
000003f0: b80d 443b a461 0cbc 63ec 86bc 0534 16bc
-0.022171877 -0.0047405884 -0.021776114 0.0038617353 0.030268947 -0.052863598 0.0058625494 0.04688073
-0.039625723 0.024766497 0.02894206 0.057318863 -0.013954281 -0.00065030804 -0.018511795 0.020517249
0.031738423 -0.0022105738 0.02765033 0.04722594 -0.0119207455 0.017424513 -0.06041307 -0.0620771
-0.013315857 -0.008300529 -0.047434803 0.04134969 -0.038350265 0.0161258 -0.011767621 0.03950804
0.04128132 -0.05272781 -0.056107968 -0.055347286 -0.04500207 0.02362047 -0.017519016 -0.025624894
0.03775068 -0.045738254 -0.03610947 0.00022752918 -0.01461669 0.026780503 -0.04748921 -0.03275946
-0.017920578 0.023769658 0.030280912 -0.040034074 -0.001062627 -0.011691787 0.055858843 -0.04075438
-0.029051803 0.03480578 0.0032466098 -0.040150102 -0.024175342 -0.023837576 0.05278327 0.034540184
-0.035546336 -0.0183098 -0.06929723 0.007986573 -0.014532927 -0.0056130234 0.024395844 0.037406903
0.0032117213 0.021145705 0.037218083 0.030374391 -0.03385061 -0.04374668 0.03143104 -0.03963543
-0.04784581 -0.04298131 0.0385348 0.03314635 -0.004736751 0.020463588 -0.026972665 0.0134824915
0.02423671 0.0416301 -0.008016881 -0.03913731 0.015739111 0.042569105 -9.236999e-05 0.021664534
0.06657038 -0.012713013 0.0016741266 0.026337596 -0.002767847 0.035362635 -0.0350321 0.0073686596
-0.0519582 0.010063535 -0.013962096 0.04075673 -0.012552113 0.0027361466 -0.058289517 -0.008673665
0.016628254 -0.02502493 0.0016952826 -0.03720794 -0.0425595 -0.013395996 0.036765184 0.02027564
0.033966254 -0.038009126 0.021568635 0.034430258 -0.03371267 0.00494236 -0.030888628 -0.0531479
0.05111959 -0.027967298 -0.04928782 -0.046321806 -0.039602764 0.01615659 0.028327402 0.017902672
-0.008267125 0.0028884674 -0.035170995 -0.06279792 0.032633845 0.043225843 -0.015005577 -0.026197884
0.0035814357 0.005377936 0.0049844813 0.005025793 0.02205209 -0.040065426 -0.026391366 -0.0403057
-0.024967838 -0.034511473 -0.014113632 -0.022496762 -0.004249545 0.010655878 -0.029208744 0.03214535
-0.0092192115 0.010341992 -0.025724998 0.033586144 0.017972346 0.069006965 0.026032053 0.0038607507
-0.017809205 0.051596675 0.013297413 0.00050802727 0.039206047 -0.04101539 0.0009996084 0.046213925
-0.028531762 -0.04935094 0.013839531 -0.011018835 -0.020301385 0.00012597046 0.024907876 -0.014652461
-0.029643707 -0.018529693 -0.02181823 0.041488323 -0.020316271 0.04403592 0.016524997 0.024228575
0.02505289 -0.0110562155 0.019923296 -0.04712171 0.0072600003 -0.03679091 0.033832688 0.033114582
0.05444308 -0.02330555 0.0051310137 0.030806623 -0.0648124 -0.034329817 -0.0021335538 0.030769086
-0.025661757 -0.03486319 -0.06805547 -0.0186441 -0.01423807 0.029197076 -0.006821034 -0.020168796
0.03921565 -0.027258826 0.0066165784 -0.05292431 0.035823453 0.013929857 0.02948856 -0.037392
0.040651 0.0007806078 -0.017205985 -0.016136523 0.024656212 -0.013009203 -0.01417265 -0.027719982
0.054781362 0.03681535 0.017704604 0.030846307 -0.0152217755 -0.012547194 0.009914854 0.0009517134
0.0035649252 -0.04417258 -0.026689844 -0.041508432 0.008902219 -0.01372453 0.019670708 0.0036838916
-0.055931725 -0.048904125 -0.010782244 -0.015055432 0.0029915404 -0.008568201 -0.01647014 -0.009167676
