best_models/sheep_mesh_mip_nerf/sheep_mesh_mip_nerf_best.pt (torch, 745329 bytes, 11 tensors)

pos_encoding.frequencies f4 [10]
00000000: db0f 4940 db0f c940 db0f 4941 db0f c941
00000010: db0f 4942 db0f c942 db0f 4943 db0f c943
00000020: db0f 4944 db0f c944
3.1415927 6.2831855 12.566371 25.132742 50.265484 100.53097 201.06194 402.12387
804.24774 1608.4955

dir_encoding.frequencies f4 [24]
00000000: cdcc cc3d cdcc 4c3e cdcc cc3e cdcc 4c3f
00000010: cdcc cc3f cdcc 4c40 cdcc cc40 cdcc 4c41
00000020: cdcc cc41 cdcc 4c42 cdcc cc42 cdcc 4c43
00000030: cdcc cc43 cdcc 4c44 cdcc cc44 cdcc 4c45
00000040: cdcc cc45 cdcc 4c46 cdcc cc46 cdcc 4c47
00000050: cdcc cc47 cdcc 4c48 cdcc cc48 cdcc 4c49
0.1 0.2 0.4 0.8 1.6 3.2 6.4 12.8
25.6 51.2 102.4 204.8 409.6 819.2 1638.4 3276.8
6553.6 13107.2 26214.4 52428.8 104857.6 209715.2 419430.4 838860.8

mlp.0.weight f4 [256, 60]
00000000: fb4a f43d 2b05 9bbd 5420 efbc dff0 153e
00000010: 78c7 aa3d 2e67 483e 5db5 8f3d d39f 233d
00000020: 3657 1b3d c9da a33d 2062 a83c 14d3 b83d
00000030: 627c 393d b346 973d 5fce a83c c194 a3bd
00000040: eeb7 c63d a27d 54bb 25f3 9d3d 44ea e9ba
00000050: e8b9 81bd d6c9 b4bd 89da b23d b5e9 f03d
00000060: 1fc9 48bd 375d 223c 5c83 423d caf8 863d
00000070: afa8 8f3c f3c8 b8bd 622b 183e 0b65 843d
00000080: 5343 0b3d d36f 03be f24e efbd ac22 62be
00000090: 8f3b b2bd 09cf 65be 23fc 603c 3c65 083e
000000a0: deaf 9dbc 1f6d 863d 95d1 1e3e 9f57 5ebd
000000b0: 79f5 0b3d b2b5 da3d d84f d1bb 22a2 bbbb
000000c0: 08af c6bd 41b6 223e 3932 093e aa5f 73be
000000d0: 3380 643e 56d0 8abe d937 5fbc 0db1 003d
000000e0: d31b db3d 2c75 88bd 6628 a9b9 8e19 123e
000000f0: 8d2c cebd 9cbf dbbc 5aa5 b9bd 1852 fd3d
00000100: 88a7 343d a60f 1d3d 8207 17be 2a59 193e
00000110: ee28 66bd 4cd6 383d d150 cbbd 9034 633b
00000120: 3225 97bd 0e08 183e e6f2 0ebd 198d 9bbe
00000130: 9b67 7cbd f654 0dbe 52f3 4dbd e024 603d
00000140: 95a7 f7bd 6679 d03d b4a3 92bc 3c6d d3bc
00000150: 6f48 38be e2d2 633e adbf 2abe 5218 51be
00000160: 9aac 173d c2ef 0dbe 31bb dcbc f33f c63d
00000170: 06a9 9abe a5b3 ba3d eb50 b0bd b9fc 893c
00000180: 5a9e 083e 34f4 22be 6da4 2abd e227 81be
00000190: 915c a13d 1756 aabd 4a4e 26bd 01f4 413d
000001a0: 8755 853d 56d6 b6bd 0cea c73d da10 67bd
000001b0: 1f94 88bd 4453 ef3c d5e0 493c 883b ddbc
000001c0: 97dd d73c ec8b b5bd df54 a1bc f534 3c3c
000001d0: 5e82 833d 85dc 8ebc d5fb 133d 2e46 3fbd
000001e0: 391c 543c cfd9 833d cda9 a3bc 7b41 88bd
000001f0: d9a0 7bbd 2654 903d e2ca a2bd 4290 87bd
00000200: 83a9 f83c 348f 043e 59da 86bd 5d13 8cbc
00000210: 2ca5 c0bd 6ca5 64bd 8dbc adbc 36d4 f13d
00000220: fe5b bebd 4a45 4b3d 9c35 d1bc 4a04 b33d
00000230: de5b 963d cc7a 113c 7629 a83d 368d bb3b
00000240: 5287 e3bc d848 563d a1cc 85bc c3e8 9ebc
00000250: fd3f 953d f7c7 95bc 6f91 fc3d cb9c d63c
00000260: 1143 8abd 003f 59bc 84a5 54bc c88e d7bc
00000270: fa15 a13c f51d b53d cee5 a7bd 9734 31be
00000280: 5098 2cbe 0f3e 233e fdc9 783e a4c8 923e
00000290: e7e4 213d 8847 bbbc 85ff 8b3c b04c 183c
000002a0: 0f2c 31be bf10 c93e 4e20 e13d 10af b2be
000002b0: d53e 833e 7d46 5bbd 1b08 afbd 89fa 8d3e
000002c0: 9d5d 8abb ca03 9ebe da75 323e 55da 1f3d
000002d0: 4356 493d 9295 b53d 75c2 173b baea cd3c
000002e0: aa8d ffbb 5c38 0d3e 639e 97bd 3a88 d63b
000002f0: 92ce e5bc ef94 f83d adda 43bc 163c e9bd
00000300: 0b14 61bd 0b8a 993d 311c 233e 1db7 91bd
00000310: 4251 bfbc fef1 48bd 3392 19bd aea4 a83d
00000320: 7f2c 353d a05d ffbc dd24 c23c f652 17be
00000330: 280e bcbd 88c6 2a3e af1b 52be 2dad 253d
00000340: f686 0d3e 60ae 573c 1597 1a3e 61a3 153c
00000350: e458 063e 9df2 81bd 8e1f 633e 8e2c 253d
00000360: 51aa 2d3d de20 91bb cf50 303e a3b6 9d3d
00000370: df35 1abe c9cd 433d 04c0 fc3c d60b 963e
00000380: 9bbd 0dbe dd11 29bd 1c3a 9d3c 5765 7d3e
00000390: 1ca0 56be 271a b5be f13e 23be 3185 85bd
000003a0: c90e d83b ba3f dfbc 84ad cebd ebd0 25be
000003b0: 0f83 993d b633 413d c688 8a3d 3ba1 173d
000003c0: 5418 43bd 3051 9f3d 0e11 ea3d 99d7 a2be
000003d0: 413f cabd efd8 08be 5e46 47bc 69b6 da3a
000003e0: bee2 143e 67b2 bc3d a848 37bb a2bd 793d
000003f0: 7de0 b7b9 f4ae 783d fbb9 4bbe 0c91 a0bd
0.11928364 -0.07569345 -0.02919022 0.14642666 0.08338827 0.1957061 0.07017014 0.039947342
0.037924968 0.08000714 0.020554602 0.09024635 0.045284636 0.07386532 0.020606218 -0.07987357
0.097030506 -0.0032423516 0.07712392 -0.0017846306 -0.06334287 -0.0882756 0.087330885 0.11763326
-0.04901993 0.009909919 0.047488555 0.065904215 0.01753649 -0.09022703 0.14860299 0.06464585
0.033999752 -0.12835626 -0.116849795 -0.22083539 -0.08702766 -0.22442259 0.013731989 0.13319868
-0.0192489 0.06563782 0.15509637 -0.05428278 0.034169648 0.10679187 -0.006387692 -0.005726115
-0.09701353 0.15889837 0.13398065 -0.23766962 0.22314529 -0.27112073 -0.013624155 0.03141885
0.106986664 -0.06662974 -0.0003226429 0.14267561 -0.10067091 -0.026824765 -0.090647414 0.12369174
0.044105083 0.038345 -0.14748958 0.1497542 -0.056191377 0.045126244 -0.09927524 0.003466878
-0.07380141 0.14846823 -0.034899615 -0.30381086 -0.061622243 -0.13801941 -0.050280876 0.054722667
-0.120925106 0.10179405 -0.017900325 -0.025808923 -0.17996381 0.22248414 -0.16674681 -0.20419434
0.03702984 -0.13860992 -0.026944729 0.09680166 -0.3020708 0.09116296 -0.08609184 0.01684414
0.13341656 -0.15913469 -0.041660715 -0.2522574 0.07878984 -0.083172016 -0.040602006 0.04735184
0.06510454 -0.089276 0.09761438 -0.056412555 -0.06668877 0.029214509 0.012321671 -0.027005926
0.02635078 -0.088645786 -0.01969379 0.011487235 0.0642135 -0.017439136 0.036128838 -0.046697788
0.012946182 0.06438028 -0.019978428 -0.066531144 -0.061432693 0.070473 -0.07948853 -0.06619312
0.030354267 0.12945253 -0.06584615 -0.017099077 -0.09406504 -0.05582182 -0.021208072 0.11808054
-0.0929489 0.049626626 -0.025538258 0.087410524 0.07341741 0.008879375 0.08211033 0.0057236208
-0.027774487 0.052315563 -0.016332926 -0.019398099 0.072875954 -0.018283827 0.12332427 0.026197812
-0.06751073 -0.013259649 -0.012978915 -0.0263132 0.0196638 0.088436045 -0.08198129 -0.17305218
-0.16854978 0.15941642 0.24295802 0.28668702 0.03952494 -0.022861257 0.017089615 0.0092956275
-0.17301963 0.3927059 0.1099249 -0.34899187 0.25633875 -0.05353402 -0.08546468 0.27730206
-0.0042225854 -0.30862266 0.1742777 0.039026577 0.04915453 0.08866419 0.0023156677 0.02513634
-0.00779887 0.1379103 -0.07403257 0.006547001 -0.028052602 0.12137782 -0.011953992 -0.113884136
-0.054950755 0.07497033 0.15928723 -0.07115004 -0.023354176 -0.049058907 -0.037492942 0.08234535
0.044231888 -0.031172574 0.023699218 -0.14777741 -0.091823876 0.16677296 -0.20518373 0.040448356
0.13821015 0.013164133 0.15096696 0.009133191 0.13119847 -0.06345103 0.22180006 0.040325694
0.042398755 -0.004428967 0.17218326 0.07700851 -0.15059613 0.047803674 0.030853279 0.29305905
-0.1384186 -0.0412768 0.019192748 0.2474569 -0.20959514 -0.35371515 -0.15941979 -0.06519545
0.0065935594 -0.027252067 -0.10091689 -0.16192977 0.074957006 0.047168456 0.06764369 0.037018996
-0.047630623 0.07779157 0.11429034 -0.31805113 -0.09875346 -0.13364004 -0.012162773 0.0016686443
0.1453962 0.09213715 -0.002796689 0.060971864 -0.00035071737 0.060713723 -0.19895165 -0.078401655

mlp.0.bias f4 [256]
00000000: c73b 02be 6914 653d f664 623d 36d9 f83c
00000010: e92a 95bc 2ee3 eabd cc76 cfbd d0fa bb3d
00000020: b2ce 643d c2e3 efbd 9a11 90bb 1cab f1bc
00000030: 1afa 593d c269 b63c 4741 52bd 1825 4f3d
00000040: 01ee 113d c0c9 9c3d d1e1 0c3e 4568 efbd
00000050: 7847 cabc c36f 1ebe c038 ffbd 06e6 173d
00000060: b5d0 5ebd aab4 d7bd 059f 09be d283 4abd
00000070: 9bcb 913c f808 70bd 39dd a63d 80a8 863b
00000080: 2a34 b03a 1ac8 0c3d 2116 8ebd 6a84 82bd
00000090: aa46 42bd c8b5 a7bd 6954 8b3d a0df 783a
000000a0: be03 f4bd 5b88 ae3d 33a0 aabd 25ff 7bbd
000000b0: ceef e1bd e738 a63d 26e1 a1bd c2dc 2cbe
000000c0: 4b7f aabd 7d81 01be f0b1 61bc 9a1c 433b
000000d0: 9904 2ebe fbbc f6bd bc20 c33c 57ce 14be
000000e0: f634 90bd 9f8e a33d 6dd5 513d a254 b33d
000000f0: 408e 48bc a3b1 e33d 289c 693d 14f4 223d
00000100: 5408 21be 4afe 93bc 7012 39bd 59e2 3a3d
00000110: 06df 5bbd 3c6c c8bd b330 efbd bbb8 3a3d
00000120: 3081 c4b9 cc9c 763d d858 de3c 5da3 debb
00000130: 02e2 6abd b0da 803d 4228 8d3d fc10 56bc
00000140: e7a5 24bd a66d 63bd 1bcd 9c3d 9351 55bd
00000150: 61b0 15be 01d8 7fbd 6a3e 633d 3eba 87bd
00000160: 1215 473c 3a87 403d 5105 96bd 5b4d b4bd
00000170: 90c5 183d b0a9 1abe 5c71 dcbc bd57 fd3b
00000180: 201e d73d 2a60 45bd 3b5a 873d d7cf 873d
00000190: ad82 6cbd 3215 8b3c 1412 c23c ca3a 30bd
000001a0: fa1f 73bd 07dd a93b c172 493d d9b3 a6bb
000001b0: e7c0 133d f714 51bd 3ad1 5e3d deb3 a2bd
000001c0: 5580 03be 83a1 6abd eaa6 c53c 4c2f 9abd
000001d0: 812d 463c 549c 063c a48a c9bd 582a d93d
000001e0: 437f 443c 7738 0c3d 0909 12be 9008 3abe
000001f0: 69c6 503c f7a8 113e c391 afbd 71c4 6d3d
00000200: 7dd6 20be 948e 92bc b102 1dbe 1f3c b3bc
00000210: 66af 23be 358a 453b 46fa 35bd 8acd a9bc
00000220: 28bf b4bc cab4 103e 50c5 793d f99a 7c3d
00000230: 832b 3c3d 9ea2 e2bd afd1 d7bc fd32 313d
00000240: 40fd 7ebd 5f6b 2fbc 0f65 96bc 668e 1d3e
00000250: ad8a 32be 0691 99bd 5523 02be a178 fdbd
00000260: e2b6 03bd 0aaf e73d 6de4 f4bd d1b6 bdbd
00000270: 5ea6 3b3d b458 683b de6c e6bd 0aef 8f3d
00000280: 0276 3f3d 6ee0 033d 9922 1bbe 3828 b83d
00000290: 8747 6fbd bd16 23bd ddbb d53c 8a95 e8bd
000002a0: 5900 a5bd fbe8 4ebd 79f2 abbd f9bb 92bd
000002b0: 0c20 3fbd bf55 6fbd 3fc5 ebbd 554d 8f3d
000002c0: da12 e9bd bd52 70bd 8596 1f3d a207 2e3d
000002d0: 777b 713d 4730 ebbd 6cbd 3dbe 44da 97bd
000002e0: d5ac ad3d 4233 afbd 8cd1 e0bd 5464 cfbd
000002f0: 3daf 693b f7d6 703d 7a89 793d 20d6 eebc
00000300: 1184 d4bd cd63 eb3d aa4b 47bc 9969 f6bd
00000310: 7b5c 1fbd 2338 c4bd a292 c3bc 98b6 10bd
00000320: ce3b 213d fca2 4f3b 076f 0ebe 80a2 b83b
00000330: 959d a63d 151d 4c3c daee 8e3c d33c 893c
00000340: 090b 07be 11f2 373d 8a94 b5bd 95c8 1abb
00000350: 8d74 913d 0562 71bb 51c1 d8bd 0a59 0fbd
00000360: baac 27bd 3e7a e9bd a09e 3dbc d902 e5bd
00000370: 4ff1 a73d 96c8 a0bd 8854 a73d 9a1e 943d
00000380: 7a51 4b3b 54f7 7fbd 7ce5 8abd c7ff 0abe
00000390: 1711 f1bd 5c9c 91bc 1f9e 563d 2b54 84bd
000003a0: b907 bfbc e779 dcbd 6e72 8fbc 31e9 e3bd
000003b0: 1dc9 bc3d 3fb0 37bd 973b 8abd ebea 0cbe
000003c0: 6a5a d8bc 2416 8e3d 52ee 0ebd 54a1 873d
000003d0: 12fe f43d 622d e4bd 7ab8 ab3c f3b1 8a3d
000003e0: 704e 9dbd 1691 033b 02cf ce3d 4018 8cbc
000003f0: 72ce e7bd 2cba 8bbd 1178 b8bc 2abe 35be
-0.12718116 0.055927668 0.055272065 0.030377012 -0.018208938 -0.11469112 -0.101300806 0.09178698
0.055861183 -0.11713363 -0.0043966295 -0.029500537 0.05321703 0.022267226 -0.051331785 0.050572485
0.03562737 0.07655668 0.13758017 -0.1168981 -0.024692282 -0.15472321 -0.12461996 0.0370846
-0.054398257 -0.10532506 -0.13439567 -0.04944212 0.017797282 -0.058602303 0.081476636 0.0041094422
0.001344328 0.03437052 -0.069378145 -0.06372912 -0.04743067 -0.08188969 0.06803209 0.0009493772
-0.11914776 0.085221015 -0.08331337 -0.06152262 -0.11032067 0.08116322 -0.07904272 -0.16881087
-0.083250605 -0.12647052 -0.013775334 0.0029771687 -0.16993941 -0.12047764 0.02381932 -0.14531837
-0.070413515 0.07986187 0.05122893 0.08756377 -0.012240946 0.11117866 0.057033688 0.039783552
-0.15725833 -0.01806559 -0.0451836 0.04562602 -0.05367949 -0.09786269 -0.116792105 0.04558633
-0.00037480285 0.060208127 0.027141973 -0.0067943768 -0.057344444 0.06291711 0.06892444 -0.013065573
-0.04019728 -0.05552449 0.07656308 -0.05207975 -0.14618064 -0.062461857 0.055479445 -0.0662732
0.01215102 0.047003962 -0.07325233 -0.08803817 0.037297785 -0.15103793 -0.026909523 0.0077314065
0.10503793 -0.048187412 0.06609007 0.06631439 -0.05774181 0.01697788 0.023690261 -0.043024816
-0.059356667 0.005183819 0.049181703 -0.0050873575 0.036072638 -0.051045384 0.054398753 -0.07944463
-0.12841924 -0.057282936 0.024127442 -0.075285524 0.01209581 0.0082159825 -0.09840897 0.106037796
0.011993232 0.034233537 -0.14261259 -0.18167329 0.012742617 0.14224611 -0.08572724 0.05804867
-0.15706821 -0.017890252 -0.15333058 -0.021879254 -0.15984878 0.0030142192 -0.044428132 -0.020727891
-0.022063807 0.14131466 0.060979187 0.06167123 0.045939934 -0.11066173 -0.026345102 0.043261517
-0.062253237 -0.010706752 -0.018358735 0.15386352 -0.17435713 -0.07498364 -0.1270879 -0.12376524
-0.032156833 0.11312683 -0.11957631 -0.09263385 0.045812957 0.0035453262 -0.112512335 0.07028015
0.0467434 0.032196455 -0.15149917 0.08992046 -0.058417823 -0.039816607 0.026090557 -0.11356647
-0.08056707 -0.050515156 -0.08395857 -0.07164759 -0.04666142 -0.058431383 -0.11512231 0.06997172
-0.11380549 -0.058672655 0.038961906 0.042487748 0.058955636 -0.114838175 -0.1852929 -0.07414678
0.08480231 -0.085546985 -0.10977468 -0.10126558 0.0035657429 0.058798756 0.060922123 -0.029154837
-0.10376752 0.11493645 -0.012164036 -0.1203186 -0.038906556 -0.0958102 -0.02387363 -0.035330385
0.039363675 0.003168284 -0.13909541 0.005634606 0.08135525 0.012458106 0.017447878 0.016752636
-0.13187803 0.044908587 -0.08866222 -0.0023618091 0.071023084 -0.0036832106 -0.10583747 -0.034997024
-0.04093621 -0.11400269 -0.011573464 -0.11182184 0.08200323 -0.07850759 0.0817042 0.07232399
0.0031023906 -0.06249173 -0.06782052 -0.13574134 -0.11770838 -0.017774753 0.05239689 -0.06461366
-0.023319112 -0.107654385 -0.017510619 -0.11128462 0.09218047 -0.044845816 -0.06749647 -0.13761489
-0.0264103 0.06937817 -0.03489525 0.06622568 0.119625226 -0.111414686 0.020961989 0.06772222
-0.076809764 0.0020075492 0.10098077 -0.017101407 -0.11318673 -0.06822619 -0.02251819 -0.17748323

mlp.2.weight f4 [256, 256]
00000000: 5d98 b1bb 34bf 3fbc 4e40 683c 5c00 843d
00000010: a056 04be eb32 b03d a7e0 22bd fe0a 97bd
00000020: a77f d53c 71c1 f33d 27d5 583d 6cc0 7f3d
00000030: 6bc1 8bbd 0cdb ce3d cc61 e2bd d229 c1bd
00000040: e5a0 13bb 5ef3 86bd 1246 f03c 828d c3bd
00000050: 6864 4ebd 72b0 003d c4c5 d5bb ec2a 6e3d
00000060: 2226 9e3c 90c6 0cbe 4e17 8f3d ec03 a33d
00000070: aac7 ad3d 49ec b4bd e043 fdbd c4f2 993c
00000080: 9e16 4e3d e0f3 4c3c 1ccb b83d dc6c bdbc
00000090: 150e 06be 557f 9f3d a40c f13c f234 973d
000000a0: cdb0 1b3d 1ab5 013d e7d8 ae3d 24da d33d
000000b0: 5b7b 923b 6c3f db3c 6cd3 0fbe 21ab 553d
000000c0: 261e f73c 036e bc3d e94c 7e3d b309 803d
000000d0: 7626 9d3d 9aec 693d ff92 893d 207c 473c
000000e0: aaf4 8fbd a09d 0d3d e077 263d a1f0 d2bb
000000f0: 6032 c33d 059a 05bd 9106 5a3d 0ff5 ed3d
00000100: 5917 ab3d 280e 3d3b aa86 813d fe64 303b
00000110: fee1 ba3d f4d9 713c d9ed b5bd acad 96bd
00000120: 82e4 74bc 8d80 f5bb f70a 2b3b eff3 b1bc
00000130: 386c 293d db0c f53a b850 55bc 8fd5 393d
00000140: 14fa 80bd 937a bcbd 49fb cabc ccc8 ed3b
00000150: ee6e 06bc 72f2 663d 3d68 613c de62 8bbc
00000160: a798 26bd 9071 f13c 2be8 c2bb c59b bebd
00000170: 6aaa 47bd 1797 bb3d c04d 0c3d 982f 5e3d
00000180: a361 05bd cd54 5fbc 4115 0e3c 3ac1 903d
00000190: 8a9b 8f3d 6741 8f3d b905 a8bd 61c7 cabc
000001a0: 965d febd c479 15bc 6af3 d33d 848b a43d
000001b0: b928 823d dd68 223c f846 9b3d 34fd 913d
000001c0: 0cf1 c13c 556e 6a3d cc6e 16bb 1914 a3bd
000001d0: 6de4 9d3d 0e2b 7a3d 8ab3 d83d 6693 0d3d
000001e0: 8d26 d43d 48aa b33c 1784 673d 6a5d 373d
000001f0: 19b4 d2bc 0a86 c1bc b436 b0bd f47c aa3b
00000200: 2620 44bd 8d69 b43d 175a 183d f75f 9b3b
00000210: 9e04 d93c 5f7f c2bd 3d71 bf3d faec 543d
00000220: 1bc1 68bd 508a 0ebd cd84 5a3d 8868 933d
00000230: a6f5 25bd 06ca a0bd 34e6 903d 99dd 923d
00000240: 05e8 cc3d 30f1 a53d b48b 92bd 51ee dbbd
00000250: 514c be3c c787 8d3d a650 5d3d 4869 2dbc
00000260: 5cde 3d3d 6922 53bd 9853 d73a 8fe3 7b3c
00000270: f4c6 803c a7f8 873d 21de 653c 4963 6fbb
00000280: c6b2 b43d 6bf4 c8bd 9ca7 423c b61a cc3b
00000290: 9a4e aabd adf3 d73c 5f67 59bd 7ac2 53bd
000002a0: 4f19 cf3d 3edd 493d 902f cc3d 2ed8 c5bd
000002b0: 7b56 ae3d fc69 88bd 252d 073d 6239 fdbd
000002c0: c6de 54bb ca9c 2d3d d469 113c 3d89 4abd
000002d0: 8248 6d3d 01b2 f8bd 994c 813a 8627 983d
000002e0: 9702 0d3b c961 533c 9dc1 b23d 6e59 67bd
000002f0: 37e7 123d 709d 2fbb bc98 2b3d f793 953c
00000300: 1443 5c3d 0e00 babd 1445 b63d e37d a93d
00000310: 5c5a 853d b57e 26bb 7d41 89bd 5e07 9cbd
00000320: e9f3 063d cf1e 223d 0121 fd3c ee66 bebb
00000330: 838d 193d 1936 b6bc 59bc 193b 9104 403d
00000340: 8562 3abc e623 12bd 26cc 003d f91a b43d
00000350: 5c76 603b 1c75 1b3c 5252 903d d10b ae3d
00000360: e192 243c bfac 5c3d 6307 723d 674e 483d
00000370: 9606 883c 89ff c93d 285a 693d a863 2abd
00000380: 5c99 843d 65bf aa3d ab2b 50bd 8fc1 9eba
00000390: bbcb d6bc d289 bc3c fbf0 9b3d 0ec3 993d
000003a0: 3e13 673d db38 0e3d 407c 8b3d f387 a93d
000003b0: 3b50 7bbd f2a1 52bd 7fbe 893b 60c5 953d
000003c0: be1b 583d 354e 08bc 71ae 22bd 0017 893d
000003d0: 92db afbd 95d6 fc3c 9a4e b6bd fdfb c83d
000003e0: 7558 8a3d af72 afbd 9a69 c03c ea3b 4b3d
000003f0: 93ce 2a3d 7447 513d c3b0 83bd 641e dfbb
-0.0054197744 -0.011703301 0.014175488 0.06445381 -0.1292367 0.08603462 -0.039765026 -0.073751435
0.026061846 0.119021304 0.052937653 0.062439367 -0.06824001 0.101003736 -0.110538095 -0.09431805
-0.002252632 -0.06589387 0.029330287 -0.09548475 -0.050388724 0.03141827 -0.0065238196 0.058146402
0.019305293 -0.1374762 0.06986867 0.079597324 0.084853485 -0.0883413 -0.12366462 0.018792517
0.05031454 0.012509316 0.09023115 -0.023123197 -0.1309131 0.077879585 0.029424973 0.073831454
0.038010407 0.031666853 0.085374646 0.103443414 0.0044702715 0.02676364 -0.14045495 0.052165154
0.030165743 0.092006706 0.062085066 0.0625185 0.076733515 0.057110406 0.067174904 0.01217559
-0.07029088 0.03457415 0.040641665 -0.0064373766 0.09531093 -0.032617588 0.05322892 0.11619007
0.083540626 0.002884755 0.06324513 0.0026915665 0.09125136 0.014761437 -0.088832565 -0.07357344
-0.014947059 -0.007492131 0.0026099065 -0.021722762 0.04136297 0.0018695848 -0.013019733 0.04536968
-0.062976986 -0.09203067 -0.024778025 0.007256603 -0.008205159 0.056383558 0.0137577625 -0.017014917
-0.040672924 0.029473096 -0.0059480867 -0.093070544 -0.048746504 0.091596775 0.034253836 0.054244608
-0.032563817 -0.013631058 0.0086720595 0.07068105 0.070120886 0.069948964 -0.082042165 -0.024753274
-0.12420194 -0.0091232695 0.10349162 0.08034423 0.063554235 0.009912697 0.075818956 0.07128373
0.02367451 0.057234127 -0.0022954224 -0.07962818 0.077095844 0.061076216 0.10581119 0.0345644
0.103589155 0.021931782 0.056522455 0.04476682 -0.025720643 -0.023623485 -0.08604184 0.005202884
-0.04788222 0.08809195 0.03719529 0.0047416645 0.02649146 -0.0949695 0.0934777 0.05198381
-0.056824785 -0.034799874 0.053349305 0.07197672 -0.04051747 -0.07851033 0.07075158 0.07171173
0.10005192 0.081026435 -0.071555525 -0.107388146 0.02322975 0.06910663 0.05403199 -0.010584183
0.046354637 -0.051546488 0.0016428111 0.015374078 0.015719868 0.066392235 0.01403001 -0.0036527684
0.08823161 -0.09812244 0.0118807815 0.00622877 -0.08315773 0.02636131 -0.053077098 -0.05169914
0.10112249 0.04928326 0.09970009 -0.09660374 0.085125886 -0.0666084 0.033002038 -0.123644605
-0.0032481416 0.042385854 0.008875329 -0.049447287 0.057930477 -0.121433266 0.0009864747 0.074294135
0.0021516436 0.012901732 0.08728335 -0.05648177 0.035865035 -0.002679672 0.041893706 0.018259032
0.05377491 -0.09082042 0.08899894 0.08275964 0.06511375 -0.0025405113 -0.06701944 -0.07618593
0.032947455 0.039580163 0.030899527 -0.00581061 0.03748847 -0.022242593 0.0023458211 0.046879355
-0.011376028 -0.035678767 0.03144469 0.08794207 0.0034250235 0.00948837 0.07046951 0.084983476
0.010044784 0.05387568 0.059089076 0.048902895 0.016604703 0.098631926 0.056970745 -0.041598946
0.064745635 0.08337287 -0.050822895 -0.0012112128 -0.026220193 0.023014937 0.07614323 0.07507907
0.056414835 0.03472219 0.06810808 0.082778834 -0.06135581 -0.051423974 0.004203617 0.07313037
0.052760832 -0.008319427 -0.03971714 0.0669384 -0.085868016 0.03086404 -0.08901711 0.09813688
0.06755153 -0.08566796 0.023487855 0.049617685 0.04170091 0.051093534 -0.06430199 -0.0068090428

mlp.2.bias f4 [256]
00000000: 5a53 7fbd 8d07 51bc eb51 cfbb 768a 67bd
00000010: 58f0 43bc 9e96 013e 93bf 75bd a51d 963d
00000020: 73ef e83c 8b3d 653d 0707 023c 09e4 cf3d
00000030: 34f6 d4bb 7b79 a7bd b13a 5e3c c560 b2bd
00000040: 956e 063c def0 183c fd39 183c afc5 28bd
00000050: 349e 573d d23c 943d 4fb4 123d 999b 2ebd
00000060: b108 543d 8d8c 093d debf f53c 865d f33c
00000070: 4d7e 77bd 4ce3 95bd 13bd 92bc fdb9 f3bc
00000080: caf7 3b3d 7605 49bd 2261 4c3b 435f 78bd
00000090: f2e4 013d a621 023c 91a9 a13d b8c0 32bd
000000a0: 9f26 8ebb 104b 8abc f87d 10bc 9307 993d
000000b0: 8992 33bd 571e 45bc 5c7a d73b 2c44 e33b
000000c0: e059 953b fef5 333c b6c8 c2bc 7c0d 273c
000000d0: 9af4 a53d 2d08 993d ccba b6bc 640f 08bc
000000e0: 33cb b13c 2d8d e5ba f443 4ebd 7910 6a3c
000000f0: 524c c03c 5f03 a7bd 81e3 c13d 4d37 0b3e
00000100: cfeb f5bc d5a5 d9bb 0ac1 863d 4e07 e53d
00000110: 5cb6 5fbd dd37 1b3c c205 8d3d c700 c0bc
00000120: 2aa5 1ebd 9ef0 343d 2aef 78bc 825e 7bbd
00000130: 3ba4 73bd 6639 f73c dffa 96bc c41f 81bc
00000140: 7354 b03d a54f cf3d 521c 6a3d dfcc 833d
00000150: 6837 453c 7ecc 57bd 1b5a edb9 e9d2 8abd
00000160: 1c36 7e3d d2e3 cd3d f803 10bd b533 8bbb
00000170: 8e22 40bc 77e2 9dbc 89e9 643c 394a e33c
00000180: 0174 0a3c 1bbf 72bd 9da5 243d 7563 d33c
00000190: b909 b2bb 39ae bf3c bbd9 c0bc dc03 b43d
000001a0: 3ad1 b83c 2589 d93d 6cb6 5ebb 5d39 063d
000001b0: 6e51 313d 3487 b13d 6f14 343d 913c 193c
000001c0: cea3 82bd 318b cf3c 4741 223d 4074 6e3b
000001d0: f7e5 91bd f8fd 35bd d9a9 8f3a 01b3 90bc
000001e0: c6be aa3a 7ca8 8abc 75e5 543d 0d81 a03d
000001f0: c2c1 b33c 71a8 c9bc 8271 03bb d18c 9a3c
00000200: 3735 bf3a 227a d53c c6bb ba3c 6a83 693d
00000210: 98ea c63c 4497 12bd 1ac9 513d 4e12 ca3d
00000220: bbcc be3d 5153 143d 3201 e9bc 5c86 08bd
00000230: 7d9d 54bd 0faf 863c 9c35 193d 3f22 493d
00000240: 2600 99bc 41c9 4bbd d624 02bd dc01 86bd
00000250: 8376 88bc 735d 993d 9e47 35bc ae2d 37bd
00000260: bfe6 863b 2660 7bbb b7a6 29bc e93d 733a
00000270: c8d1 44bc 2f0d 5e3c 527b 5cbc 6713 a23d
00000280: 7136 ab3c 8328 98bb bbf8 8c3c e95c 6f3c
00000290: 2d62 6fbb fec4 75bd 650b fbbc c0fd 113d
000002a0: 8b59 6abd dc6a 043d 946e 5cba e9ef 66bd
000002b0: 4cc7 823d 2686 ce3c 7be4 4dbc 42a4 98bc
000002c0: 3982 5a3d 261e 22bd 614a 8abb 34f5 51bc
000002d0: 581c 1f3d f151 db3c 31af 98bc 5e17 603b
000002e0: 0563 633c d869 8f3d 0801 0db9 ab36 963d
000002f0: 9b7d 7a3d ddc7 98bc 8ba7 e53d fa6a a8bd
00000300: 5338 d23c bfbe 5cbd 2bee 84bb dada 11bd
00000310: d94a b73d 931e d63c def2 853d 45a9 623d
00000320: 3117 f33d a4ba 6abd ac32 80bb 28fd c8bc
00000330: cf20 e63d 02c0 6d3d eb1f 4cbd a4fc 05bb
00000340: a287 993d 069c 153d a464 293d df40 063d
00000350: f521 493d f4a7 ddbb e48d bf3d c3ce 633d
00000360: cf3d 8e3d d4bf 8abd af2f 633d 72c9 b63b
00000370: 3c68 9b3d 3ce9 d4bc b779 57bd e771 123c
00000380: d971 603c 3664 ffba 3b58 22bc 4696 5bbd
00000390: dfb9 953d 9a2e aa3c 52f3 a4bb 7f56 bb3d
000003a0: d3b4 dd3c 0953 37bd a8c0 03bd fddd 53bd
000003b0: 69f9 e6bc 4877 8cbd efd5 2fbd 20ad 0e3c
000003c0: c68d 313d f0c5 56bd 2132 2c3c 4735 973d
000003d0: 54f4 593c 21e7 49bd 9a00 113d 5fa0 d03d
000003e0: f377 62bd 5ef1 c33c f9d6 59bd 377e 143d
000003f0: 755f a5bd bb7a b2bc 50c5 ee3c 20df 933c
-0.06233535 -0.012758148 -0.006326904 -0.05652853 -0.011959158 0.12655112 -0.059997153 0.07329873
0.02843449 0.055966895 0.007936246 0.10150916 -0.0064990763 -0.081774674 0.013563798 -0.087098636
0.008205076 0.009334771 0.009291169 -0.04120415 0.05264111 0.07238163 0.035816487 -0.04262886
0.0517661 0.033581305 0.029998716 0.029707681 -0.060423184 -0.07318744 -0.017912423 -0.029751772
0.045890607 -0.049077474 0.0031185825 -0.060637724 0.03171248 0.007942593 0.0789367 -0.043640822
-0.0043381 -0.016881496 -0.008819096 0.07472148 -0.04384092 -0.012031159 0.0065758657 0.006935617
0.004557833 0.010983942 -0.023777347 0.010196086 0.08103295 0.074722625 -0.022305869 -0.008304451
0.021703338 -0.0017513387 -0.050357774 0.014286154 0.023473892 -0.0815494 0.09467221 0.13595314
-0.030019669 -0.006642083 0.06579788 0.11183034 -0.05461727 0.009473768 0.06885864 -0.02343787
-0.03873173 0.044174783 -0.01519374 -0.061369427 -0.059482794 0.030178737 -0.018430172 -0.015762217
0.086098574 0.10122613 0.057155915 0.064355604 0.012037136 -0.052685253 -0.00045271296 -0.06778509
0.06206332 0.10053219 -0.035160035 -0.0042481073 -0.0117269885 -0.019273026 0.013971695 0.027745353
0.008450509 -0.059264284 0.040197004 0.02580426 -0.005433288 0.023398506 -0.023541322 0.087897986
0.022560704 0.10621861 -0.0033983244 0.03276955 0.043290548 0.08668366 0.0439648 0.009352819
-0.063788995 0.025334926 0.039613035 0.0036385208 -0.071239404 -0.044431657 0.0010960653 -0.01766348
0.0013026826 -0.016926043 0.05197664 0.078371145 0.021942977 -0.024616452 -0.002005667 0.018865975
0.0014588003 0.026059214 0.022794615 0.05701009 0.024281785 -0.03578879 0.051217176 0.098667726
0.09316393 0.03621227 -0.028442953 -0.03333126 -0.051908005 0.016440896 0.03740464 0.049104925
-0.018676829 -0.049752478 -0.03177341 -0.065433234 -0.016658073 0.07488527 -0.011064438 -0.044721298
0.0041168625 -0.003835687 -0.010354689 0.00092789397 -0.012012906 0.013552948 -0.013457136 0.07913857
0.020899983 -0.0046435012 0.017208448 0.014609554 -0.0036527023 -0.06000232 -0.030645082 0.035642385
-0.0572143 0.03232847 -0.00084088114 -0.05638114 0.06385669 0.025210451 -0.012566681 -0.018633012
0.053346846 -0.039579533 -0.0042202924 -0.012814809 0.03884539 0.026772471 -0.018638225 0.0034193615
0.013878589 0.0700261 -0.00013447192 0.07334646 0.061154943 -0.01864999 0.11213597 -0.08223529
0.025661623 -0.053892847 -0.004056712 -0.035609104 0.08949823 0.026137626 0.06540464 0.05533721
0.11869658 -0.0573069 -0.0039122906 -0.024534777 0.112367265 0.05804444 -0.049835127 -0.0020444775
0.07496573 0.03652575 0.041355744 0.03277671 0.04910465 -0.0067644063 0.09353235 0.055617105
0.06945383 -0.067748696 0.055465396 0.0055782134 0.075882405 -0.025990121 -0.05260631 0.008938289
0.013699018 -0.0019484821 -0.009908731 -0.05361011 0.07310843 0.020774174 -0.005033889 0.09147357
0.027063763 -0.044756923 -0.032166153 -0.051725376 -0.0281951 -0.068586886 -0.042928632 0.008708268
0.043348096 -0.05243486 0.010509999 0.07383209 0.013302881 -0.049292687 0.035400964 0.10186838
-0.055290174 0.023918804 -0.05318353 0.03625318 -0.080748476 -0.021787038 0.02914682 0.01805073

density_layer.0.weight f4 [1, 256]
00000000: 1a4f c23d e326 f73d 28be ce3d a795 1f3e
00000010: 8601 ba3d 46ae debe 883d b83d a626 57be
00000020: 31fb 4ebe 9628 aebe 12b1 efbe 4920 35be
00000030: 6c9c 7dbe a924 bb3d 3df2 cf3d e066 2b3e
00000040: d184 32be a2a3 a4be a1f4 82be 71fc e83d
00000050: 27ac abbe 04a6 dbbe fb61 6fbe 0291 203e
00000060: c6a7 94be 30b9 35bf 7dbd 64be 3539 fa3d
00000070: 7131 993d 8004 d63d b44b f03d 3918 f53d
00000080: 3512 febe 793b d23d ede2 d33d ca24 f73d
00000090: 48d8 b2be 1e4d 033e 74c9 6fbe 55d2 f63d
000000a0: c0f9 db3d 7ec0 0a3e 1813 cf3d f687 8abe
000000b0: 8192 293e 80c6 db3d ed32 f13d 2f48 f43d
000000c0: ee74 e53d 0553 6cbe 9101 ec3d b31d d73d
000000d0: c387 a2be c139 a2be 932b db3d 0b7e f93d
000000e0: 1198 203e 5e8b cb3d 1dd9 d73d 93aa 88be
000000f0: 4384 63be 362d e13d 5fad 03bf 72da 5bbe
00000100: e5ce ec3d 30df 9ebe d5d8 aebe e3dc a7be
00000110: b793 973d 33e5 3bbe 17a4 bcbe 25e0 ba3d
00000120: 75ce 083e ae0e 9cbe 1075 d63d 3043 063e
00000130: 10de b43d 98d0 903d 7b34 053e 4d22 c13d
00000140: 085a 30be d56b 7ebe c50b 3ebe 82de 80be
00000150: c32a 60be e303 063e 10ad 213e 849c 003e
00000160: 1b4b 5bbe 4c5c 89be ff06 c33d b009 a2be
00000170: a064 a5be f173 bb3d 3469 9fbe 6fb1 b0be
00000180: 3e58 a53d fcb2 dd3d ca7d c6be e8c3 bd3d
00000190: de66 cd3d e99b 8abe b885 8abe 490d 45be
000001a0: e5ac 023e b08a 39be 6200 d73d 8be2 a33d
000001b0: b32e aebe af66 9abe 6fd5 a1be fde1 81be
000001c0: fe78 cd3d c2cf 993d 8d8d 37be 684f 0abf
000001d0: 157b 093e 5f5e d03d 0643 013e 3732 d13d
000001e0: 71cf b53d 8d5a 07bf 8da1 73be 217f 94be
000001f0: 384c 16be cc97 d23d e3ab 1a3e f51d 95be
00000200: 01a3 8fbe 7a31 b2be d3aa ff3d 1bdd d4be
00000210: dbf4 b7bd 1988 ae3d 37b1 e7be 4eaf b5be
00000220: cb5d a0be 687b 1a3c 8d48 ac3d 8e6b 033e
00000230: 10f8 c83d 0dd7 9bbe 3eee b3be cb48 4dbe
00000240: d8a7 8fbe 0f92 953d 69c9 ba3d 7ec4 203e
00000250: 1326 9ebe 474b 81be ce29 9d3d bbde af3d
00000260: 2ae8 ac3d 1584 c43d f806 a93d 17da 43bf
00000270: 952a c93d 5ac1 e93d b91c e33d 632e 31bf
00000280: 29a9 e43d f962 db3d f72a e73d 0d0b b23d
00000290: 9fbb bebe bcdd b93d dd4b 6dbe 4bce c73d
000002a0: 01cb d73d b158 ff3d f21f 8f3d 5b9a 093e
000002b0: 965a eebe b21d 8c3d 688e dd3d 0ff2 df3d
000002c0: 3ba4 c5be c491 c73d 7762 ea3d 1072 e93d
000002d0: 43f2 8bbe 08b4 81be 153d f23d 86fd 9e3d
000002e0: adbc 71be a565 8abe 28d1 d73d 7bfd a5be
000002f0: 0278 4cbe c66b ac3d 104a 9cbe e32c 1d3e
00000300: 018d 80be 9340 dc3d 0d8c 0d3e 60be ec3d
00000310: 15c0 66be 5b47 5cbe e340 97be e3d5 94be
00000320: be58 74be f7a4 2c3e 14aa 2fbe 4bf3 af3d
00000330: 05bc a4be 429a 71be 1101 833d 202f 74be
00000340: f255 51be 4b54 26be 9717 5fbe 1474 c93d
00000350: 94a5 99be 259a fc3d 286d a8be 8485 83be
00000360: 000a 77be 16b7 a23d f5b0 86be e4fe b23d
00000370: 10bd e5be 4a10 cf3d eb59 f23d 3b81 d63d
00000380: 6ce4 f03d cd37 a23d 1928 a43d 4650 053e
00000390: c119 a1be 7e3e 93be 2c5e fc3d a69e 39be
000003a0: 57c6 d9be ce7d f83d b240 f83d 5664 e03d
000003b0: c195 c93d 1633 ec3d 04a8 b03d f43d bfbe
000003c0: ea33 c73d 3ad4 f43d af44 d0be 950e ccbe
000003d0: a11d 9bbe 3220 953d f9ac a83d be3b 85be
000003e0: ca02 0e3e c833 92be a9be d23d 2dfe ddbe
000003f0: 2f8c 0c3e c930 abbe 0f4d 923d 424f 96be
0.09487744 0.12067964 0.10094863 0.15584432 0.09082322 -0.43492335 0.08996111 -0.21010837
-0.2021301 -0.3401534 -0.4681478 -0.17688097 -0.24766701 0.09137852 0.10153625 0.16738462
-0.17433478 -0.32156092 -0.25577262 0.113762744 -0.3352978 -0.42900097 -0.2337722 0.15680316
-0.2903425 -0.709857 -0.22337909 0.122179426 0.07480133 0.10450077 0.11733189 0.11967511
-0.49623266 0.1026525 0.10346017 0.12067564 -0.34930634 0.12822387 -0.23416692 0.120518364
0.107409954 0.13549992 0.10111064 -0.27056855 0.16559793 0.1073122 0.117772914 0.119278304
0.11203943 -0.23078544 0.11523736 0.105037116 -0.31744203 -0.31684688 0.107016705 0.12182244
0.15683009 0.099386916 0.10539458 -0.26692638 -0.22218423 0.109949514 -0.5143642 -0.21470049
0.115628995 -0.31029654 -0.34149805 -0.3278571 0.07401221 -0.18349151 -0.3684394 0.091247834
0.13360007 -0.3047995 0.10471547 0.13111567 0.088314176 0.07071036 0.13008301 0.094303705
-0.17221844 -0.24845822 -0.18559177 -0.2516976 -0.21891312 0.1308742 0.15788674 0.12559706
-0.21415369 -0.2682823 0.09522819 -0.31648016 -0.32303333 0.091529734 -0.3113495 -0.3451037
0.080734715 0.10825154 -0.38767844 0.09265882 0.10029386 -0.27072075 -0.27055144 -0.19243349
0.12761267 -0.18119311 0.1049812 0.08002194 -0.34020004 -0.30156466 -0.3160815 -0.25367728
0.10032843 0.0751033 -0.17925091 -0.54027414 0.13425858 0.1017425 0.12623224 0.10214656
0.08877457 -0.52872545 -0.23792095 -0.29003242 -0.14677513 0.10282859 0.15104632 -0.29124418
-0.2805405 -0.34803373 0.12483754 -0.4157494 -0.08982249 0.08522052 -0.45252392 -0.3548531
-0.31321558 0.009428836 0.084122755 0.12833998 0.09812939 -0.30437508 -0.35142702 -0.200473
-0.28057742 0.07303249 0.09120447 0.15699956 -0.30888423 -0.25252745 0.07673989 0.08587404
0.08442719 0.09595505 0.08253282 -0.76504654 0.09822575 0.11413832 0.11089463 -0.69211406
0.11165077 0.10712237 0.11287492 0.08693514 -0.3725252 0.090754956 -0.23173471 0.09756144
0.10536767 0.124680884 0.06988515 0.13437788 -0.46553487 0.068416014 0.108181775 0.10934841
-0.3860186 0.097445995 0.11444562 0.11398709 -0.2733327 -0.25332665 0.11828057 0.077631995
-0.2360713 -0.27030674 0.1053794 -0.32419953 -0.19967654 0.08418994 -0.30525255 0.15349154
-0.25107577 0.10754504 0.13822956 0.11559749 -0.22534211 -0.21511595 -0.29541692 -0.29069433
-0.23861977 0.16859804 -0.17154723 0.08591326 -0.32174698 -0.23594001 0.06396688 -0.23846102
-0.20442942 -0.16243093 -0.21786343 0.09836593 -0.3000914 0.12334088 -0.3289578 -0.25687802
-0.24124908 0.07945077 -0.26306883 0.08740023 -0.44870806 0.10110529 0.11833557 0.104738675
0.11762318 0.079207994 0.080154605 0.13018903 -0.3146496 -0.28758615 0.12322649 -0.18126926
-0.42534134 0.1213337 0.12121715 0.109566376 0.098430164 0.11533181 0.086257964 -0.37351954
0.09726699 0.119545415 -0.406774 -0.39854875 -0.30296043 0.072815314 0.08236117 -0.26022142
0.13868251 -0.2855513 0.10290272 -0.43357983 0.13725351 -0.33435658 0.07143604 -0.29357344

color_layer.0.weight f4 [256, 400]
00000000: 3108 d4bc a133 9fbb d723 2cbd 467e 58bd
00000010: 5b5e 57bd 97d9 a83d 6622 aabc 5896 053e
00000020: 4212 f13c 5db7 43bd 763e 08bd f4cd d3bb
00000030: 976b 24bd 0120 f73b dcf9 d23c da7c 0b3c
00000040: ac72 93bc e8d2 28bd a776 aa3d b4b0 f1bb
00000050: e24f 8bbd 48c7 f53d a512 413d 673e 4abc
00000060: 570c f03b f079 063c d8fd 3bbd 0e97 8a3b
00000070: e2e1 4e3c b326 0abd 41bd 993c 23b4 e33c
00000080: cd90 2a3d 2fa3 e8bc d8dd 89bc 486d 30bd
00000090: 1499 34bd 1a56 bcbc 1f52 e8bc 2f84 0dbc
000000a0: 1da8 9d3c fc55 dcbc 6925 e93c 0707 743c
000000b0: 97af 4f3d 678b 363c 8c18 a6bd fbab 7c3c
000000c0: 0912 e83b 5f5d 07bd 28ad ad3b dbe6 15bd
000000d0: 6011 6fbb 3ad6 a8bb 916a 00bc 2c3c 153d
000000e0: 30d7 70bd 3844 9bbc 10c4 ffbc 19ad f3bc
000000f0: 0429 16ba efa6 333c 5c9b a63d b494 b63c
00000100: 0f93 0cbd 2843 b83c 0017 27bd 912c f03c
00000110: 3364 853b 6efe 0cbc f85c eb3c 8b35 83bd
00000120: f56b c03c 03cd c8b9 0c64 80bc 689d f1bc
00000130: 8aec d43c 4e50 cbbb 2651 2a3d 7dfa 61bd
00000140: ad31 823c d724 bcbc a209 aabd eb2f 633a
00000150: 60f6 a43c c0b3 f8bc a196 dbbc 8250 33bd
00000160: 99c2 9ebd 67f8 48bc 4cce 5abd 5909 3abc
00000170: 4bbe cdbc 7de9 8cbc 571b 343d 522b 7dbc
00000180: 7082 75bb 37d2 46bd 1a3e 37bc efbd 7bbd
00000190: 6026 55ba e709 c9bd de04 b6bd a1af 3ebc
000001a0: 5b0c 063d 81ff d5bc 7402 c4bc 7692 7ebb
000001b0: 4b7f 91bd db53 d63d dd4c 48bc 2ae5 8ebd
000001c0: 8fc9 a3bc 02a3 00bb d231 043d 937e 52bc
000001d0: 72f6 30bd 81a0 aa3c 9c13 cf3c d9da e1bc
000001e0: 2cdf 3cbd c0a7 04bd c6de 84bd 6511 413d
000001f0: 3643 89bd b4ef 09bc 48a5 67bb cea7 62bd
00000200: 18e0 053c a90e 773c c873 4dbd 900a 87bd
00000210: f910 ecbc 928c 7b3c 16e7 73bd f6b1 d3bc
00000220: ae07 93bd 8ddb 403d 4c23 a9bc df0e efbc
00000230: 37bc 4c3c be3b 11bd 9e02 e5bd 46b4 48bd
00000240: a932 16bd d65c 21bd 440e a13c f060 85bd
00000250: c06e b2bc f2df 6abc c2de f93c 7186 20bb
00000260: 8fe7 493c 8338 63bd 7957 06bd 4bf8 9ebb
00000270: f3d3 eabc 6a37 3cbd e10f 75bb 5132 9d3d
00000280: aebc 53bd 1b23 113d 7c23 7abd 5b25 57bd
00000290: 0d2e 643c a3da 9eb9 e9f2 5abc 4b96 f23c
000002a0: 0d4d 863c e522 df3c 86e5 613c d0f4 b83b
000002b0: f8df 60bd 2a9e c13b b6c1 40bd 1f24 8cbc
000002c0: 607e 393d c52f 0cbc f9d3 6cbc 6f7f ebbb
000002d0: 68b0 02bc 23df 0cbc 7c19 19bd 7adf 6dbc
000002e0: a3fe ba3a a047 bebb 2643 ebbb df4a bdba
000002f0: 90da 77bb 2d1c eebc abd7 ad3b b5b9 c4bc
00000300: bdb8 93bd 996c 9ebd b746 4f3c 7fd9 a9bc
00000310: 7296 453e 45ef f8ba 03d6 3f3d 1a32 413c
00000320: f84b 13bc c7a3 28bc 2a2e 2cbd 4b1b 2c3d
00000330: bd97 ce3c f460 42bc 13e6 6c3c 4603 6dbd
00000340: 5eb4 2cbd de3c 7e3c 841d 0e3d 3aab 063d
00000350: cd44 e33a 99e4 07bd 5d89 c5bc 2cd5 31bd
00000360: 3709 babc 679f 4a3b 03ea 5c3c c05e 26bd
00000370: dca6 ef3b 3b58 b3bc 530d a0bc 6060 a63c
00000380: b402 623a 6057 93bb f4c0 c1bd f24b b2bc
00000390: 2316 c03b 882a f6bc 0e7b 6bbd 9846 07bd
000003a0: 02e3 503b f8af 983b f0e6 953c 39a2 883c
000003b0: 563d 0cbd baa6 efbc 13d8 d6bc 6d63 25bd
000003c0: 0f18 69bb e67c 6bbc e6d2 88bd 9fc0 b4bb
000003d0: af07 80bc 9bfb 22bd 66cf 033d 3eff 3cbd
000003e0: 21b5 96bc ee7e 203c a04a afbc 622f 7abd
000003f0: ae58 3abd fadb 213c 6c5e 62bd 45ac 7f3d
-0.025882812 -0.0048584496 -0.042026367 -0.0528548 -0.05258022 0.08244627 -0.020768356 0.13045633
0.029427651 -0.04778229 -0.033262692 -0.0064637605 -0.04014167 0.007541657 0.025753908 0.008513654
-0.017999016 -0.04121676 0.083234124 -0.007375801 -0.06802346 0.120009005 0.04713692 -0.012343979
0.00732569 0.008207783 -0.04589638 0.004229433 0.012627097 -0.033728313 0.018767001 0.027795857
0.041642 -0.028398125 -0.016829416 -0.04307297 -0.0440913 -0.022990275 -0.02835947 -0.008637472
0.019245202 -0.02689647 0.028460221 0.014894254 0.050704565 0.011141635 -0.08110151 0.015421863
0.007082228 -0.03304803 0.005300183 -0.036597114 -0.0036478862 -0.005152491 -0.007837907 0.036434337
-0.05879897 -0.018953428 -0.03122142 -0.029745625 -0.00057281577 0.010965093 0.08135101 0.022287704
-0.034319934 0.02249296 -0.04079342 0.029318126 0.0040707826 -0.008605583 0.028730854 -0.06406697
0.023488978 -0.00038299718 -0.015672706 -0.029494002 0.025991697 -0.0062046414 0.041581295 -0.055170525
0.015892828 -0.022966785 -0.083026186 0.0008666503 0.020137012 -0.030359149 -0.026805224 -0.04377795
-0.0775196 -0.012266255 -0.053419396 -0.011354768 -0.025115153 -0.01720118 0.043971386 -0.015452223
-0.003746178 -0.04854032 -0.01118424 -0.06146043 -0.00081310235 -0.09816342 -0.08887647 -0.011638553
0.032726627 -0.02612281 -0.023926951 -0.0038844622 -0.07104357 0.10465213 -0.012225357 -0.06977303
-0.019993572 -0.001962841 0.032274075 -0.01284756 -0.04320378 0.020828487 0.025277905 -0.027570175
-0.04611127 -0.03238654 -0.06487803 0.04713573 -0.067022726 -0.008418966 -0.0035346318 -0.055335812
0.008171104 0.015079179 -0.050159246 -0.065938115 -0.028816687 0.015353339 -0.059546553 -0.025841694
-0.07179199 0.04708438 -0.020646714 -0.029181896 0.012496046 -0.035457365 -0.1118214 -0.049000047
-0.036669407 -0.039395176 0.019660123 -0.0651263 -0.021781325 -0.014335619 0.030501727 -0.0024494196
0.012323274 -0.055473816 -0.032798264 -0.004851376 -0.028665518 -0.045951284 -0.0037393498 0.07675613
-0.05169361 0.03543387 -0.061068997 -0.05252586 0.013926995 -0.00030299005 -0.013363578 0.02961268
0.016394163 0.027238319 0.013787633 0.0056444183 -0.054901093 0.005908747 -0.047059737 -0.017107068
0.045286536 -0.008556311 -0.014454835 -0.007186822 -0.007976629 -0.008598122 -0.03737782 -0.014518613
0.0014266561 -0.005806878 -0.0071796356 -0.0014441869 -0.0037819482 -0.02906617 0.0053052506 -0.024014333
-0.072129704 -0.07735557 0.012651137 -0.020733593 0.19295672 -0.0018992206 0.046834957 0.01179173
-0.00899028 -0.010292954 -0.042036213 0.042018216 0.025218839 -0.011863936 0.014459151 -0.05786445
-0.0421642 0.015517442 0.034696117 0.032878138 0.001733923 -0.033176992 -0.024113351 -0.043416187
-0.022709472 0.0030917765 0.013483527 -0.040617704 0.0073135924 -0.021892658 -0.019537603 0.020309627
0.00086216186 -0.0044965 -0.09460631 -0.02176473 0.005862014 -0.030049577 -0.0574904 -0.033026308
0.0031873588 0.004659649 0.018298596 0.016678916 -0.034238182 -0.029254306 -0.02622608 -0.040378023
-0.0035567319 -0.01437304 -0.06680851 -0.0055161263 -0.015628664 -0.03979073 0.032180212 -0.046141855
-0.018396916 0.009795887 -0.021397889 -0.061080344 -0.045494728 0.009879107 -0.05526583 0.06242015

color_layer.0.bias f4 [256]
00000000: e0d6 253b 9ba2 343c b213 273a fc69 53bd
00000010: 5e69 50bd 9b18 73bd 50a3 9e3c e26a a4bc
00000020: 894f 58bd 3a31 60bd c19e 5ebd 2aca 46bd
00000030: 2191 fcbc edd6 a83c 632e aabc 508e 633d
00000040: 7f67 cc3c 3570 593c 6b90 113d 3856 46bd
00000050: 903b a4bb 004d afbc 512d 6b3c 8dda 04bd
00000060: a710 febc ab47 813c 2239 063d ccd9 6fbd
00000070: e981 3fbd 5dd6 233c ea0d 733c 4912 8e3c
00000080: f08f 63bc fa62 5b3c b00c d43b a281 8c3b
00000090: 2ab8 12bd 61f9 70bd b1a2 a6bc 032d 4cbc
000000a0: caa7 2ebd 0271 37bd a764 59b8 1542 053b
000000b0: 00ce afbc d580 c0bc 3a6b 9abc fe5a 66bd
000000c0: 5bde 72bd bb15 43bd 7b64 99bc 576a c1bc
000000d0: e6e2 9cbc 6bfa 1b3b 3baf e63b 476a 9c3c
000000e0: bf74 25bd ee20 59bd 02f3 acbc c62c 983c
000000f0: ce53 28bc 16b3 61bc de45 173c a94d 32bc
00000100: 5950 5abd 50dd d23c d4c2 46bd c172 abbb
00000110: 998d 14bd e6c0 8f3c 9a76 df3b fa07 28bc
00000120: 6bf4 033d 7565 313d c4d1 5c3b 1aec 853c
00000130: 3749 373d 67aa 3f3c da4b bd3c caff 08bd
00000140: 9962 293c bf74 9bbb 492f 66bd 04a1 b8bb
00000150: 8de7 febc a89c cbba ce23 313d 664d 20bd
00000160: d6c6 74bc 9d6d 143d 87b7 67bd 10c8 ce3b
00000170: b302 f2bc 2b26 87bd dea9 6abd 2dd9 1dbd
00000180: 2846 75bc 75cc be3b 0915 8b3b 83d2 423c
00000190: 9ce8 f83c 5730 033d c366 46bc ad46 babc
000001a0: 17e3 043c a853 e9bc 8af5 a8bc eb19 f0bc
000001b0: ecd0 923c 1234 32bc 8799 f03c f1de 333c
000001c0: 7eae 943d ba5e b23c 4d22 c8bc d425 0e3c
000001d0: bdc9 5abd 5117 233d a859 a93c 0d35 b8bb
000001e0: 6e43 843c cb86 3bbd 3739 813b 2c5b 2f3c
000001f0: 0924 debc 7ba7 913c 2eaa edbc 3cee bfbb
00000200: 0811 7dbd 5d17 0ebd f577 173c 664e 8cbd
00000210: b263 bdbc 74b1 42bd 54ca eb3c 3912 bdbb
00000220: 1b8a fdba f629 7abd cfff fa3a e214 cd3c
00000230: a641 55bd 7442 df3c 309c 0bbd c3d5 01bd
00000240: be3e 8bba e4e7 f238 298d fa3c bdd6 7abd
00000250: 52b9 65bc 86da 5abd fd1f 2a3c d8f3 34bd
00000260: 5ea3 cc3c e9b0 3bbc 3c66 27bc 6998 9bbc
00000270: cedb 48bd f534 bdbc 68f5 c43c bd1f 62bd
00000280: 0e18 033d 4709 38bc 092b 3b3d be10 11bd
00000290: a31b 5538 b7d4 36bd 0fdf 52bd 28ab 583d
000002a0: 9608 56bd 3094 e83c e69f 123d 084a 2abd
000002b0: 2223 893c a9c3 ee3c 3b7e 263d d6a9 49bd
000002c0: 341d 54bd ef91 11bd 936e 4dbd 5144 b03c
000002d0: 1157 623c d2d8 b7bc 645a 8c3c 3c31 e73c
000002e0: c969 60bd d8a3 57ba e1ef 2abd 1899 973c
000002f0: c372 d1bc 2f28 7a3c 528d b63b 2a1e a6bc
00000300: a4a3 4cbc dadf 053d 3fe9 80bd 6801 3dbd
00000310: 4d16 82bd 16fe b7bb ca49 4abd ea49 44bc
00000320: 8f03 f13c fc3a fabc d3e5 6abc 48d3 42bd
00000330: 6c9b 953c 23a1 df3c 312c e8bc 0a2f d7bc
00000340: d9a2 34bd 0564 133d 1551 9dbc 5c57 3bbd
00000350: 1dd6 35bd 859a 0ebd 9770 22bd d88b 12bd
00000360: 6ea8 793c d991 283d eb7e 1f3d c282 c3bc
00000370: bfe4 64bd 3b25 f23c 43b2 21bd d7f1 7f3c
00000380: 14e0 6abd 436b 013d e6a3 e63c c1fc 9b3c
00000390: a4aa 54b9 1a52 203c 0c15 083c b385 ff3c
000003a0: 55e7 123d 329c f0bc 173a fbbc 52c9 ecbb
000003b0: c4d9 bcbc dbb6 74bd 4007 efbc 9b19 2dbd
000003c0: baa1 a3bc e16e 22bd d32f bf3b 83f2 113d
000003d0: 8afb c73c b501 063d 1128 46bd d38b 85bb
000003e0: d4fe abbc 2780 c6bb b35e 92bc 3f37 07bd
000003f0: 2745 d5bc 962e d23c c0e4 803c 2ec3 1c3b
0.0025305077 0.011025096 0.0006373479 -0.051614746 -0.050881736 -0.059349637 0.019364983 -0.020070497
-0.052810226 -0.054734446 -0.05435062 -0.048532642 -0.030830922 0.020610297 -0.020774072 0.05555564
0.024951695 0.013271381 0.03553812 -0.04842207 -0.005011983 -0.021399021 0.014354066 -0.03243499
-0.0310138 0.015781244 0.03276933 -0.058557317 -0.04675475 0.009999839 0.01483486 0.017342703
-0.013889298 0.013390297 0.006471239 0.0042879144 -0.035820164 -0.058831576 -0.02034125 -0.0124619035
-0.042640485 -0.044785507 -5.183057e-05 0.0020333577 -0.021460533 -0.023498932 -0.018849958 -0.05623912
-0.059294086 -0.047628146 -0.01872467 -0.023610277 -0.019151162 0.0023800384 0.007039932 0.019093646
-0.04039454 -0.05300992 -0.021111969 0.018576037 -0.010273887 -0.013775608 0.009232966 -0.010882773
-0.05329928 0.025740296 -0.048525646 -0.0052321856 -0.03626785 0.017548036 0.0068195583 -0.010255808
0.032215517 0.043309648 0.0033694366 0.016347934 0.044747557 0.011698342 0.023107458 -0.033447064
0.010338449 -0.004744142 -0.05619744 -0.005634429 -0.031116271 -0.0015534358 0.043247037 -0.039136313
-0.014939984 0.036237348 -0.05657151 0.0063104704 -0.029542303 -0.06599077 -0.057290904 -0.038537193
-0.01497034 0.005822713 0.004244451 0.01189101 0.030384354 0.032028522 -0.012109461 -0.022738779
0.008110783 -0.028482273 -0.020624895 -0.029309234 0.017921887 -0.010876672 0.029370083 0.010978446
0.07259844 0.021773685 -0.024430418 0.008676011 -0.05341505 0.039817158 0.020672634 -0.0056215585
0.016145434 -0.045782845 0.003943588 0.010702889 -0.027116792 0.017780056 -0.029011812 -0.005857257
-0.06178382 -0.03469025 0.009244909 -0.06850891 -0.023118827 -0.047532514 0.028783001 -0.0057699946
-0.0019343527 -0.061075173 0.0019149723 0.025034372 -0.05206456 0.027253367 -0.0340845 -0.031698
-0.0010623557 0.00011582652 0.030584889 -0.061239947 -0.014021235 -0.053431056 0.010383603 -0.04417786
0.024980243 -0.011455753 -0.010217246 -0.018993573 -0.049037747 -0.023096541 0.0240428 -0.05520605
0.032005362 -0.011232681 0.04569534 -0.035416357 5.0808896e-05 -0.044636454 -0.051482257 0.052897602
-0.052254282 0.028390974 0.035797022 -0.041574508 0.016740385 0.029146032 0.040647727 -0.049234234
-0.051785663 -0.035539564 -0.05015428 0.02151695 0.013814704 -0.022442255 0.017132945 0.028221719
-0.054788385 -0.0008226014 -0.041732673 0.018505618 -0.025567418 0.01526837 0.005571046 -0.020278055
-0.012490187 0.032684185 -0.06294488 -0.04614392 -0.0635191 -0.005615006 -0.049386777 -0.011980513
0.029420642 -0.030545704 -0.014337021 -0.047564775 0.018262587 0.027298516 -0.028341385 -0.026267547
-0.044100616 0.035984058 -0.019203702 -0.04573761 -0.044393647 -0.03481533 -0.039658155 -0.035777897
0.015237911 0.041154716 0.038939398 -0.023866061 -0.05588221 0.029558768 -0.039476644 0.015621624
-0.057342604 0.031596433 0.028154325 0.01904142 -0.00020281464 0.0097852 0.008305799 0.031191682
0.035865147 -0.029371355 -0.030667348 -0.0072261477 -0.023053057 -0.059744697 -0.029178262 -0.042260747
-0.019974578 -0.039656524 0.0058345585 0.035631668 0.024411935 0.03271647 -0.048378054 -0.0040755062
-0.020995535 -0.0060577574 -0.017867422 -0.03301167 -0.026033951 0.02565698 0.015734076 0.0023920047
